storage/model_20251222_185408/model.pt (torch, 69761 bytes, 30 tensors)

layer.0.weight f4 [80, 10]
00000000: bfea 01bd 08ad 5e3e 22c6 803e 1e80 dc3d
00000010: 2ffc 523e cf45 52bc f0f0 c1bd 7d8f 563d
00000020: b581 2d3e 09ca 27bd 829a 4abe ed9f af3d
00000030: 185a 84bd eb08 fdbd a2c9 273e 6abe cbbb
00000040: 3b0a 17be 57d4 1dbe 4283 783e d945 2c3e
00000050: bb8a 34be 4fe9 a53a 43d9 94bb 1997 ff3d
00000060: 88b5 62be 692f d63a 3251 ad3d 5a4b 043e
00000070: 2c7e e83c d1b2 00be b180 73be 92a5 0c3e
00000080: 3178 713e e589 9bbd 1eed 6cbe 8535 903d
00000090: 4afd 39be b79e 2dbe 3170 8e3d 2043 c3bc
000000a0: 85c0 56bc cc2e 6d3e 37a1 35bd 231c 213e
000000b0: dff5 a4bd da2e 413e b442 9c3d da8e 6b3e
000000c0: 1479 b93d 1cbf b8bd 532d df3d 896e 5d3e
000000d0: d756 4a3d 8874 f73d 1354 38be 73a1 123e
000000e0: 1242 79be 6f49 673e 05bd d73d c10f 8c3c
000000f0: 9bbd 6cbe faee 713e 104d 273e d763 743e
00000100: cf8a d13d 5ce5 b33d 1136 84bd a0d5 d8bd
00000110: 0a44 d43d a571 b93d 3893 853b d1f1 303d
00000120: 0d54 b93d 77ee 7cbe 8b51 6abe e1d4 91bd
00000130: db7e 2e3e 62b1 003e f556 7cbe 90ac 9cbd
00000140: bd13 b8bc 58d7 b03d 703c 563e 5d14 bd3b
00000150: 7786 4dbe 57ce ba3c 98f4 cabd afe3 20be
00000160: 49e8 133e b14b 0ebd bd4e 023e 1654 4f3e
00000170: 770a d83c 0b58 163e 37ff f9bd 6586 103e
00000180: 83f9 0b3c 9383 2e3e 7617 7e3e fbed 46be
00000190: bf4a 783e 7615 493e a96b 55be 80f6 9a3d
000001a0: abf7 56be 2828 b63d 80b4 223d cc7e 7dbe
000001b0: a51e c03d d14d 93bd 2058 813e f803 803e
000001c0: 5d4d b43d 7960 503e ccae be3d afa7 783e
000001d0: 8429 b7bc 1915 813d 27ca 27bd c6be 5fbb
000001e0: 1e70 a2bd d2f6 c9bd 4c5d 183e 7158 e43d
000001f0: 8128 e8bd 9efc 59be 679b 033e 1121 71be
00000200: cbf7 0ebc 5ee4 62be 80ef 593e 587f 553e
00000210: e1e4 5cbe c86f 76be a312 1cbe f29b 983d
00000220: 9387 01be 4958 82bd f68d 86bd 44ef 3a3d
00000230: 439c efbd 8779 f13d 561b 3bbe 428d b3bc
00000240: 800f 5e3e 45c1 16be 8e8f 493e 6afd 093e
00000250: b427 aabd 29e5 b93d c9c3 23be 3afc b93c
00000260: e2f9 923d 06ed 643e 18be 13be b326 1abe
00000270: d1e9 05be 8619 80be 25f3 573d 3d08 5abe
00000280: 67eb a2bd 0095 f2bd 0a05 643c b13b 9f3d
00000290: ff10 3fbe 43bc 9cbd e7e1 aabc 18f7 18be
000002a0: 77a9 713d 161d c23d 1c5a 40be a17b 4d3e
000002b0: 8b72 3a3e c22e a0bd aabe 1b3d c4ac 073d
000002c0: b1cb 12bd 7ec3 31be 9b66 583e 9f05 023e
000002d0: 8578 50be 51a5 4cbe 70cc 7e3e 8abe 353d
000002e0: c38b 6bbd 436d 283e b2ce 8e3d 1160 c03d
000002f0: 2bab 523e 3f46 8cbc 5a6f 833e 8fbe 3abe
00000300: 6046 1fbe 63ed 2f3d 4568 01bd ad82 0f3e
00000310: c42c 97bd fd88 223d d133 5fbd c455 463e
00000320: 7a4d 27bd dd7c 193c 3fd7 433e 60d1 7f3e
00000330: b579 7c3e 2d5d 70be 60f7 11be 07d1 5abd
00000340: 2e6f 51bd 0dbd 163e 01fe e33d 0ea0 bdbc
00000350: 7f0e a43a b721 5c3d f81b 633e be6b 123e
00000360: b971 ffbd 616b 09be 114b a53d b9d8 e9bc
00000370: 490a 1ebe fead 80be 2b1d 173d b023 97bd
00000380: acd6 18be e590 333d 02e9 7e3e 1dde 5a3e
00000390: 4db0 163e 1ae4 44be 92d9 183e ca81 043e
000003a0: 3ba3 b33d 32da 7ebd d62a 89bb c1f7 13be
000003b0: 6752 72bd 4ece 36bd bc47 19bd 563f 83be
000003c0: 35ed a63d f78f 58be 0cad 46be 2595 d73d
000003d0: 5bef 59be 922d 813e 09b1 803e b2ef a9bd
000003e0: 128b 38bd d425 4dbe 4c9e 773c 33a4 583d
000003f0: 0578 13be d37b a13d aee3 22bc f0bc 82bd
-0.031718012 0.21745694 0.25151163 0.10766624 0.20604013 -0.0128340265 -0.09469783 0.052382935
0.1694401 -0.04096416 -0.19785503 0.08575425 -0.064624965 -0.123552166 0.1638551 -0.0062177675
-0.14749996 -0.15413032 0.24268821 0.1682352 -0.17631046 0.0012658032 -0.004542501 0.124799915
-0.22139561 0.0016341034 0.084627524 0.1291937 0.028380476 -0.12568213 -0.2377956 0.13735035
0.23581006 -0.07594661 -0.23137328 0.07041458 -0.18163028 -0.16955076 0.069549926 -0.023835719
-0.013107424 0.23162383 -0.0443432 0.1573339 -0.08054709 0.18865529 0.0762991 0.23003712
0.09056297 -0.09020826 0.10897317 0.21624197 0.049399223 0.120827734 -0.18000822 0.143194
-0.2434161 0.22586606 0.105340995 0.017097356 -0.23119204 0.23626319 0.16337991 0.23866211
0.10231554 0.08783981 -0.06455625 -0.10587621 0.1036454 0.09054879 0.0040763877 0.043199364
0.090492345 -0.24700342 -0.22882669 -0.071206816 0.17040579 0.12567666 -0.24642546 -0.07650101
-0.02247035 0.086348236 0.20921493 0.0057702498 -0.20070826 0.022803469 -0.09909934 -0.15711854
0.14444079 -0.034740154 0.12725349 0.2024692 0.026372178 0.14682023 -0.122068815 0.14113767
0.008543375 0.17042379 0.24813637 -0.1942672 0.24247263 0.19637093 -0.2084185 0.075665474
-0.20992915 0.08894378 0.03972292 -0.247554 0.09380845 -0.07192577 0.25262547 0.25003028
0.088038184 0.20349301 0.093106836 0.24282716 -0.022358663 0.06302852 -0.040964272 -0.003414081
-0.07931541 -0.0986153 0.1487934 0.11149681 -0.113358505 -0.21287772 0.1285225 -0.2354777
-0.008726071 -0.22157428 0.21282768 0.20849359 -0.21571685 -0.24066079 -0.15241484 0.07451619
-0.12649374 -0.06364495 -0.06570046 0.045638338 -0.116997264 0.117907576 -0.18272147 -0.021917943
0.216856 -0.14722164 0.19683668 0.13475576 -0.08308354 0.09076912 -0.15992655 0.022703279
0.071765676 0.22356042 -0.14427984 -0.15053825 -0.13077475 -0.25019473 0.052722115 -0.21292205
-0.07955056 -0.11844826 0.013917217 0.07775057 -0.18658827 -0.076530956 -0.020859672 -0.14938009
0.058999505 0.09478204 -0.18784374 0.20066692 0.18207757 -0.07821418 0.03802363 0.033123747
-0.035838787 -0.1735973 0.21132891 0.12697457 -0.20358475 -0.19984938 0.24882674 0.044371165
-0.057506334 0.1644793 0.06973018 0.09393323 0.20573108 -0.01712334 0.25670892 -0.18236755
-0.1555419 0.042951 -0.03159358 0.14014693 -0.07381585 0.039681423 -0.054492775 0.19368654
-0.04084537 0.009368149 0.19125079 0.24982214 0.24655803 -0.23473044 -0.14254522 -0.053422
-0.05113142 0.14720555 0.11132432 -0.02314761 0.0012516527 0.05374309 0.22178638 0.14298913
-0.12472863 -0.13419868 0.080709584 -0.028545724 -0.15433611 -0.25132746 0.03689305 -0.07379854
-0.14925641 0.043839354 0.24893573 0.21373792 0.14715691 -0.19227639 0.14926746 0.12940136
0.08771368 -0.062219806 -0.0041860146 -0.1444998 -0.059160616 -0.04463034 -0.037421927 -0.2563426
0.081507124 -0.21148668 -0.1940195 0.10526494 -0.21282713 0.2523008 0.25135067 -0.082976714
-0.045054503 -0.20033962 0.0151134245 0.052890968 -0.14401253 0.07884946 -0.009941978 -0.06383693

layer.0.bias f4 [80]
00000000: edf3 0e3e 94b9 0abe 7e60 803e 8565 64be
00000010: 379c f0b9 b80d 903e 63f2 9f3e 4af0 3bbe
00000020: 2f65 5a3d f3e7 163d aee8 17be 248e e3bd
00000030: 3864 a93d 17b9 61be cb60 533d 7135 0b3e
00000040: 8a4c 00be 8fb8 863e 3717 b8bc b754 163e
00000050: 71cc a03e 8d0e c3bd 3fb7 2c3e 61ec b7bd
00000060: 96ab 36bd b6ef 62bd 92fb 96bb c500 fbbd
00000070: 0c6d 973d 8ab3 483c 8750 4c3e 5722 82bd
00000080: 3a72 f93c 213a f2bd 3144 87be ab68 033e
00000090: 2ce7 173d c0a0 02be 9d7a dfbd 7171 a13d
000000a0: 64b2 76bd c553 543e ebc4 793c 9d9a fa3d
000000b0: 7bc9 0d3e 50f1 9ebd f8fd 0b3e 9eca 6f3e
000000c0: 624e 6b3c f06b 803d 289c 3a3c 17c7 5f3e
000000d0: ca83 0bbe 957a 2dbe 9577 0d3e 0c59 8cbe
000000e0: 085e 313b 1558 14be 5f55 563e 26f8 96be
000000f0: b6c0 443e 5254 9f3e c0d4 833d 017e c4bc
00000100: 6cb1 a03e 9a53 08be 3cb0 c7bc aa92 0cbe
00000110: ead0 37bd d4bb 8e3d e7c2 303d 80c6 74bd
00000120: 4282 a2be 52c2 643c 220d 24bc 89c2 403d
00000130: 1405 773e df3e 9c3e ecba 40be ef0b 97bc
0.13960238 -0.13547355 0.25073618 -0.22304352 -0.00045892756 0.28135467 0.31239614 -0.18353382
0.053319152 0.036842298 -0.14834854 -0.111110955 0.08271068 -0.22043262 0.05160598 0.13594605
-0.12529197 0.26312682 -0.022472007 0.14680754 0.31405976 -0.0952426 0.16866778 -0.089806326
-0.04459723 -0.055404387 -0.0046076262 -0.12256006 0.07393846 0.012249837 0.19952594 -0.06354206
0.030449975 -0.118274935 -0.26419213 0.12832896 0.037085697 -0.12756634 -0.109120585 0.07882965
-0.06022872 0.2073508 0.015244703 0.122365214 0.1384639 -0.077608705 0.136711 0.23417136
0.01436195 0.062705874 0.01138977 0.2185329 -0.13624492 -0.16941293 0.13815148 -0.27411687
0.0027064104 -0.14486726 0.20931004 -0.29486197 0.19214138 0.3111902 0.06437063 -0.023985865
0.31385362 -0.13313141 -0.024376027 -0.13727823 -0.04487697 0.06969419 0.043154623 -0.059759617
-0.31740004 0.013962345 -0.010012897 0.047060523 0.24123031 0.30516717 -0.18821305 -0.018438308

layer.1.weight f4 [10, 40]
00000000: 9268 09be b361 a73d f38d a33e e609 81be
00000010: 5e01 95bb 2283 983e 22ff 4cbe ed85 88be
00000020: cb74 c43d 59cf c4bb 6327 9cba 911c 5c3e
00000030: 6e85 97be fd2d 55be 72f5 753e 24f8 77be
00000040: 3994 3ebd 5dc0 243e 7d62 3cbe 7978 89be
00000050: 7a0d 58be 7adf 82be 37c5 98be e3d9 72bd
00000060: a034 a5be c37e 58be bcfe d73c 07b0 a33e
00000070: ec0e ae3e f903 943e bf45 263d 5eb9 5b3e
00000080: 10a7 e2bd 4fd0 63be aaeb 333e 42d2 0a3e
00000090: 8cd7 f43d bb88 203e 887a a7bd 1d15 833e
000000a0: af01 423e 4d28 1cbe 298c 813e a7d2 fd3d
000000b0: 70bb 303c 7283 8e3b 5250 983e 94a7 353c
000000c0: c030 f83d 5232 823e 0c07 aa3c 2779 a03e
000000d0: 76e8 51be da49 06bd 083e f13c da97 9a3c
000000e0: ecec 80be a823 a83e 63a5 45be 534a 7f3e
000000f0: c4b0 0ebe aebc 0e3e 09b1 43be a4bb 1abe
00000100: dc63 be3d eae7 723e 0b65 eabc eb23 063e
00000110: dff3 43be 5721 dd3d 8e2b 1dbd 84aa a1bd
00000120: 7774 2f3e 9217 ebbd a9d7 57be 47fc c8bd
00000130: edaa 313e 870a aa3e 3c8a a03e d1e2 773e
00000140: 63e5 5abe c6c0 9e3e 0a12 113e b869 803d
00000150: edf0 4cbe 8149 3bbe 1458 b63d c6e9 01bd
00000160: 8866 c7bd 5ce3 86be 6816 963e 0285 da3d
00000170: badc 383d 5c16 063d b755 403e 8d72 55be
00000180: 3206 74bc a51c 9d3e c467 5dbd 09bb 97be
00000190: 3cab 54be 162d 5b3e afe3 3b3e 732d 743e
000001a0: bef9 fdbd 2632 23be 5cb4 9cbe ac65 bb3c
000001b0: 7e05 96bd c7bf a73e e962 1fbe b4c3 61be
000001c0: 6280 0f3e 81dd 02be ab13 06bd 7eb5 af3e
000001d0: 3b1d 5d3e 0281 b0be ea0a 7f3c e379 333c
000001e0: c648 ac3e 1ab6 98be 22e2 553e a454 aebe
000001f0: 3f0f b0be d2c9 3cbe ef7b aabe 57fc a8bc
00000200: c8c6 8e3e d95e ccbd 5e25 87be 223e 04bd
00000210: fc9f 91be 8a10 6d3e 250d 433d 9076 9d3e
00000220: cb80 133e 0ace fa3d ec03 ef3d 4dfc a33e
00000230: c40f 61be fcf0 5dbe 441b 873e 6bf1 003e
00000240: abab a13e 835a a43d fd5a fc3d 0c85 563e
00000250: 27e4 623e 9c36 3f3e f1db 8abe 9a16 ce3d
00000260: 6904 73be b7cb 293d 8b3f 403e ed39 eebd
00000270: e861 993e 8201 9c3e 97bb c63d 907d 80be
00000280: 80bd 6a3b 1dd2 873e 15a3 753d a1bd 973e
00000290: caf0 c13c 53e3 20be 947a 663e 109d e43d
000002a0: c7ae 3f3e f3e4 56be 1591 87be bc8c 693e
000002b0: 299c fb3d c328 803e 5d09 93be 1eef 26be
000002c0: 46f6 51bc 59a7 39be 220f 5c3e ec46 8c3e
000002d0: b557 983e 0764 533d b314 a1be d128 03be
000002e0: 0ac7 a03d dd43 c6bd bc28 173e 7db4 bebd
000002f0: 3d63 923e a874 973e 34ae ac3e 42ff e23d
00000300: 9ede 71be 1631 b5bd fbcd 40be d7c4 1c3e
00000310: 079a f7bc e9f7 0b3e 38e3 c83d 2f46 ddbd
00000320: 8c86 403d c51b 40bd f71f 683d dd27 68be
00000330: 10dc 1b3b e5d8 833e 08b6 2e3e 1b07 5ebe
00000340: 4db3 933e a360 08be 0d95 993e cff6 92bd
00000350: ffb1 ab3e e1b8 4a3e 2bea d5bc fd1a 733e
00000360: 7dd4 943e a234 87be a860 7b3d 1e45 743e
00000370: 5a2f 1fbd 5a8a 563e c661 893e a329 89be
00000380: 0abd 383e ea79 9ebe f4ce 5e3e cb9d 4bbe
00000390: 8775 e2bd e2ba 983d bf78 96be fb4b e7bb
000003a0: 9001 f8bd 33d0 ca3d e410 eabc aa7e a3be
000003b0: 5da7 aebd b6a2 593d 943b 353e 56a7 46be
000003c0: 7de2 56be c09a 203e 3e4f 58be 26e6 0bbe
000003d0: e6e2 b1be 76d5 b1bd 5197 8bbe b935 703d
000003e0: 8583 903e cfa2 1d3e ba16 91be 8129 a03e
000003f0: d06b 9dbe 19de 06be 5297 463e 84f5 293e
-0.13418797 0.081729315 0.31944236 -0.25202864 -0.004547282 0.29787546 -0.200192 -0.26664677
0.09592589 -0.006006163 -0.0011913594 0.21495272 -0.29593986 -0.20818324 0.24019411 -0.24215752
-0.046528075 0.16089006 -0.18396945 -0.26849726 -0.21098891 -0.25561124 -0.29837963 -0.059289824
-0.32266712 -0.21142106 0.026366584 0.31970236 0.3399576 0.2890928 0.04059386 0.2145743
-0.11067021 -0.22247432 0.17570367 0.1355677 0.11955175 0.15677159 -0.08177668 0.25602046
0.18945955 -0.15249749 0.25302246 0.12393694 0.010786876 0.0043491656 0.2974878 0.011087317
0.12118673 0.25429016 0.020755313 0.31342432 -0.20498833 -0.032785274 0.029448524 0.018871237
-0.25180757 0.32839704 -0.19301371 0.24930696 -0.13934618 0.13939163 -0.19110502 -0.15110642
0.092963904 0.2372128 -0.028612634 0.13099639 -0.19135998 0.10797375 -0.038371615 -0.078938514
0.17134272 -0.11479105 -0.21078362 -0.09813743 0.1735036 0.33211157 0.31355464 0.24207617
-0.21376567 0.3100645 0.14167038 0.06270164 -0.20013781 -0.18289758 0.08903518 -0.031717084
-0.09736353 -0.26345336 0.2931397 0.106699005 0.045132376 0.032736167 0.18782698 -0.20844479
-0.014894055 0.30685917 -0.054054037 -0.29634884 -0.20768446 0.21403918 0.18348573 0.23845463
-0.1240115 -0.15937099 -0.30606353 0.02287563 -0.07325266 0.32763502 -0.15565075 -0.22047311
0.14013818 -0.1277981 -0.0327336 0.34318155 0.21593182 -0.34473425 0.015566567 0.010954353
0.33649272 -0.29826432 0.20887044 -0.3404895 -0.34386632 -0.18436363 -0.3329768 -0.020628138
0.27886033 -0.09979028 -0.26395696 -0.032285817 -0.2844237 0.2315084 0.047619957 0.30754519
0.144046 0.1224633 0.1167067 0.32028428 -0.2197867 -0.2167396 0.2638799 0.12592094
0.31576285 0.08025076 0.12322042 0.20949191 0.22157346 0.18673176 -0.27120927 0.10062905
-0.23732151 0.041454043 0.1877424 -0.11632142 0.2995751 0.304699 0.09703749 -0.25095797
0.0035818517 0.2652749 0.05996998 0.29636863 0.023674387 -0.15711717 0.22507697 0.1116277
0.18719016 -0.20985775 -0.26477876 0.22807592 0.122856446 0.250311 -0.2871808 -0.16302153
-0.012815064 -0.18130244 0.21490148 0.2739786 0.29754415 0.051609065 -0.31461105 -0.12808539
0.07850464 -0.09680913 0.14761633 -0.09311769 0.28591338 0.2958119 0.33726656 0.11083843
-0.23620078 -0.08847253 -0.18828575 0.15309463 -0.030224813 0.13668789 0.098089635 -0.10804402
0.047003314 -0.046901483 0.05667111 -0.22671457 0.002378229 0.25751415 0.17061627 -0.21682398
0.28847733 -0.13318114 0.2999653 -0.07175981 0.33534238 0.19797088 -0.026112637 0.23740764
0.29068366 -0.26407343 0.061371475 0.23854491 -0.038863517 0.20951214 0.26832408 -0.2678958
0.18040863 -0.30952388 0.21758634 -0.19884412 -0.11057573 0.0745752 -0.29388997 -0.007058618
-0.12109673 0.09902992 -0.028572507 -0.31932575 -0.08528016 0.05313369 0.17698509 -0.19399771
-0.20984836 0.15684032 -0.21123978 -0.13662013 -0.34743422 -0.086832926 -0.27263883 0.058644984
0.2822534 0.15394138 -0.28337651 0.31281665 -0.30746317 -0.13170661 0.19393662 0.16597563

layer.1.bias f4 [10]
00000000: d80e f3bd 316f a0bc dfeb b93c 5a7b 1e3d
00000010: 796a 993d 2c0d 89bd 62c4 32bd 7b5a 0f3e
00000020: 3864 22bd 9d51 dbbd
-0.118680656 -0.01958427 0.02269548 0.038691856 0.07491011 -0.066919655 -0.043644316 0.1399936
-0.039646357 -0.10708926

layerz.0.weight f4 [80, 5]
00000000: 2a9e 31be 643d 8c3c 79ef 663e 93d8 4c3d
00000010: b173 673e f13e 423e bc60 3bbe b077 823e
00000020: 1829 803c 1ac3 633e b330 683d 586a 34bd
00000030: 1a95 673e 9f91 4abe 8bd4 943b a7e3 06bd
00000040: a07d 4a3c 8a81 9bbd b6d0 573e fdd0 5abc
00000050: 59dd d93d eb32 e53d e567 773e 8914 c43d
00000060: 9310 87be 455c 66be 558b 80be aad7 85be
00000070: 97c7 61be 63e8 86bb 44ad 803e 3b1f 31be
00000080: 0a6b e23d aa62 f9bd cf09 533e 6064 313e
00000090: 6ae6 ff3d d449 703e 13bb 4cbe 6a82 66be
000000a0: 0dcd 0abe b48c 5d3d 07f4 703e f676 333e
000000b0: 8c10 aa3d 5618 48bd 50c0 18be f817 873e
000000c0: bd4b 6ebe f81c 3cbe 0063 203e bf80 553e
000000d0: 7ecd 913d 28bd 6dbb d8b9 01bd 0103 113d
000000e0: fa3b 09be 2d6c 863e e908 883e dcc1 d2bd
000000f0: 80f3 373e 7209 82bd b1c5 43be a0ca 3f3d
00000100: 68bc 4ebd 32ae 603e c2ae 983c 5ec7 70bd
00000110: 166e 57be 5c43 323e 0912 3a3e 688b 193d
00000120: 58cf cabc 2141 b8bd c839 803d 6209 843e
00000130: b4ba 34bd 8119 c13c f025 82be 9c8e 8a3d
00000140: c857 debd 5b7c 7fbd bd42 10be 1d28 7c3e
00000150: 5c8c 393e 198a e9bd 373a 84bd 6104 a73d
00000160: cbdd cb3d 19e5 00be f5d0 db3d 15f2 2e3d
00000170: af6a 1b3e 3081 12be df14 2ebe b056 fc3d
00000180: 9e64 3cbc 9d6d ecbd ad75 553e 95cb f2bc
00000190: 6f42 35be 47fb 15bd 5bde fcbd c070 bbbd
000001a0: d566 60be aea3 573e 2216 703e c187 65be
000001b0: 48c2 293e 440f 9e3d fe91 d4bd 085d 9cbd
000001c0: b1da 3a3d fb6e 6a3d 13bb 673e 7056 803e
000001d0: 9594 7a3c 6f11 803e 9213 21be 2876 133b
000001e0: c9ba 5ebe dc62 013e 19a1 583d ab12 25be
000001f0: d389 4fbe a876 50bd a9f2 ccbd 99ef dcbd
00000200: f8f5 6cbe 91d6 2dbe 7eb7 5e3e 8b26 05be
00000210: 7e14 de3d 6086 9c3c 80f1 14bd 8a67 af3d
00000220: 29c8 4c3e 3467 a93d c6bf ee3c d9e5 5c3e
00000230: 06c6 9b3c dd6b 703d 27d7 843e 3c26 44be
00000240: 410a 453e 36c8 03be c892 57bc 38fd 1dbe
00000250: 250c 333e d9df 5abe f6e6 f0bd daa8 3a3d
00000260: 2825 cfbd b413 ea3c 7e5c 793e 823a 71be
00000270: 87fa 30be cca1 53be 8610 823e 28d1 833d
00000280: 9ced 3fbe b79a 6abe 45a5 493e 2010 7a3e
00000290: 7bab 23be b546 8b3d 1902 89bd 4cb0 203e
000002a0: 0219 18be fa5b 393e 51a0 863e 5323 253e
000002b0: 6e9d 38bd a28a 0c3d fb2b eb3d 958f 1abe
000002c0: f95f f9bd 7b67 84be 8080 413e 226f febd
000002d0: 8d8d 6d3e 7c81 52bd 6d68 c9bd 55aa 093e
000002e0: dd37 d9bc 70ea 35be 4c85 e23c a86b fcbd
000002f0: 8954 44be 09cd 2bbe 7eec c03d 5707 b93c
00000300: 1419 dcbd 8e5b c03d 7a8a aabd ced3 4fbe
00000310: 2aa5 ba3d 9352 b9bd 5d18 a1bd 5bb0 433e
00000320: 8af0 4e3e 4e0f 85be b411 693e af8c 733e
00000330: c137 44be 5839 87be b1c2 54be 7adf 8fbd
00000340: 2dff 4fbc 05be 953d cc10 793d 312f 543d
00000350: 60f9 53be 11d4 823e 1a26 6a3e 0aae 003e
00000360: 5725 6a3d 3d5a 19be 0380 a53c 7b76 41be
00000370: 790a 793e a14f 71be 6f2e 673e 0620 803e
00000380: c143 04be f275 76be e690 be3d 97b1 51be
00000390: 54fd 7abe 8575 23be 85e2 393e 45c4 2abe
000003a0: 2ba7 d6bd e6f4 d9bd fdd0 403e c706 d43d
000003b0: 2443 1b3e 7840 4abd 9176 21be 4bb9 c13d
000003c0: d339 dc3d 5960 613e 3adc 7ebe 31cf 46be
000003d0: 3bc4 313e d51c 943d fa29 353e af3b 89bd
000003e0: e90e 873e 71fa d43d cb36 d1bd b266 03be
000003f0: 6575 8e3d f820 debb 79d2 03be 13aa 15be
-0.17345491 0.017119117 0.22552289 0.05001123 0.22602727 0.18969323 -0.1829862 0.2548194
0.015644595 0.22242394 0.05668707 -0.04404673 0.22615471 -0.19782113 0.0045419387 -0.03293195
0.012359053 -0.07593067 0.2107571 -0.013355491 0.10637922 0.111913525 0.24160726 0.09574229
-0.26379833 -0.22496136 -0.25106302 -0.261411 -0.22048794 -0.004117058 0.2513219 -0.1729707
0.11055572 -0.12177022 0.2060921 0.17323446 0.1249512 0.23465663 -0.19993238 -0.22510687
-0.13554783 0.054089263 0.23530589 0.17525849 0.08303937 -0.048851334 -0.14917111 0.26385474
-0.2327108 -0.18370426 0.15662766 0.20849894 0.07119273 -0.0036276076 -0.031671375 0.035403255
-0.13401785 0.26254407 0.26569298 -0.10290882 0.17963982 -0.06349458 -0.19118382 0.046824098
-0.050472647 0.2194145 0.018638019 -0.05878388 -0.21038088 0.17408508 0.18170942 0.037486464
-0.024757072 -0.08996797 0.06261021 0.2578841 -0.044123366 0.023571732 -0.2541957 0.06765482
-0.10856587 -0.062374454 -0.14087959 0.24624677 0.18119949 -0.11403293 -0.06456416 0.08155132
0.09954413 -0.12587394 0.10733215 0.042711336 0.15177415 -0.14307094 -0.17000149 0.12321222
-0.011498598 -0.115443446 0.20845671 -0.029638091 -0.17701124 -0.03661659 -0.123470984 -0.09152365
-0.21914227 0.21058533 0.23445943 -0.22415067 0.16578019 0.077177554 -0.10379408 -0.07634932
0.045618717 0.057234745 0.22629957 0.25065947 0.015294214 0.250133 -0.15730122 0.0022500847
-0.2175094 0.12635368 0.05288801 -0.16120403 -0.2026742 -0.05089441 -0.10007221 -0.10787887
-0.23140705 -0.16976382 0.21749684 -0.13002984 0.10843752 0.019107044 -0.036363125 0.085646704
0.1999823 0.082716376 0.02914418 0.21572055 0.019015323 0.058696616 0.25945398 -0.1915521
0.19242193 -0.12869343 -0.013157554 -0.15428627 0.17485102 -0.21374454 -0.11762802 0.045571186
-0.10114509 0.028573848 0.24351689 -0.23557475 -0.17283069 -0.2066719 0.2540323 0.06436378
-0.18742985 -0.22910582 0.19691952 0.24420214 -0.15983383 0.06800596 -0.06689853 0.15692252
-0.1485329 0.18101493 0.26294187 0.16126756 -0.04507201 0.034311898 0.11482998 -0.15093835
-0.121765085 -0.258602 0.18896675 -0.12423541 0.23198529 -0.051393017 -0.09834371 0.13443883
-0.026515896 -0.17765212 0.027651452 -0.12325221 -0.19172873 -0.16777433 0.09420107 0.022586508
-0.10746971 0.09392463 -0.083271936 -0.20295641 0.09113534 -0.09048953 -0.07865975 0.19110243
0.20208946 -0.2598824 0.2276066 0.23784135 -0.19161893 -0.26410937 -0.20777394 -0.07025047
-0.012695116 0.07311634 0.060807034 0.051802818 -0.20700598 0.2555242 0.22866097 0.1256639
0.057164516 -0.1497583 0.020202642 -0.18892853 0.24320401 -0.23565532 0.22576307 0.25024432
-0.12916471 -0.2406843 0.09304981 -0.20477901 -0.245107 -0.15962799 0.18152817 -0.16676433
-0.104811035 -0.10642414 0.18829723 0.10352855 0.15162331 -0.04937789 -0.15767886 0.0945917
0.107532166 0.2200941 -0.24888697 -0.19414975 0.17360012 0.07232062 0.17691794 -0.06700837
0.26378563 0.103993304 -0.10215529 -0.12832144 0.06955985 -0.0067788325 -0.12873258 -0.1461566

layerz.0.bias f4 [80]
00000000: 8cdc a63e b74c 2abb 63d5 4c3e 315e 80be
00000010: 1511 b23e ef7f de3e cecb da3d 49aa d03e
00000020: db71 e3be f568 4ebd 367f b23d 3412 c7be
00000030: fef2 5d3e 7ceb 2ebe 0513 26be 973e b5be
00000040: 76eb 3b3e 5172 a6be 7612 c3bd 8591 4b3e
00000050: 5542 ac3e 13f4 ce3d 4206 2bbe ff95 46be
00000060: 191b 803e 6f49 aa3d 028d bf3e e999 2c3e
00000070: 2f66 b83e 6e6e b8be 50c7 b73e ef4b 52be
00000080: ba9e f7bd 799a 2b3b 9027 acbd f5e7 b33d
00000090: ba4a cb3e 0afa 88be a42d 0f3e f03a b8be
000000a0: 25f3 913d 52a6 bc3e b14c 9a3e 0596 c33e
000000b0: 1d83 773e 922e 14bd 6632 ef3d 8bd4 3fbe
000000c0: cfe1 c13e 4114 643e 2896 a7be 0612 c63e
000000d0: dfc0 bebb 31b1 9ebc 3b25 fcbd 5acc f3bd
000000e0: 812b b63c c4bd 5fbe fe73 d4be 0da7 6abe
000000f0: fe70 b6bd 54e5 ac3e 3351 a73e 08f7 88be
00000100: f377 8dbc 2844 03be 03c9 74be 9044 a0bd
00000110: 6e10 1fbe c287 7f3e b44f 63be 90b4 893d
00000120: 33a1 81be 0be3 0ebe 7254 b43e 9379 60be
00000130: d5ab dbbc fc0b db3e 2ad6 1b3e dc5f 69be
0.3259014 -0.0025985667 0.20003276 -0.25071862 0.34778658 0.4345698 0.10683404 0.40754917
-0.44422802 -0.050393064 0.0871567 -0.38881075 0.21674725 -0.17082018 -0.16218193 -0.35399315
0.1835154 -0.32509091 -0.095250055 0.1987973 0.33644357 0.10105147 -0.16701606 -0.19393156
0.25020674 0.083147876 0.37412268 0.16855587 0.3601546 -0.3602175 0.3589425 -0.20536779
-0.120908216 0.0026184602 -0.084059834 0.08784477 0.3970545 -0.26753265 0.13982254 -0.35982466
0.07126454 0.36845642 0.30136636 0.38200393 0.2417111 -0.036177225 0.116795346 -0.18733422
0.3786759 0.22273351 -0.32731748 0.38685626 -0.005821332 -0.0193716 -0.12311789 -0.11904211
0.022237541 -0.21849734 -0.41494745 -0.22915287 -0.0890827 0.33768713 0.32679138 -0.2675097
-0.01726911 -0.12818968 -0.23904805 -0.07825577 -0.15533611 0.24954131 -0.22198373 0.06723893
-0.25318298 -0.13953798 0.35220677 -0.21921377 -0.026815334 0.4278258 0.15218416 -0.22790474

layerz.1.weight f4 [10, 40]
00000000: 2513 3dbe 98f9 553d 7f6f a1be dcf1 5b3e
00000010: c263 8e3d a182 a93e f1e4 2b3e 523a a9be
00000020: c115 8c3e 1ae1 8ebe 1371 2abe f7cd 363e
00000030: f29a 41be b1d2 ba3d 44fd 0f3d 6724 c03c
00000040: 118c 40be 2c34 773e ee54 473d 3692 023e
00000050: e800 1d3d c356 30be b53c 07be d195 6b3e
00000060: f4f8 9abe a725 f4bd 508d a2be e138 54be
00000070: 1633 3c3d 699b a3bd 2ead eb3d 06d4 863e
00000080: d77c 913d 247c a83e 7a31 9639 ea01 ab3e
00000090: 772d 683d 4cb9 1bbc 7ce5 c63d 6032 8cbe
000000a0: 881a 903e 440b a23e 55fb 9cbe d083 53be
000000b0: 3945 8c3e 8eb5 b33d 5af2 00be ab1a 30be
000000c0: 8c1f a5bd c883 86bd ba32 a33e 3a44 57be
000000d0: 213c 443d 8362 c73d 4109 31be 7501 bfbc
000000e0: 1f30 81bd 612e 873e 97a0 7c3e 6a63 8bbc
000000f0: e377 37be 7986 4cbe fd57 18be e27e 993e
00000100: 3198 8f3e 098a 8b3d 2880 a5be dd2d e23d
00000110: 2abd 84bd 3643 463e 7154 373e 0f14 943e
00000120: 7df6 ca3c 5167 d83c 07b9 2b3b a986 743e
00000130: 1e47 863e 6380 263e f4df 8fbd 4657 cebd
00000140: 2eb0 a43e 8ce1 37be cdb7 7f3d 43ce dd3d
00000150: dbf8 373e 3047 58be 8e08 8abd 74e4 37bc
00000160: eef6 fdbc 6152 98be 8e5a 1b3e cc72 87be
00000170: 03c8 aebd 597c d73d 4c68 8b3e 5670 73bd
00000180: 921c 44be 6ab4 1cbe 84f7 02bb 4a08 41be
00000190: 22ad b33d 0863 203e 6b5c a83e 4ecb 943e
000001a0: 3bab 90bd 2eff 173e 3871 3f3d 2f42 283e
000001b0: 380d 20be 9cff a63e b630 373b d1c7 603e
000001c0: 2291 843e 0042 97bd 39a2 873e 41f4 b8bd
000001d0: 4898 2e3e 097f 59bd 0f2e 8cbe 6044 b2bd
000001e0: 70e7 063e 3bb3 8d3e 2551 90be b7ae 4dbe
000001f0: 913c 393e b29a 35be b2a6 8d3c fb2c 78be
00000200: cecd b63c d5a0 2bbe 1624 9f3d 8496 0b3e
00000210: 4118 893d f4e6 8bbe a817 853e 8439 953e
00000220: 42ea 9ebe d715 913e 55bb 98be fb69 263e
00000230: 2015 a6bc 9891 e7bc 2c22 2cbe ec50 8b3e
00000240: 148d 623d 0010 bfbc f198 41bc 045e 803e
00000250: 8bec af3e cc6d 49be 312f 9dbe bcc0 6fbe
00000260: 8aa3 40be a3e3 90be 2af4 ffbd 69b4 09be
00000270: 7604 44bb 05e9 c93d 6756 633e f51e 6abe
00000280: 99e4 7cbe 93c8 19be 8383 81be f076 a43c
00000290: a662 86be da15 79bc a920 3ebd 0e08 89be
000002a0: 227f 20be f5bd 1b3e 01e6 c6bd efc0 9bbe
000002b0: 7d7a 903e 3370 dabd 143c 2d3d e996 8e3e
000002c0: f4c1 313e e65d 8ebe b482 9d3e c972 c4bd
000002d0: 0e71 b93d 4109 1f3e 7a58 fb3d 8151 733e
000002e0: da88 1fbe 5be4 833e 1214 613e 9e5b 9bbe
000002f0: 7490 03be 281e 993e bc8c 82be 4b0b a0be
00000300: a9fb 5c3e ae54 fa3d 4149 1f3d 62d5 8d3e
00000310: 89f5 933c f09b ad3e 1bcd 69be 37d4 97be
00000320: 49b2 96bd 7039 ad3e 2c3e 95be 9762 173e
00000330: fbde b43d 5278 14be aaf4 8fbe 8f22 163e
00000340: 0ad4 043e 81e8 ddbb e0ef 0f3e 81f0 433e
00000350: 5773 78be 489b 97be a499 63bd 6e95 48bd
00000360: 8c68 07be 5d40 c03d 3d19 86be 2920 ad3e
00000370: 15e7 89bd 2569 42be 2730 56bd 5dcf 8abe
00000380: 557f 97be 1420 cd3d 5a5b c1bd 78d9 3dbe
00000390: 3708 253e 8f70 8a3e 4d0e 2d3d c757 2fbe
000003a0: a989 433e ea06 f3bd f83e 22be 6aa2 85bd
000003b0: f1fd a9bd b92d ad3e d446 6ebd fc22 9ebe
000003c0: cf23 dfbd 9b02 033e 59f7 1b3e 8d6a 6dbe
000003d0: a58c 79be dfce c8bd 6345 b73c 3672 92be
000003e0: 9ec8 233e 2884 84bd acda 4f3e eec7 d43d
000003f0: e766 5fbd b85f fdbc f8ca dc3d 6526 37be
-0.18464334 0.052239984 -0.31530377 0.21478981 0.06952621 0.33107474 0.16786553 -0.33052307
0.27360347 -0.27906114 -0.16644697 0.17852007 -0.18906763 0.091222174 0.035153642 0.023454858
-0.18803431 0.24140996 0.04866498 0.12751088 0.038330942 -0.17220597 -0.13206752 0.23006369
-0.3026806 -0.11921244 -0.31748438 -0.20724823 0.045947157 -0.079886265 0.11507641 0.26333636
0.071038894 0.32907212 0.00028647092 0.33399898 0.056683984 -0.009504627 0.097117394 -0.27382183
0.28145242 0.3164922 -0.306605 -0.20655751 0.27396563 0.08774863 -0.1259245 -0.17197673
-0.08062658 -0.06568104 0.3187464 -0.2102212 0.047908906 0.097355865 -0.17288686 -0.023316124
-0.063080065 0.26402572 0.24670635 -0.017015178 -0.17916827 -0.19973172 -0.14877315 0.29979616
0.280458 0.068134375 -0.32324338 0.11043904 -0.06481393 0.19361576 0.17903306 0.28921553
0.024775738 0.026416453 0.0026202814 0.23879494 0.26226133 0.16259913 -0.070251375 -0.1007524
0.32165664 -0.17957133 0.062431145 0.10830357 0.17966025 -0.21120906 -0.06739913 -0.011223901
-0.031001534 -0.2975035 0.15171263 -0.2645477 -0.08534243 0.10521764 0.2722801 -0.059433304
-0.19151524 -0.15303198 -0.0019983957 -0.18850818 0.08773257 0.15662777 0.3288301 0.2906136
-0.070639096 0.14843437 0.046738833 0.16431497 -0.15630043 0.3261689 0.0027952618 0.21951224
0.25891978 -0.073856354 0.26490954 -0.09030963 0.17050278 -0.053099666 -0.2737889 -0.08704448
0.13174224 0.27675804 -0.28186908 -0.2008618 0.1808951 -0.17734793 0.0172914 -0.24235909
0.022314932 -0.16760571 0.07770555 0.13631636 0.06694079 -0.2732464 0.2599461 0.29145443
-0.310381 0.28336975 -0.29830423 0.16251366 -0.020273745 -0.028267667 -0.1680991 0.27210176
0.055310324 -0.02332306 -0.011816249 0.25071728 0.34360155 -0.1967079 -0.30700067 -0.23413366
-0.18812385 -0.28298673 -0.124977425 -0.13447727 -0.0029909885 0.09858898 0.22200929 -0.22863372
-0.24696578 -0.15017919 -0.25295648 0.020076245 -0.26247138 -0.015202964 -0.046417866 -0.26763958
-0.15673497 0.15209182 -0.097118385 -0.30420634 0.2821845 -0.106659316 0.042293623 0.2784951
0.17359143 -0.27806014 0.3076378 -0.09592206 0.090547666 0.15530874 0.12272735 0.2376156
-0.15579548 0.2576016 0.21980312 -0.30343336 -0.12848073 0.2990582 -0.25497997 -0.31258616
0.21580376 0.122231826 0.03888822 0.2770186 0.018061416 0.33908033 -0.22832148 -0.29654095
-0.07358224 0.33832884 -0.29148996 0.14783703 0.08831593 -0.14499024 -0.2811635 0.1466162
0.12971511 -0.0067721014 0.14056349 0.19134714 -0.24262749 -0.29610658 -0.055566445 -0.048970632
-0.13223475 0.09387276 -0.2619113 0.338136 -0.067335285 -0.18985422 -0.052292015 -0.2711133
-0.29589334 0.10015884 -0.09441252 -0.18539989 0.16116415 0.27039 0.042249966 -0.17123328
0.19095482 -0.11866553 -0.15844333 -0.06525119 -0.083003886 0.33823946 -0.058173016 -0.30886066
-0.10895502 0.12793963 0.15231074 -0.23185177 -0.24370058 -0.098050825 0.022371953 -0.2860276
0.15994498 -0.06470519 0.2029826 0.10389696 -0.054541495 -0.030929431 0.10780901 -0.1788574

layerz.1.bias f4 [10]
00000000: b46f f6bd 9ee5 a8bd 2391 1d3e 9b27 023d
00000010: e203 c6bc 3d22 b13d 2a83 c73d aaba dcbc
00000020: 1e23 88bd 69f9 c0bc
-0.120330244 -0.08246921 0.15387397 0.031776052 -0.024171773 0.086491086 0.097418144 -0.026944477
-0.06647323 -0.023556428

mlr.weight f4 [71, 40]
00000000: bec7 f5bd 5c7d 583c fd28 933d e70e 1f3c
00000010: ab1e 9ebc e925 60be d1fa e9bb 6ce1 98bd
00000020: 0f20 56bb 063f 12be cbcf b23d b35e 13be
00000030: d36a 99bd fa1f dbbd 4e4e efbd 6af8 663b
00000040: ea72 d4bd 38b0 cdbd f474 c93c cccc c73d
00000050: d849 e2bd ec7d fd3d 1f1e 8d3d a693 373e
00000060: 0a03 b73c b44c 433e 3c99 56be a19a 8a3d
00000070: e3b7 4cbe eb40 c93d a6c6 b7bd fe33 44bd
00000080: c4c9 493e 5806 5f3e 3325 6ebd a65b 09be
00000090: 3325 023e 350a d3bd c804 e0bd b644 33be
000000a0: 8fa5 6c3e a598 663c 46f0 393d c17d 0abe
000000b0: 5282 dd3d 0bd8 61be 06d7 89bd e1f7 11bd
000000c0: d311 0c3e 3c5f b1bc 811a 083d 9880 363e
000000d0: d06f a73d 894f 413e b94d a2bd 229e 133e
000000e0: be53 15bd 739d 8abc b3b7 4a3d 4ccb 653e
000000f0: 0592 9c3a 8bcc cabc 0d88 babd b15e 16be
00000100: cff3 083e e102 44bd 1a83 a0bd 0208 503d
00000110: 23dc 213d 6878 19bd 369f 463e d3c6 113e
00000120: e983 683d 3fa1 e1bd 6ecb c5bd 8684 4e3e
00000130: f767 453d b58c 57be b156 ffbc 5d96 543d
00000140: 0925 813d b207 4b3e b933 f63b 45bf e4bc
00000150: 96b7 273e 88b6 03bd 913a 9c3d 1f98 32be
00000160: 76d2 a8bd f160 33be 711c b93c fd6d 39be
00000170: acd1 343e 8f67 d2bd 0bcb 22be 1bd2 7e3c
00000180: 8736 e3bd 66f4 0ebe 0e6a 2d3e 5d80 993d
00000190: fb47 1d3d 2301 ea3d 3dcd 9ebd addd c83c
000001a0: c7d3 653e 3de3 ccbd d632 bf3d 0a2a 483e
000001b0: 98ff 04bd d4a1 443e 7e6c 7cbd 53d1 3dbd
000001c0: 3d58 743d 3441 14bd 98bb 7abd 5feb 3cbd
000001d0: a575 423d ff3c 03be d4fd 35be 5799 3bbe
000001e0: 575a 683e 90f4 c93b 7ae0 d43d 5353 64be
000001f0: 189d 08bd daa5 3abe 6e5a b3bc 60a0 543e
00000200: 0dfe 2a3e 4d0d acbd c78e 00be 1e31 43be
00000210: 6d6c ebbd c859 a23d 2d20 0dbe 4022 023e
00000220: df97 a8bd 2804 5c3e 2e7b 67bd 18ae 29bd
00000230: 6178 0b3e 07bc 263e 8b01 2b3e 462d 2c3e
00000240: fc44 61be 07a7 023e 460e fabd 249b 283e
00000250: 598d 383e f705 a4bc 0c44 a53d 23aa 483d
00000260: 937a cf3d a91a 203e 3c0d 8a3d 8a35 9ebd
00000270: d3a4 0d3c 8ccd d83c d73f 45be 0014 9e3d
00000280: 3f83 1bbe ae41 163e 491f 553e 17c5 fe3c
00000290: 1985 453e 2a50 753b 9ba6 143e ae80 ea3d
000002a0: 2ea9 46be ae1b 3fbe 377d 63bd 764e bc3d
000002b0: dbd2 30bd 01e7 42bd f409 0f3e baf4 543e
000002c0: b103 cb3d f4e4 8d3d e655 f13d 536f 013d
000002d0: edeb 56be 204d 6cbe 4fdb 5dbe e361 51be
000002e0: 7932 343e 39fa 89bc e765 25be 7af5 4e3d
000002f0: 1d3c 673a ed3c 0fbe 2d2e 63be fc79 5c3d
00000300: 44c1 593b e417 a9bd 9eaa 04be 7919 7abd
00000310: 528f 4e3e 81d1 3ebe 6c1b bdbd e681 96bd
00000320: 1497 593e eac5 603c 992a 223e 0482 bebc
00000330: c0a1 15bd 24c1 063e b605 b9bd 94c3 0d3e
00000340: 2aa3 4f3e c182 c13d 523f 133e 2bdc 38be
00000350: 498a 5b3e 2489 0fbe 2cb7 053e 656a 933d
00000360: 0376 903c 593c 753d 9485 69be 1765 633e
00000370: 40f6 7bbc e77b 543e 3dd0 aa3b 38a8 c2bd
00000380: 2add 143e 47b3 97bb 0775 17be 4a2d ef3c
00000390: d42e 6dbe ac5e 13be 483a 41be 7f54 423c
000003a0: ab97 03be bbfa 9cbb 21dc 34be f0ea 4cbe
000003b0: c66c dfbc f22b e03c 7dca 2a3e 5615 a2bd
000003c0: 6c18 633e 1c1b 28be 71b0 a43d 70a3 55be
000003d0: 499c 5e3e e806 b1bd ceee 023e a8f1 8f3c
000003e0: c081 bdbd e87a 5cbd 4ad2 b0bd ea55 123e
000003f0: 7bcf 2d3e 2553 623e a535 5bbd 1def 92bd
-0.120009884 0.013213482 0.07185552 0.009708143 -0.019301733 -0.21889462 -0.0071404953 -0.07464871
-0.0032672917 -0.14281854 0.087310396 -0.14391594 -0.07491078 -0.106994584 -0.11684857 0.003524328
-0.103734806 -0.10043377 0.0245919 0.09755859 -0.11049241 0.12377533 0.06890511 0.17927417
0.022340316 0.19072229 -0.20956892 0.067677744 -0.19992022 0.09826835 -0.08973436 -0.047901146
0.19705874 0.21779764 -0.058140945 -0.13413867 0.12709503 -0.10304681 -0.10938412 -0.1750668
0.2311003 0.014074479 0.04539516 -0.13524534 0.10815872 -0.2205507 -0.067304656 -0.035636786
0.13678674 -0.021651857 0.0332284 0.17822492 0.081756234 0.18877997 -0.07924981 0.14415792
-0.036456816 -0.01692078 0.049491595 0.22440833 0.0011945373 -0.024755737 -0.09107981 -0.1468456
0.13374256 -0.047854308 -0.07837506 0.050788887 0.03951658 -0.037468344 0.19396672 0.14236002
0.056766424 -0.110170834 -0.09657942 0.20167741 0.04819485 -0.21049769 -0.031169267 0.05190121
0.06305892 0.19827154 0.00751349 -0.027923236 0.16378626 -0.032156497 0.07628358 -0.17440842
-0.08243267 -0.17517449 0.02259657 -0.18108363 0.17658108 -0.102736585 -0.15897767 0.015553023
-0.11094385 -0.13960418 0.16934988 0.074951865 0.038398724 0.11425998 -0.0775399 0.024519766
0.22444068 -0.1000428 0.09335868 0.19547287 -0.032470316 0.19202358 -0.061626904 -0.046342205
0.059654463 -0.036194995 -0.06121406 -0.046122905 0.047475476 -0.12816237 -0.17772609 -0.18320213
0.22690712 0.0061631873 0.10394378 -0.2229741 -0.03335294 -0.1822733 -0.021893706 0.20764303
0.16698475 -0.084009744 -0.12554465 -0.19061705 -0.1149529 0.07927281 -0.13781805 0.12708378
-0.08232092 0.2148596 -0.056513958 -0.041425794 0.1362014 0.16282664 0.16699807 0.16814145
-0.21998972 0.12759028 -0.12209754 0.16465431 0.1802267 -0.020022376 0.080696195 0.04899038
0.10130801 0.1563517 0.067408055 -0.077250555 0.008645254 0.0264652 -0.19262634 0.077186584
-0.15186785 0.14673492 0.20812716 0.03109984 0.19289054 0.0037431815 0.1451668 0.11450325
-0.19400474 -0.18662903 -0.055539336 0.09194653 -0.043169837 -0.047583584 0.1396864 0.20796481
0.099128135 0.06928435 0.11783962 0.031600308 -0.20988436 -0.23076296 -0.21665691 -0.20447497
0.17597379 -0.016842948 -0.16152154 0.050527073 0.0008820908 -0.13988085 -0.22185583 0.05382727
0.0033226768 -0.0825651 -0.1295571 -0.06105945 0.2017186 -0.18634607 -0.09233746 -0.07348995
0.21249038 0.013719061 0.15836562 -0.023255356 -0.03653121 0.13159615 -0.090342924 0.13844138
0.20277086 0.094487675 0.14379624 -0.18052737 0.2143947 -0.14017159 0.13058156 0.071980275
0.017634397 0.059872005 -0.22804862 0.22206531 -0.015378535 0.2075039 0.005212812 -0.095047414
0.14537492 -0.004629526 -0.14790736 0.0291964 -0.23162395 -0.14391583 -0.18869889 0.011860966
-0.12850825 -0.0047906316 -0.17662098 -0.20011497 -0.027273547 0.027364705 0.16678806 -0.07914226
0.22177285 -0.16416591 0.08041466 -0.20863128 0.21739306 -0.086438954 0.1278641 0.017571285
-0.092532635 -0.05382815 -0.086338595 0.14290586 0.16973679 0.2210203 -0.053517956 -0.071745135

mlr.bias f4 [71]
00000000: 9ffe 663d 7020 63bd 1789 92bc 0f8e 13bd
00000010: bb85 0dbd 8829 04be 4526 1d3d 1341 2abd
00000020: a570 f53d a51d dd3c 8001 04be 0bf3 f5bd
00000030: 4797 a9bd 5573 983d af64 cfbd 2193 91bd
00000040: 032d e83c 2481 dfbd 0cf0 9cbd 3f45 133e
00000050: 9b41 a8bd 1735 56bd 0d62 eb3d cf4f 193d
00000060: 9e46 fe3d a33d 0dbe 5e69 a13d 4a10 c3bc
00000070: 01fb cdbd 7c74 87bd 8dd8 1bbe bf05 e13d
00000080: 0e94 febc 2d23 1fbe e322 093e fc98 d03d
00000090: ea28 853d 6d8f 1e3e a588 103e 4989 163e
000000a0: 2546 0e3e fac0 033e b3a0 2f3d 4b29 25bc
000000b0: fdaa e33b e927 86bd b3ef 993d 8273 b03b
000000c0: 0d84 163d d563 d2bd c7ea 72bd 9cdb f03d
000000d0: d514 783c 15fb 613d aaa5 0ebe 402e 8abd
000000e0: 29df 61bb db15 88bc 184a cf3d 2145 43bd
000000f0: 1bd3 063e f3d5 02bd a4d2 753d 3a0f e5bd
00000100: 9c3e d43c 01a0 1ebe 5572 0dbe 404e d0bd
00000110: 8331 323d ed18 393c cf3e 703c
0.05639517 -0.055450857 -0.017887635 -0.03602415 -0.034551363 -0.12906468 0.038366575 -0.041565966
0.11984376 0.026991675 -0.12891197 -0.120092474 -0.08280807 0.07443873 -0.10126626 -0.07108141
0.028341776 -0.109133035 -0.07662973 0.14381884 -0.08215638 -0.052296724 0.11493311 0.037429627
0.12415813 -0.13793044 0.07881425 -0.023811478 -0.10057641 -0.066140145 -0.15219326 0.10987424
-0.031076457 -0.15540762 0.13392214 0.101854295 0.06501944 0.154844 0.14114626 0.14700808
0.13893946 0.12866583 0.042877864 -0.010080646 0.0069478736 -0.06550581 0.07516422 0.0053848634
0.036747027 -0.10272948 -0.059305932 0.11760637 0.0151416855 0.05517109 -0.13930383 -0.06747103
-0.003446529 -0.016611984 0.10121554 -0.04767335 0.13166468 -0.03194232 0.060015336 -0.11184545
0.02590876 -0.15490724 -0.13813145 -0.10171175 0.04350425 0.011297447 0.014663412

layer.0.weight f4 [80, 10]
00000000: bfea 01bd 08ad 5e3e 22c6 803e 1e80 dc3d
00000010: 2ffc 523e cf45 52bc f0f0 c1bd 7d8f 563d
00000020: b581 2d3e 09ca 27bd 829a 4abe ed9f af3d
00000030: 185a 84bd eb08 fdbd a2c9 273e 6bbe cbbb
00000040: 3c0a 17be 58d4 1dbe 4383 783e d945 2c3e
00000050: bb8a 34be 4fe9 a53a 43d9 94bb 1997 ff3d
00000060: 89b5 62be 692f d63a 3351 ad3d 5a4b 043e
00000070: 2d7e e83c d1b2 00be b180 73be 92a5 0c3e
00000080: 3178 713e e589 9bbd 1eed 6cbe 8535 903d
00000090: 4afd 39be b79e 2dbe 3170 8e3d 2043 c3bc
000000a0: 85c0 56bc cc2e 6d3e 37a1 35bd 231c 213e
000000b0: dff5 a4bd da2e 413e b442 9c3d db8e 6b3e
000000c0: 1479 b93d 1dbf b8bd 532d df3d 896e 5d3e
000000d0: d856 4a3d 8874 f73d 1354 38be 74a1 123e
000000e0: 1242 79be 7049 673e 06bd d73d c10f 8c3c
000000f0: 9bbd 6cbe faee 713e 104d 273e d763 743e
00000100: d08a d13d 5ce5 b33d 1236 84bd a0d5 d8bd
00000110: 0a44 d43d a571 b93d 3893 853b d1f1 303d
00000120: 0d54 b93d 77ee 7cbe 8b51 6abe e1d4 91bd
00000130: db7e 2e3e 62b1 003e f556 7cbe 90ac 9cbd
00000140: bd13 b8bc 58d7 b03d 703c 563e 5e14 bd3b
00000150: 7786 4dbe 58ce ba3c 98f4 cabd afe3 20be
00000160: 49e8 133e b14b 0ebd bd4e 023e 1654 4f3e
00000170: 770a d83c 0b58 163e 37ff f9bd 6686 103e
00000180: 83f9 0b3c 9383 2e3e 7617 7e3e fbed 46be
00000190: bf4a 783e 7615 493e a96b 55be 80f6 9a3d
000001a0: abf7 56be 2828 b63d 80b4 223d cc7e 7dbe
000001b0: a51e c03d d14d 93bd 2058 813e f803 803e
000001c0: 5d4d b43d 7960 503e cdae be3d afa7 783e
000001d0: 8429 b7bc 1a15 813d 27ca 27bd c6be 5fbb
000001e0: 1f70 a2bd d2f6 c9bd 4c5d 183e 7158 e43d
000001f0: 8128 e8bd 9efc 59be 679b 033e 1221 71be
00000200: ccf7 0ebc 5fe4 62be 81ef 593e 587f 553e
00000210: e2e4 5cbe c86f 76be a312 1cbe f29b 983d
00000220: 9387 01be 4958 82bd f68d 86bd 44ef 3a3d
00000230: 439c efbd 8779 f13d 561b 3bbe 428d b3bc
00000240: 800f 5e3e 45c1 16be 8e8f 493e 6afd 093e
00000250: b427 aabd 29e5 b93d c9c3 23be 3afc b93c
00000260: e2f9 923d 06ed 643e 18be 13be b326 1abe
00000270: d1e9 05be 8619 80be 25f3 573d 3d08 5abe
00000280: 67eb a2bd 0095 f2bd 0a05 643c b23b 9f3d
00000290: ff10 3fbe 43bc 9cbd e7e1 aabc 18f7 18be
000002a0: 78a9 713d 161d c23d 1c5a 40be a27b 4d3e
000002b0: 8b72 3a3e c22e a0bd aabe 1b3d c5ac 073d
000002c0: b1cb 12bd 7ec3 31be 9b66 583e 9f05 023e
000002d0: 8578 50be 52a5 4cbe 70cc 7e3e 8abe 353d
000002e0: c38b 6bbd 436d 283e b2ce 8e3d 1260 c03d
000002f0: 2bab 523e 3f46 8cbc 5a6f 833e 8fbe 3abe
00000300: 6046 1fbe 64ed 2f3d 4568 01bd ad82 0f3e
00000310: c42c 97bd fd88 223d d133 5fbd c455 463e
00000320: 7a4d 27bd dd7c 193c 40d7 433e 60d1 7f3e
00000330: b579 7c3e 2d5d 70be 60f7 11be 07d1 5abd
00000340: 2e6f 51bd 0dbd 163e 01fe e33d 0ea0 bdbc
00000350: 800e a43a b821 5c3d f81b 633e be6b 123e
00000360: b971 ffbd 616b 09be 114b a53d b9d8 e9bc
00000370: 490a 1ebe fead 80be 2b1d 173d b023 97bd
00000380: acd6 18be e590 333d 02e9 7e3e 1dde 5a3e
00000390: 4eb0 163e 1ae4 44be 92d9 183e ca81 043e
000003a0: 3ba3 b33d 32da 7ebd d62a 89bb c1f7 13be
000003b0: 6752 72bd 4ece 36bd bc47 19bd 563f 83be
000003c0: 35ed a63d f88f 58be 0cad 46be 2595 d73d
000003d0: 5cef 59be 922d 813e 09b1 803e b2ef a9bd
000003e0: 128b 38bd d525 4dbe 4c9e 773c 33a4 583d
000003f0: 0678 13be d37b a13d aee3 22bc f0bc 82bd
-0.031718012 0.21745694 0.25151163 0.10766624 0.20604013 -0.0128340265 -0.09469783 0.052382935
0.1694401 -0.04096416 -0.19785503 0.08575425 -0.064624965 -0.123552166 0.1638551 -0.006217768
-0.14749998 -0.15413034 0.24268822 0.1682352 -0.17631046 0.0012658032 -0.004542501 0.124799915
-0.22139563 0.0016341034 0.08462753 0.1291937 0.028380478 -0.12568213 -0.2377956 0.13735035
0.23581006 -0.07594661 -0.23137328 0.07041458 -0.18163028 -0.16955076 0.069549926 -0.023835719
-0.013107424 0.23162383 -0.0443432 0.1573339 -0.08054709 0.18865529 0.0762991 0.23003714
0.09056297 -0.09020827 0.10897317 0.21624197 0.049399227 0.120827734 -0.18000822 0.14319402
-0.2434161 0.22586608 0.105341 0.017097356 -0.23119204 0.23626319 0.16337991 0.23866211
0.102315545 0.08783981 -0.064556256 -0.10587621 0.1036454 0.09054879 0.0040763877 0.043199364
0.090492345 -0.24700342 -0.22882669 -0.071206816 0.17040579 0.12567666 -0.24642546 -0.07650101
-0.02247035 0.086348236 0.20921493 0.00577025 -0.20070826 0.02280347 -0.09909934 -0.15711854
0.14444079 -0.034740154 0.12725349 0.2024692 0.026372178 0.14682023 -0.122068815 0.14113769
0.008543375 0.17042379 0.24813637 -0.1942672 0.24247263 0.19637093 -0.2084185 0.075665474
-0.20992915 0.08894378 0.03972292 -0.247554 0.09380845 -0.07192577 0.25262547 0.25003028
0.088038184 0.20349301 0.09310684 0.24282716 -0.022358663 0.06302853 -0.040964272 -0.003414081
-0.07931542 -0.0986153 0.1487934 0.11149681 -0.113358505 -0.21287772 0.1285225 -0.23547772
-0.008726072 -0.22157429 0.2128277 0.20849359 -0.21571687 -0.24066079 -0.15241484 0.07451619
-0.12649374 -0.06364495 -0.06570046 0.045638338 -0.116997264 0.117907576 -0.18272147 -0.021917943
0.216856 -0.14722164 0.19683668 0.13475576 -0.08308354 0.09076912 -0.15992655 0.022703279
0.071765676 0.22356042 -0.14427984 -0.15053825 -0.13077475 -0.25019473 0.052722115 -0.21292205
-0.07955056 -0.11844826 0.013917217 0.07775058 -0.18658827 -0.076530956 -0.020859672 -0.14938009
0.05899951 0.09478204 -0.18784374 0.20066693 0.18207757 -0.07821418 0.03802363 0.03312375
-0.035838787 -0.1735973 0.21132891 0.12697457 -0.20358475 -0.1998494 0.24882674 0.044371165
-0.057506334 0.1644793 0.06973018 0.09393324 0.20573108 -0.01712334 0.25670892 -0.18236755
-0.1555419 0.042951003 -0.03159358 0.14014693 -0.07381585 0.039681423 -0.054492775 0.19368654
-0.04084537 0.009368149 0.1912508 0.24982214 0.24655803 -0.23473044 -0.14254522 -0.053422
-0.05113142 0.14720555 0.11132432 -0.02314761 0.0012516528 0.053743094 0.22178638 0.14298913
-0.12472863 -0.13419868 0.080709584 -0.028545724 -0.15433611 -0.25132746 0.03689305 -0.07379854
-0.14925641 0.043839354 0.24893573 0.21373792 0.14715692 -0.19227639 0.14926746 0.12940136
0.08771368 -0.062219806 -0.0041860146 -0.1444998 -0.059160616 -0.04463034 -0.037421927 -0.2563426
0.081507124 -0.2114867 -0.1940195 0.10526494 -0.21282715 0.2523008 0.25135067 -0.082976714
-0.045054503 -0.20033963 0.0151134245 0.052890968 -0.14401254 0.07884946 -0.009941978 -0.06383693

layer.0.bias f4 [80]
00000000: eef3 0e3e 94b9 0abe 7e60 803e 8565 64be
00000010: 389c f0b9 b80d 903e 63f2 9f3e 4af0 3bbe
00000020: 2f65 5a3d f3e7 163d afe8 17be 248e e3bd
00000030: 3864 a93d 17b9 61be cb60 533d 7135 0b3e
00000040: 8a4c 00be 8fb8 863e 3817 b8bc b754 163e
00000050: 71cc a03e 8d0e c3bd 3fb7 2c3e 62ec b7bd
00000060: 96ab 36bd b7ef 62bd 92fb 96bb c500 fbbd
00000070: 0c6d 973d 8ab3 483c 8750 4c3e 5722 82bd
00000080: 3b72 f93c 223a f2bd 3144 87be ab68 033e
00000090: 2ce7 173d c0a0 02be 9d7a dfbd 7171 a13d
000000a0: 65b2 76bd c553 543e ebc4 793c 9e9a fa3d
000000b0: 7bc9 0d3e 50f1 9ebd f9fd 0b3e 9eca 6f3e
000000c0: 624e 6b3c f06b 803d 289c 3a3c 17c7 5f3e
000000d0: ca83 0bbe 957a 2dbe 9577 0d3e 0c59 8cbe
000000e0: 085e 313b 1558 14be 6055 563e 26f8 96be
000000f0: b6c0 443e 5254 9f3e c0d4 833d 017e c4bc
00000100: 6cb1 a03e 9a53 08be 3cb0 c7bc ab92 0cbe
00000110: ebd0 37bd d4bb 8e3d e7c2 303d 81c6 74bd
00000120: 4282 a2be 52c2 643c 220d 24bc 89c2 403d
00000130: 1505 773e df3e 9c3e ecba 40be ef0b 97bc
0.1396024 -0.13547355 0.25073618 -0.22304352 -0.0004589276 0.28135467 0.31239614 -0.18353382
0.053319152 0.036842298 -0.14834855 -0.111110955 0.08271068 -0.22043262 0.05160598 0.13594605
-0.12529197 0.26312682 -0.022472009 0.14680754 0.31405976 -0.0952426 0.16866778 -0.08980633
-0.04459723 -0.05540439 -0.0046076262 -0.12256006 0.07393846 0.012249837 0.19952594 -0.06354206
0.030449977 -0.11827494 -0.26419213 0.12832896 0.037085697 -0.12756634 -0.109120585 0.07882965
-0.060228724 0.2073508 0.015244703 0.12236522 0.1384639 -0.077608705 0.13671102 0.23417136
0.01436195 0.062705874 0.01138977 0.2185329 -0.13624492 -0.16941293 0.13815148 -0.27411687
0.0027064104 -0.14486726 0.20931005 -0.29486197 0.19214138 0.3111902 0.06437063 -0.023985865
0.31385362 -0.13313141 -0.024376027 -0.13727824 -0.044876974 0.06969419 0.043154623 -0.05975962
-0.31740004 0.013962345 -0.010012897 0.047060523 0.24123032 0.30516717 -0.18821305 -0.018438308
