storage/model_data_yf/model.pt (torch, 69761 bytes, 30 tensors)

layer.0.weight f4 [80, 10]
0.25883225 0.5882701 -0.10904115 0.8731525 0.6872269 -1.1008356 0.5855216 0.22911401
0.25871515 -0.5270375 -0.13627711 -0.51960486 0.28792545 -0.7657212 -0.20534723 1.0352641
-0.31371742 0.13442136 -0.40371668 0.6491324 0.006167888 -0.107617676 -0.54247594 0.48071223
-0.80363923 0.2714975 -0.20821701 0.9409655 0.18104228 -0.40569204 -0.13129449 0.54773027
0.92601913 -0.5722606 0.2526862 -0.9643588 -0.6571482 -1.8418144 -0.036341526 0.5151197
-0.5544847 0.78992224 -0.06525291 1.5377607 0.12920417 -0.109815784 1.0703897 1.0180329
-0.38240045 -0.062988564 0.32072565 -0.3617559 0.45975506 -0.78444797 -0.5516602 0.054164477
-0.957195 -0.35951695 0.2095153 0.17575607 0.012522512 0.64706206 0.7157205 0.94736844
0.88422316 0.25389466 0.2441705 -0.34139627 1.6528146 0.53008956 -0.07016592 -0.017032718
-0.48161077 -0.29220927 -1.7729824 -0.24031283 -0.070792295 0.9376594 -1.8585858 -0.41014692
-0.20927835 -1.2118565 0.30504134 -0.29247236 -0.4823836 -0.07165474 -1.2535112 -0.8623968
-0.807568 0.8054582 0.27296558 0.88887215 -0.4994896 0.26220274 -0.031850107 0.047451705
0.6957048 0.08311521 1.0642765 -0.9550935 0.4160304 -0.91297257 -1.4792038 -0.2988822
-0.46135333 -0.27963355 0.91444534 -1.4072728 1.5183794 -0.2986303 -0.106474444 0.35492578
0.96273524 0.34113201 0.40795383 0.15374477 -0.7660678 0.725542 -0.77462083 0.023901558
-0.43134496 0.15782602 0.8815767 0.10563629 -0.39817974 -0.4605915 0.016358865 -0.8354005
1.0245149 0.31090638 0.6165267 0.31125966 -1.0967617 0.21337695 -0.15592323 0.7626632
0.25223905 0.74581623 -0.50489515 -0.45083612 -0.40665075 0.86506224 -0.66751903 -0.69895136
0.88886184 -0.17808588 0.9857925 0.5242706 -1.347676 1.0737492 0.413909 -0.685811
0.4220605 0.8411736 -1.2352586 0.24998079 -0.77025574 -0.5222753 0.8406154 -1.0129435
-0.003133128 -1.240204 -1.2504652 -0.24620652 -0.9509634 -0.11100088 0.96723896 0.83672154
0.08106877 0.63966143 0.16566086 0.83813214 0.5980086 -0.37525922 0.7388635 0.1599874
-0.84437144 -0.7829535 -0.0089505175 -0.804018 -1.1774343 -0.11946964 0.68937504 -0.2692028
0.07767895 0.13453884 -0.00662784 -0.04602667 0.12492718 -0.213001 1.4683071 0.064182065
-0.7059778 -0.08981063 0.3961508 0.18883635 0.6282816 0.40765318 -0.26440424 0.55178636
0.29292104 0.61511856 0.9711437 0.17858957 0.2358199 -0.29457885 0.52743495 0.36884072
-0.4152441 0.118711 -0.26680788 -0.6509411 -0.6265315 -0.13443764 -0.4524748 0.75235397
-0.9981086 -0.13146591 1.1313688 -0.19239147 -0.583712 -0.48535967 0.20837772 0.6320786
-0.49741587 0.4397585 0.3626512 1.2631992 0.7579642 -0.07943119 0.83625615 0.50622374
-0.06335407 -0.81950605 0.18126655 -0.47357807 -0.3125045 -1.0734907 -0.54515666 -0.16074912
0.21600303 -1.0892394 0.043398775 0.41915601 -0.12556264 1.0322437 0.90189326 -0.30384442
-0.26357406 -1.0562333 -0.10119476 0.68010783 -0.6334127 -0.61215365 0.5459144 -0.96814567
00000000: a985 843e df98 163f f750 dfbd ec86 5f3f
00000010: 1aee 2f3f 2ee8 8cbf bee4 153f dd9c 6a3e
00000020: 5076 843e eeeb 06bf 3a8c 0bbe d304 05bf
00000030: f76a 933e 4e06 44bf 8b46 52be 8983 843f
00000040: 929f a0be c1a5 093e f4b3 cebe 8a2d 263f
00000050: ff1b ca3b a866 dcbd b4df 0abf ea1f f63e
00000060: 4dbb 4dbf b801 8b3e d736 55be 1de3 703f
00000070: 2663 393e deb6 cfbe 1072 06be 0d38 0c3f
00000080: 970f 6d3f ac7f 12bf 1660 813e 38e0 76bf
00000090: dd3a 28bf 93c0 ebbf dada 14bd e2de 033f
000000a0: b6f2 0dbf 5838 4a3f 51a3 85bd 58d5 c43f
000000b0: 194e 043e 19e7 e0bd 8802 893f e74e 823f
000000c0: fec9 c3be 2600 81bd 2736 a43e 1238 b9be
000000d0: 0465 eb3e 95d1 48bf 9a39 0dbf 92db 5d3d
000000e0: bb0a 75bf 9b12 b8be 2e8b 563e 66f9 333e
000000f0: 392b 4d3c dca5 253f 7539 373f bd86 723f
00000100: 735c 623f 7bfe 813e d507 7a3e 7ecb aebe
00000110: 6e8f d33f f3b3 073f 26b3 8fbd 3388 8bbc
00000120: b095 f6be 749c 95be 16f1 e2bf 9114 76be
00000130: 8dfb 90bd 720a 703f 24e6 edbf c7fe d1be
00000140: 104d 56be 1d1e 9bbf 612e 9c3e f0be 95be
00000150: fcfa f6be b8bf 92bd 0e73 a0bf 09c6 5cbf
00000160: c7bc 4ebf 8232 4e3f 25c2 8b3e 208d 633f
00000170: 1abd ffbe 703f 863e 4275 02bd b85c 423d
00000180: b619 323f 4f38 aa3d 363a 883f 0281 74bf
00000190: f001 d53e 92b8 69bf 8d56 bdbf 1607 99be
000001a0: 8136 ecbe 212c 8fbe 1719 6a3f 8421 b4bf
000001b0: 425a c23f 12e6 98be 460f dabd d5b8 b53e
000001c0: d175 763f dba8 ae3e 53df d03e 456f 1d3e
000001d0: 051d 44bf 1fbd 393f 8d4d 46bf 33cd c33c
000001e0: 3fd9 dcbe 259d 213e 03af 613f d757 d83d
000001f0: 37de cbbe a6d2 ebbe 0703 863c cfdc 55bf
00000200: 4e23 833f 1f2f 9f3e b2d4 1d3f 6d5d 9f3e
00000210: b062 8cbf 7d7f 5a3e 57aa 1fbe e53d 433f
00000220: 7a25 813e d0ed 3e3f cf40 01bf fed3 e6be
00000230: 8734 d0be b874 5d3f 87e2 2abf 7aee 32bf
00000240: 738c 633f 255c 36be e65c 7c3f 9936 063f
00000250: a680 acbf 9d70 893f e1eb d33e 4f91 2fbf
00000260: 5018 d83e 2757 573f f41c 9ebf f7fa 7f3e
00000270: 7b2f 45bf d6b3 05bf 9232 573f 22a8 81bf
00000280: 2a55 4dbb 01bf 9ebf 3e0f a0bf 901d 7cbe
00000290: 5672 73bf 6e54 e3bd f99c 773f 6233 563f
000002a0: 6207 a63d dac0 233f 00a3 293e d48f 563f
000002b0: 1717 193f fa21 c0be 2926 3d3f bdd3 233e
000002c0: ba28 58bf a46f 48bf 31a5 12bc 20d4 4dbf
000002d0: 2bb6 96bf 80ac f4bd e27a 303f f3d4 89be
000002e0: 2416 9f3d 8dc4 093e 5a2e d9bb 7686 3cbd
000002f0: d2d9 ff3d ef1c 5abe 7df1 bb3f e371 833d
00000300: f6ba 34bf a3ee b7bd 47d4 ca3e 515e 413e
00000310: 10d7 203f ebb7 d03e fe5f 87be df41 0d3f
00000320: bff9 953e 6978 1d3f e09c 783f 2fe0 363e
00000330: c67a 713e 0ad3 96be fa05 073f b1d8 bc3e
00000340: e09a d4be c11e f33d 0b9b 88be 13a4 26bf
00000350: 5e64 20bf 05aa 09be c7aa e7be 459a 403f
00000360: 0c84 7fbf 009f 06be b1d0 903f 4502 45be
00000370: 266e 15bf 1081 f8be f860 553e e7cf 213f
00000380: 4bad febe 0728 e13e 6bad b93e 83b0 a13f
00000390: f109 423f d2ac a2bd e214 563f e197 013f
000003a0: c7bf 81bd 26cb 51bf f09d 393e d378 f2be
000003b0: 9700 a0be 2568 89bf 638f 0bbf 6b9b 24be
000003c0: e62f 5d3e 326c 8bbf eac2 313d 9e9b d63e
000003d0: 7e93 00be 9020 843f 7ae2 663f 7f91 9bbe
000003e0: 2ef3 86be a732 87bf 333f cfbd 8c1b 2e3f
000003f0: 5627 22bf 1ab6 1cbf 0cc1 0b3f 65d8 77bf

layer.0.bias f4 [80]
-1.7988133 -0.83445406 0.53381294 -3.763299 -1.9530959 -0.24227206 -0.1914747 -1.7279241
-1.6194644 -0.4792486 -2.157055 -0.6219198 -0.81111723 -1.6468629 -1.2266479 -1.1853399
-1.7169633 -0.6162057 -1.5788647 -0.8551422 0.1889481 -2.1492395 -1.1181706 -1.4312992
-1.2364011 -1.064799 -1.8910712 -0.69738966 -0.3037477 -1.9152739 -0.9955403 -1.3270565
-0.7586758 -2.283509 -1.5595951 -0.28949282 -0.7463196 -1.2690265 -0.76771206 -1.0923609
-1.6848707 -0.79759014 -1.8224924 -0.31745768 -0.4908067 -1.830605 -1.218706 -1.3459281
-0.61626315 -2.1203434 -1.5145402 -0.18462233 -1.2507169 -1.4836818 -0.20390233 -2.475767
-0.7507568 -2.5086405 -0.25255215 -2.17066 -0.8386011 -1.3596251 -0.9885685 -1.4299195
-0.9249343 -2.151547 -1.8443336 -0.4613169 -1.2681775 -1.1315974 -1.3918356 -1.4895937
-2.0028567 -0.66113 -2.0391488 -0.2619891 -1.5946443 -1.4042515 -1.9776415 -0.8179217
00000000: 843f e6bf c89e 55bf f7a7 083f e4d9 70c0
00000010: 0cff f9bf 2b16 78be f211 44be 9e2c ddbf
00000020: 9c4a cfbf 1360 f5be 300d 0ac0 2336 1fbf
00000030: 61a5 4fbf 67cc d2bf cc02 9dbf 38b9 97bf
00000040: 74c5 dbbf a8bf 1dbf 3d18 cabf 99ea 5abf
00000050: 9c7b 413e 248d 09c0 3720 8fbf d034 b7bf
00000060: 6442 9ebf 554b 88bf 9f0e f2bf 2188 32bf
00000070: d284 9bbe b227 f5bf bbdb 7ebf fddc a9bf
00000080: 9438 42bf 0325 12c0 d0a0 c7bf 6738 94be
00000090: cd0e 3fbf 766f a2bf c788 44bf 7bd2 8bbf
000000a0: d8a9 d7bf de2e 4cbf 6e47 e9bf d089 a2be
000000b0: 044b fbbe 4451 eabf 8ffe 9bbf 5f47 acbf
000000c0: 6cc3 1dbf b5b3 07c0 74dc c1bf a30d 3dbe
000000d0: 7e17 a0bf 49e9 bdbf c6cb 50be f772 1ec0
000000e0: 9931 40bf 918d 20c0 844e 81be 18ec 0ac0
000000f0: 90ae 56bf 3208 aebf d312 7dbf 9a07 b7bf
00000100: 7fc8 6cbf f2b2 09c0 2013 ecbf bb31 ecbe
00000110: a453 a2bf 2fd8 90bf ab27 b2bf 02ab bebf
00000120: ce2e 00c0 d13f 29bf 6a81 02c0 6f23 86be
00000130: 4e1d ccbf 83be b3bf 5b23 fdbf 5163 51bf

layer.1.weight f4 [10, 40]
-0.28930634 1.2695571 -0.34605956 -1.3332638 -0.49813583 -0.4885034 -0.56600744 -0.4286361
0.8866735 0.5665521 0.5891938 -0.42385846 -1.2511088 0.3039964 0.72989243 -0.1604506
0.14825794 0.57261646 -0.3040992 0.2644711 -1.1621 -0.99251634 -0.58917546 1.2341603
-0.42704454 -1.3200247 0.4094755 1.758999 0.12060848 -0.08690794 -0.25336778 1.0108414
-1.1007121 -0.58115184 0.8761881 0.79627645 -0.041948702 -0.4395073 -0.154019 1.2296716
0.6787917 -0.99866563 -0.29582292 1.0516357 -0.052885357 -0.22335275 0.5827979 0.5573454
0.18260187 0.23445807 0.26147482 0.11127496 -0.4487958 -0.4042309 0.66396827 -0.5531806
-0.15023997 0.82847285 0.6742464 -0.59667397 -0.6599156 0.8968328 -0.7800741 -0.3950801
0.8678229 0.45053223 -0.39538538 1.1012707 0.050948426 -0.18479148 0.32256395 -1.0891409
0.60261655 -0.86019677 -0.7673724 -1.1849078 0.7891322 1.0731922 -0.3611789 0.20251831
0.4967258 0.98069674 -0.42732328 1.1822127 -0.7005719 -0.20272498 0.49097136 0.43395334
0.015859371 -0.7001479 0.5643259 0.40994528 -0.36624834 0.04535429 0.674118 -0.8589919
0.3037375 0.06407082 0.3931702 -0.83434325 0.4680821 0.3808094 1.2590331 0.18612948
-0.6823115 0.15072258 -1.0543222 -0.35057852 -0.32288513 0.55721277 -0.47205037 -0.644499
1.3184171 -0.29172617 -0.07545456 -0.35783613 1.2809991 -0.761856 -1.2124264 -0.028233947
0.82824737 -0.88611084 0.81512827 0.41279075 -0.42125124 -1.1894084 -1.2727405 0.6042403
0.9554867 1.2385164 -0.9957562 -1.1325426 -0.4486892 -0.07807318 -0.011196382 0.9888532
-0.018411675 -0.027868345 -0.40377063 1.0872105 -0.7374 -0.9632178 -0.032532398 -0.032404404
1.4783744 1.0792289 -0.20241246 0.21883132 0.42417812 0.14033753 -0.2447626 0.052658148
-0.55591017 0.8819049 -0.076370604 0.48267624 -0.18612759 0.97052497 -0.6504199 -1.5143927
-0.013399501 0.9261284 0.09834442 -0.025990212 0.70632243 -0.8962914 0.064100966 0.9948017
0.5766117 0.13580939 -0.099989966 0.32426438 -0.08440587 0.3087302 -0.2700028 -0.22659057
0.4801229 0.10618245 -0.57839596 0.6147653 0.8692788 0.12585008 0.18870166 -0.50121033
-0.21609093 -0.07551048 1.3325614 -0.15858391 0.6247073 0.47292855 0.5685451 0.18705894
0.25778398 -0.15177278 -0.4713659 -0.6797028 -0.12769505 -0.50946087 0.2176875 -0.56876576
-0.33005685 -0.006236993 0.4050642 -0.14008546 -0.0276027 0.81764144 -0.16833279 -1.2800231
-0.21819095 0.1887691 1.1712419 0.4983237 0.22264406 0.7378964 -1.667687 0.50624907
0.53663015 -0.63535196 -0.042824067 -0.23240018 -0.24045457 0.6957102 0.2812049 0.27240115
0.087930426 -0.34708142 1.2448313 -0.67503524 -0.948642 0.4761625 -0.4731086 -0.48949748
0.73493576 0.59136385 -0.84207016 -1.1631435 1.2116952 0.07226674 0.32977527 -0.3777623
0.5686141 -0.10269034 -1.2189783 -0.11375204 -0.18523224 -0.2541626 0.012648048 0.043226786
0.8620422 -0.23015642 -0.10309547 1.2014496 -0.6661416 0.31278577 0.11837009 0.9367043
00000000: f61f 94be d980 a23f b82e b1be 63a8 aabf
00000010: a90b ffbe 1e1d fabe dde5 10bf 3176 dbbe
00000020: 09fd 623f 8f09 113f 68d5 163f fa03 d9be
00000030: 5524 a0bf 6ba5 9b3e 3bda 3a3f 294d 24be
00000040: eed0 173e fe96 123f e4b2 9bbe c268 873e
00000050: b1bf 94bf 8d15 7ebf 34d4 16bf f7f8 9d3f
00000060: 95a5 dabe 92f6 a8bf c6a6 d13e e126 e13f
00000070: 9401 f73d cafc b1bd 6cb9 81be 4063 813f
00000080: 22e4 8cbf 5ec6 14bf dd4d 603f c6d8 4b3f
00000090: 67d2 2bbd 1a07 e1be 28b7 1dbe e165 9d3f
000000a0: 4bc5 2d3f 8da8 7fbf 1a76 97be 009c 863f
000000b0: 519e 58bd 95b6 64be 3e32 153f 30ae 0e3f
000000c0: fcfb 3a3e c715 703e 07e0 853e 20e4 e33d
000000d0: 90c8 e5be 5af7 cebe d3f9 293f 3e9d 0dbf
000000e0: 82d8 19be cc16 543f 699b 2c3f a0bf 18bf
000000f0: 3bf0 28bf d696 653f f0b2 47bf f047 cabe
00000100: a429 5e3f 29ac e63e f46f cabe 70f6 8c3f
00000110: 4caf 503d fa39 3dbe 1a27 a53e f868 8bbf
00000120: 1445 1a3f db35 5cbf 8572 44bf 0fab 97bf
00000130: 9104 4a3f 5d5e 893f 71ec b8be f660 4f3e
00000140: d852 fe3e f10e 7b3f 1eca dabe bf52 973f
00000150: ae58 33bf 2397 4fbe 9960 fb3e 222f de3e
00000160: 83eb 813c e53c 33bf aa77 103f 59e4 d13e
00000170: e784 bbbe 6cc5 393d ff92 2c3f e5e6 5bbf
00000180: 7b83 9b3e 9037 833d 9b4d c93e 8597 55bf
00000190: 75a8 ef3e 73f9 c23e ff27 a13f ba98 3e3e
000001a0: f7ab 2ebf 0557 1a3e 08f4 86bf 077f b3be
000001b0: 3351 a5be 7fa5 0e3f 96b0 f1be e3fd 24bf
000001c0: e4c1 a83f 225d 95be ec87 9abd 4c36 b7be
000001d0: c7f7 a33f ff08 43bf ca30 9bbf e14a e7bc
000001e0: 0508 543f 29d8 62bf 3fac 503f 4f59 d33e
000001f0: 3eae d7be 893e 98bf 29e9 a2bf 7eaf 1a3f
00000200: c79a 743f b587 9e3f e1e9 7ebf 28f7 90bf
00000210: 97ba e5be d5e4 9fbd 0871 37bc 7c25 7d3f
00000220: 15d4 96bc 284c e4bc 06bb cebe b729 8b3f
00000230: 3fc6 3cbf 7195 76bf b140 05bd 7bba 04bd
00000240: 5f3b bd3f 2c24 8a3f 3645 4fbe 5115 603e
00000250: e02d d93e a4b4 0f3e 0ca3 7abe 12b0 573d
00000260: 2150 0ebf 85c4 613f 3168 9cbd 5721 f73e
00000270: 3b98 3ebe 5374 783f eb81 26bf 9fd7 c1bf
00000280: 9589 5bbc c016 6d3f cd68 c93d 6de9 d4bc
00000290: 8cd1 343f 5a73 65bf 5e47 833d 53ab 7e3f
000002a0: d39c 133f 9e11 0b3e 8ac7 ccbd fb05 a63e
000002b0: fcdc acbd e311 9e3e cf3d 8abe 5c07 68be
000002c0: abd2 f53e 2f76 d93d c211 14bf 4261 1d3f
000002d0: 0e89 5e3f d8de 003e 023b 413e 524f 00bf
000002e0: f146 5dbe 3da5 9abd 5f91 aa3f d263 22be
000002f0: d1ec 1f3f b123 f23e 2c8c 113f 618c 3f3e
00000300: 43fc 833e 536a 1bbe df56 f1be 0101 2ebf
00000310: 7ec2 02be 076c 02bf 79e9 5e3e a29a 11bf
00000320: 36fd a8be b05f ccbb 9364 cf3e 9072 0fbe
00000330: 0f1f e2bc f350 513f 6e5f 2cbe ccd7 a3bf
00000340: 736d 5fbe b04c 413e 41eb 953f 4924 ff3e
00000350: cefc 633e c7e6 3c3f c576 d5bf 8a99 013f
00000360: 9860 093f 6da6 22bf 4a68 2fbd 50fa 6dbe
00000370: b939 76be 101a 323f 17fa 8f3e 2a78 8b3e
00000380: de14 b43d a8b4 b1be a256 9f3f 1ccf 2cbf
00000390: 34da 72bf 92cb f33e 4a3b f2be 6a9f fabe
000003a0: c024 3c3f 9f63 173f e991 57bf e3e1 94bf
000003b0: d418 9b3f 9600 943d 4ed8 a83e 0f6a c1be
000003c0: b290 113f 504f d2bd 7b07 9cbf d4f6 e8bd
000003d0: 85ad 3dbe 9a21 82be c239 4f3c 920e 313d
000003e0: ccae 5c3f 20ae 6bbe b823 d3bd 1ac9 993f
000003f0: 4288 2abf 7525 a03e 056c f23d dacb 6f3f

layer.1.bias f4 [10]
-0.26426676 0.11338285 -0.08856975 0.15213248 0.09969383 0.2717108 -0.07053347 0.42912772
0.5800696 -0.49710777
00000000: f94d 87be 4535 e83d 0f64 b5bd 9ec8 1b3e
00000010: 472c cc3d ae1d 8b3e da73 90bd a1b6 db3e
00000020: 717f 143f e984 febe

layerz.0.weight f4 [80, 5]
-0.22911538 1.5242491 0.3056868 -0.49857536 0.16065921 0.3556352 -2.3680842 -0.007326931
0.79828113 0.4323601 0.21426383 -1.1342423 0.9011913 -1.5245144 -0.045538824 -0.07648035
1.0887653 -1.0727837 1.5766993 0.16501053 0.36093867 0.11891989 1.0496849 0.6681072
-1.2396386 -0.5407576 -0.2297013 -0.83383673 -1.2566309 1.6008909 0.14567453 -1.7175236
-0.7385431 -0.91314 1.7920786 0.14013292 1.4967388 0.8259843 0.6347428 -1.8890944
-0.45764157 -0.24220288 -1.7514882 0.10364531 1.1799244 0.20808254 0.24177101 0.95879585
-0.024717068 -0.9304362 0.3571553 0.907104 0.2065081 -0.33752233 0.21197537 -0.41004115
-1.3939481 0.034610428 0.8948194 -0.49652478 0.30996218 -0.44486937 -0.04455676 0.60638535
-0.9647069 -0.32603687 0.8090007 -0.2813649 -1.0922828 1.6682118 -0.51870686 1.2661129
-1.0627811 -0.5274075 -0.014465568 0.67114663 -1.1529584 0.6837524 -0.041293696 -0.31408826
0.13160083 -0.68178326 -0.29549855 0.36997917 1.6468897 -0.15725781 0.5878078 1.0015211
0.48678446 -1.3571293 0.0008172534 1.2384225 -1.1737288 -2.7961912 0.53355414 0.09071042
-0.7498761 0.22705176 1.9412944 -0.81859624 -1.075007 -0.6135182 -0.43905 -0.9448225
-0.53904617 1.2274917 0.7763795 -0.27817038 0.97943175 0.64588404 -0.33721742 -0.20372851
-0.7804827 0.5643468 0.7793563 0.5812815 0.08537173 1.2531984 -0.5282177 -0.1420206
-0.5722076 -0.10584667 0.19432682 -0.06790437 -0.20422226 1.3844774 -0.13616039 -0.46915856
-0.6781036 0.19912499 0.44743633 -1.3199025 -0.28390235 -1.0724177 -0.40431488 -0.38106453
1.2880934 0.13827756 0.82482266 0.42862818 0.05950338 0.08712736 0.8553793 -1.1148043
1.0300046 -0.2322677 -0.37982538 -0.39188418 1.4288642 -1.0525049 -0.021834124 0.74540454
0.7124634 -0.27007094 0.3885563 0.08806883 -1.2523383 -1.5803463 0.63313735 -0.71593016
-0.9339806 0.74793226 0.6210107 1.1678648 -0.28005704 0.82310003 -0.5429783 -0.75213337
-1.5885725 -0.060274854 1.0107094 0.78504235 0.0906141 -1.3921986 0.46970338 -0.5592005
-0.75419885 0.2634249 2.0071213 -0.21368587 0.68109024 -0.029280799 0.24432346 0.6743217
-0.16007978 -0.76916385 0.13221996 -0.42144984 -0.80181146 -0.18814665 0.28210205 -0.26467687
0.12215633 0.3838035 -0.8123229 -0.8082771 0.6521653 -0.65251017 -0.12688738 1.3024237
1.7351946 -0.50872135 0.44161692 0.74609375 -0.7593744 -1.0196805 -0.018123606 -0.36488912
-0.5046712 0.3538341 0.0037379612 0.019418027 -0.7927734 0.63820636 1.9798867 -0.037158914
-0.07250162 0.047149006 -0.3704554 -1.4937624 0.8306726 -0.7001081 0.38942587 0.88732564
0.31929308 -0.7302353 0.64349085 -0.43807757 -1.1691848 -0.32044622 -0.032216005 -0.7610922
-1.0404177 0.07256432 0.20786743 -0.2365178 1.4820064 0.4391133 -0.2089859 -0.29763308
0.09967209 -0.30373788 -1.2661755 -1.1523453 0.8642931 -0.24129327 0.67996377 0.79399717
1.2513188 -0.44498047 -0.55898815 -0.5115161 -0.54736334 -1.44566 0.29046792 0.26287353
00000000: 399d 6abe 981a c33f fb82 9c3e 4545 ffbe
00000010: d983 243e d115 b63e b18e 17c0 c116 f0bb
00000020: 275c 4c3f 4e5e dd3e fa67 5b3e da2e 91bf
00000030: 79b4 663f 4a23 c3bf eb86 3abd bba1 9cbd
00000040: a95c 8b3f fa50 89bf 48d1 c93f 85f8 283e
00000050: f4cc b83e 458c f33d 135c 863f 1309 2b3f
00000060: 7aac 9ebf 176f 0abf d136 6bbe 5376 55bf
00000070: 48d9 a0bf fee9 cc3f b42b 153e d0d7 dbbf
00000080: 2911 3dbf 8bc3 69bf d562 e53f 017f 0f3e
00000090: 2395 bf3f b573 533f 817e 223f d8cd f1bf
000000a0: ff4f eabe 0804 78be c430 e0bf fe43 d43d
000000b0: c307 973f 9713 553e d292 773e a573 753f
000000c0: 737b cabc 1131 6ebf 0fdd b63e f837 683f
000000d0: dc76 533e bacf acbe 1210 593e eaf0 d1be
000000e0: e46c b2bf aac3 0d3d e212 653f 7f38 febe
000000f0: 5db3 9e3e ebc5 e3be 2681 36bd 123c 1b3f
00000100: 08f7 76bf 4eee a6be ab1a 4f3f 0f0f 90be
00000110: eccf 8bbf f787 d53f f9c9 04bf fd0f a23f
00000120: 3609 88bf 2e04 07bf fd00 6dbc 44d0 2b3f
00000130: 2494 93bf 660a 2f3f 9423 29bd 2dd0 a0be
00000140: 5ec2 063e 5989 2ebf 964b 97be e96d bd3e
00000150: 48cd d23f 3108 21be 927a 163f d831 803f
00000160: d03b f93e 6ab6 adbf f33c 563a a184 9e3f
00000170: bf3c 96bf ccf4 32c0 0197 083f 62c6 b93d
00000180: e1f7 3fbf 4280 683e 567c f83f 868f 51bf
00000190: d499 89bf 870f 1dbf 29cb e0be e3df 71bf
000001a0: eefe 09bf 731e 9d3f cfc0 463f 596c 8ebe
000001b0: 0abc 7a3f a858 253f c3a7 acbe 359e 50be
000001c0: b7cd 47bf 0879 103f e583 473f ddce 143f
000001d0: 60d7 ae3d ce68 a03f 4639 07bf d96d 11be
000001e0: 337c 12bf 24c6 d8bd 9cfd 463e 7211 8bbd
000001f0: a41f 51be 8e36 b13f a16d 0bbe 8d35 f0be
00000200: 3398 2dbf 6ce7 4b3e 6016 e53e 91f2 a8bf
00000210: a65b 91be fc44 89bf 5c02 cfbe e41a c3be
00000220: 3fe0 a43f a298 0d3e 9427 533f 2775 db3e
00000230: d1b9 733d d46f b23d 23fa 5a3f e8b1 8ebf
00000240: 31d7 833f 95d7 6dbe 7978 c2be 0ba5 c8be
00000250: 06e5 b63f 7bb8 86bf 7add b2bc d5d2 3e3f
00000260: 0064 363f bd46 8abe daf0 c63e 6e5d b43d
00000270: 9f4c a0bf ca48 cabf 4a15 223f 3347 37bf
00000280: 5a19 6fbf 7d78 3f3f 8ffa 1e3f 987c 953f
00000290: a363 8fbe afb6 523f a000 0bbf d08b 40bf
000002a0: 5856 cbbf c4e2 76bd ed5e 813f 89f8 483f
000002b0: e393 b93d 9033 b2bf f67c f03e c427 0fbf
000002c0: 2d13 41bf a1df 863e ad74 0040 78d0 5abe
000002d0: ee5b 2e3f 49de efbc ee2f 7a3e 59a0 2c3f
000002e0: f4eb 23be ece7 44bf ab64 073e 46c8 d7be
000002f0: 8443 4dbf 84a9 40be ae6f 903e ba83 87be
00000300: 192d fa3d e481 c43e 65f4 4fbf 3feb 4ebf
00000310: 4ef4 263f e80a 27bf c4ee 01be d2b5 a63f
00000320: db1a de3f 903b 02bf 9d1b e23e 0000 3f3f
00000330: 5c66 42bf e484 82bf f577 94bc bfd2 babe
00000340: 2232 01bf be29 b53e 95f8 743b 8e12 9f3c
00000350: 33f3 4abf 7e61 233f ed6c fd3f f233 18bd
00000360: bb7b 94bd 511f 413d 55ac bdbe 9b33 bfbf
00000370: f6a6 543f 493a 33bf d462 c73e c627 633f
00000380: 627a a33e b3f0 3abf d1bb 243f b44b e0be
00000390: d9a7 95bf 8711 a4be eef4 03bd f0d6 42bf
000003a0: 682c 85bf 9a9c 943d 33db 543e b931 72be
000003b0: 63b2 bd3f 75d3 e03e 6600 56be 5d63 98be
000003c0: e120 cc3d 8883 9bbe 0a12 a2bf 0d80 93bf
000003d0: 5042 5d3f 9515 77be 1b12 2e3f 6643 4b3f
000003e0: 372b a03f 7bd4 e3be d919 0fbf b8f2 02bf
000003f0: 0120 0cbf 630b b9bf 36b8 943e 5c97 863e

layerz.0.bias f4 [80]
0.28183502 -2.2169783 -0.9927103 -0.9015175 -0.053895295 -0.6121968 -0.8313755 -0.739135
-1.9616349 0.5961867 0.60057944 -1.719206 0.99574983 -2.6146445 -0.6093535 -1.2268736
0.34836492 -2.469262 -1.8301278 0.14714077 -0.57826346 -1.2529675 -0.6377765 -0.68552154
0.43805453 -1.4760649 -0.6364214 -0.45301443 0.45136684 -1.7725147 0.14451486 -1.9506707
-1.480872 -0.65863657 -1.5116979 -0.45770302 0.2039489 -1.0485518 0.17336753 -2.3307993
-1.8374367 -0.6146497 -0.8156832 0.26200688 -0.34132272 -0.8937372 0.47119826 -2.133887
0.04887789 -0.91283804 -1.647617 0.12897655 -0.47992134 -0.5693025 -0.76636046 -0.6470994
-1.2920451 -1.0210373 -1.5174574 -0.8713616 -1.5204781 -0.36991662 0.601607 -1.5965788
-0.50118655 -1.0815996 -2.2105281 -0.051194664 -2.3045971 0.43490368 -2.2621765 0.23567842
-1.0005071 -0.6431778 0.10844786 -2.3403125 -1.7177069 0.037002195 -0.18441239 -1.0704988
00000000: ae4c 903e f9e2 0dc0 4322 7ebf dac9 66bf
00000010: 50c1 5cbd eeb8 1cbf 06d5 54bf f437 3dbf
00000020: da16 fbbf b19f 183f 93bf 193f f10e dcbf
00000030: 76e9 7e3f 5656 27c0 97fe 1bbf 320a 9dbf
00000040: e35c b23e 6308 1ec0 a141 eabf 12ac 163e
00000050: 1309 14bf 3d61 a0bf 5245 23bf 577e 2fbf
00000060: af48 e03e b2ef bcbf 83ec 22bf 82f1 e7be
00000070: 8e19 e73e c3e1 e2bf b4fb 133e 94af f9bf
00000080: 378d bdbf 689c 28bf 517f c1bf 0d58 eabe
00000090: fbd7 503e f236 86bf 4287 313e d12b 15c0
000000a0: 2031 ebbf af59 1dbf 9dd0 50bf c425 863e
000000b0: dac1 aebe f6cb 64bf e640 f13e 9b91 08c0
000000c0: 2f34 483d c1af 69bf 1de5 d2bf 6e12 043e
000000d0: 40b8 f5be cfbd 11bf 3330 44bf 4ea8 25bf
000000e0: bc61 a5bf 5ab1 82bf 0b3c c2bf 8e11 5fbf
000000f0: 079f c2bf b665 bdbe eb02 1a3f b25c ccbf
00000100: c34d 00bf db71 8abf 4b79 0dc0 7fb1 51bd
00000110: 857e 13c0 b2ab de3e 80c7 10c0 af55 713e
00000120: 9e10 80bf 4da7 24bf e919 de3d aec7 15c0
00000130: d2dd dbbf 9d8f 173d 9ad6 3cbe 1b06 89bf

layerz.1.weight f4 [10, 40]
-1.3289151 0.43017498 -0.7666112 0.37770382 0.45950952 0.49020287 0.1145521 -0.90227383
0.5998859 -0.3033563 -1.0701505 0.5468377 0.24008855 -0.17735937 0.020843826 -0.05033437
-1.801 0.5162494 0.32881743 0.51498866 0.6065477 0.46571392 -0.115000315 -0.9190974
-0.47951773 -0.84708863 0.41321057 -1.2311797 1.1295794 0.32059708 -0.35805476 0.33069947
1.0504695 0.682205 -0.62887 1.1494992 0.32989535 -0.29743937 1.2775675 0.23853143
-0.83326554 -0.042699166 -1.0006329 0.6983187 -0.26221493 0.62624913 0.4781466 0.54267794
-0.1828878 -0.6234044 0.052720457 -0.2664219 -0.4852797 -0.7816597 -1.320377 0.15407103
-0.03876243 1.7843524 0.41464385 -0.11644025 -0.8639317 0.13801725 0.13080426 -0.18742457
0.9963979 -0.35496035 -1.4096798 -0.118069924 0.30805582 0.6866839 -0.051764727 0.62874895
0.9229641 -0.40944773 -0.33465508 1.8677926 0.5531863 0.49299914 -0.559924 -0.40373892
0.88595724 -1.3088199 -0.03609091 -0.20425706 0.09066768 0.42785028 0.11512107 -0.17853492
-0.611241 -1.8963647 -0.40028957 0.0130879665 -0.3537413 -0.042138387 -0.41698727 1.2137307
-0.9884759 0.82447755 0.1288668 -0.9282609 -0.23785333 -0.72434974 1.2968777 0.020343
-0.28452882 -0.019650554 -0.41021562 1.3869493 -0.58938783 1.3128737 0.008687957 -0.6285707
-0.058247183 -0.96120113 1.4607599 -0.44168684 1.2153736 -0.7071352 -0.16526951 1.001127
0.26869684 0.30346674 -0.9742406 -0.75189656 -0.11505053 -0.98277235 0.07702745 -0.0015948109
0.42619854 -0.31883 1.0164603 0.3084969 -0.07554668 -0.5298208 -0.79293114 -0.041348133
-1.144379 0.56793016 -0.7449141 0.86547977 0.26660815 0.5044847 0.09928155 0.023651728
0.16686317 -0.45304573 0.6526329 0.9396923 0.32279417 -0.7223248 -1.2707634 0.65132105
-0.90987724 -0.052364975 -0.29051927 0.93423575 0.19113155 0.12168 1.5049704 -0.87465394
0.08290578 0.27675945 -0.8538967 1.1938784 0.153014 0.6852331 -0.5397554 -0.105207935
-1.0717088 1.3428065 1.2028317 -1.0039395 0.37605822 -0.07410327 -0.84530747 0.30308428
-0.16765545 -1.5626947 -0.36863536 0.20965062 -0.13621221 0.16056642 0.28777215 0.35967967
-1.0374073 0.41669527 -1.5493491 -0.33651885 -0.861453 -0.18435536 0.86363125 0.32114008
-0.27140436 0.15804836 0.22294444 -0.37296247 -0.20147741 0.858855 -0.14020422 0.009100353
-0.1102184 0.33817077 -0.17241435 0.18693663 -1.2808683 -0.72977513 -1.394761 -0.81984645
0.8142372 0.07304732 0.6550432 0.19489606 -0.8852352 -0.30666262 0.6067861 0.22637157
0.5004554 0.14888951 0.08252802 0.7074913 0.038786165 0.3486107 -0.8047502 -0.5352456
-0.2075195 0.16197738 -0.5598823 -1.0229408 0.27434012 1.1758158 0.49081904 -1.2571398
0.36151558 0.8383643 0.28038478 -0.16078787 -0.36582246 1.2257227 0.019944048 -0.97060865
1.1581143 1.0461165 0.6853707 -0.511537 -1.2464324 0.86097866 0.27168143 -0.1471114
-0.16764577 -0.3673295 0.66279817 0.3564909 1.076474 -0.5866463 0.2588289 -0.34663716
00000000: e419 aabf e53f dc3e a240 44bf 6562 c13e
00000010: d544 eb3e dffb fa3e 4b9a ea3d 6bfb 66bf
00000020: 1f92 193f 8451 9bbe b1fa 88bf 8efd 0b3f
00000030: c6d9 753e b29d 35be acc0 aa3c 6a2b 4ebd
00000040: 2b87 e6bf ec28 043f c25a a83e 4cd6 033f
00000050: b646 1b3f 0e72 ee3e 4985 ebbd f849 6bbf
00000060: 5983 f5be cdda 58bf 5690 d33e 4c97 9dbf
00000070: 0f96 903f 4d25 a43e f452 b7be 7151 a93e
00000080: c975 863f fda4 2e3f a0fd 20bf ca22 933f
00000090: 0be8 a83e f949 98be 5587 a33f 9541 743e
000000a0: e450 55bf 52e5 2ebd bd14 80bf 04c5 323f
000000b0: 0941 86be dd51 203f a2cf f43e f1ec 0a3f
000000c0: f046 3bbe 6e97 1fbf 68f1 573d 7468 88be
000000d0: 9576 f8be da1a 48bf 1d02 a9bf ccc4 1d3e
000000e0: 5bc5 1ebd a965 e43f 334c d43e 3a78 eebd
000000f0: a12a 5dbf 6554 0d3e 8df1 053e 3aec 3fbe
00000100: ef13 7f3f 5dbd b5be 6370 b4bf a5ce f1bd
00000110: 7eb9 9d3e 84ca 2f3f 4007 54bd b1f5 203f
00000120: 6047 6c3f 22a3 d1be e957 abbe d413 ef3f
00000130: 9e9d 0d3f 626a fc3e 2e57 0fbf deb6 cebe
00000140: 18ce 623f 6987 a7bf 10d4 13bd c328 51be
00000150: faaf b93d 310f db3e 98c4 eb3d dcd1 36be
00000160: 4a7a 1cbf 14bc f2bf c1f2 ccbe e96e 563c
00000170: 941d b5be 4d99 2cbd 5b7f d5be 875b 9b3f
00000180: c20c 7dbf f610 533f a9f5 033e 82a2 6dbf
00000190: d38f 73be fc6e 39bf 1700 a63f 5da6 a63c
000001a0: c3ad 91be 33fa a0bc c807 d2be 8e87 b13f
000001b0: 1fe2 16bf 3f0c a83f ef57 0e3c 02ea 20bf
000001c0: 9994 6ebd 4711 76bf 2efa ba3f c724 e2be
000001d0: 5d91 9b3f d006 35bf 693c 29be ee24 803f
000001e0: a292 893e fe5f 9b3e d567 79bf 4b7c 40bf
000001f0: 9d9f ebbd f896 7bbf 91c0 9d3d f908 d1ba
00000200: b236 da3e b03d a3be 5f1b 823f 4ef3 9d3e
00000210: 38b8 9abd 56a2 07bf 89fd 4abf a95c 29bd
00000220: 037b 92bf df63 113f b1b2 3ebf 1590 5d3f
00000230: dd80 883e e925 013f 2054 cb3d 45c1 c13c
00000240: 2ede 2a3e 9cf5 e7be f312 273f ad8f 703f
00000250: 4745 a53e 47ea 38bf 60a8 a2bf fabc 263f
00000260: b7ed 68bf a87c 56bd f1be 94be 132a 6f3f
00000270: fdb7 433e 5d33 f93d dfa2 c03f 52e9 5fbf
00000280: 81ca a93d 6ab3 8d3e f998 5abf 02d1 983f
00000290: b4af 1c3e 706b 2f3f 692d 0abf 4277 d7bd
000002a0: c12d 89bf 15e1 ab3f 64f6 993f 1781 80bf
000002b0: b48a c03e 75c3 97bd 1266 58bf dd2d 9b3e
000002c0: dfad 2bbe 6106 c8bf c6bd bcbe a7ae 563e
000002d0: 377b 0bbe 866b 243e df56 933e ef27 b83e
000002e0: c3c9 84bf 1559 d53e 1251 c6bf 334c acbe
000002f0: 2f88 5cbf a7c7 3cbe f016 5d3f 796c a43e
00000300: 83f5 8abe 6ed7 213e 8c4b 643e f0f4 bebe
00000310: 1850 4ebe ecdd 5b3f b291 0fbe a619 153c
00000320: 2fba e1bd b824 ad3e 638d 30be 516c 3f3e
00000330: 7ef3 a3bf 8bd2 3abf 8787 b2bf 75e1 51bf
00000340: d971 503f d599 953d e9b0 273f d592 473e
00000350: c69e 62bf e202 9dbe 5556 1b3f f3cd 673e
00000360: d81d 003f 7e76 183e 7304 a93d 261e 353f
00000370: 3ede 1e3d 1a7d b23e 1c04 4ebf db05 09bf
00000380: fe7f 54be 66dd 253e 7254 0fbf b9ef 82bf
00000390: 4f76 8c3e 2281 963f a24c fb3e f5e9 a0bf
000003a0: 9218 b93e 0b9f 563f 988e 8f3e 93a5 24be
000003b0: 154d bbbe 7be4 9c3f b361 a33c cf79 78bf
000003c0: 173d 943f 25e7 853f 7474 2f3f 17f4 02bf
000003d0: 198b 9fbf 1969 5c3f d419 8b3e 5fa4 16be
000003e0: 55ab 2bbe 9d12 bcbe 24ad 293f fa85 b63e
000003f0: e6c9 893f 742e 16bf 3985 843e 6d7a b1be

layerz.1.bias f4 [10]
0.07144913 -0.29940742 0.031481653 -0.07790919 0.037657123 -1.0674758 0.4853993 -0.18935962
0.068977825 -0.653648
00000000: ec53 923d ee4b 99be e8f2 003d da8e 9fbd
00000010: 5b3e 1a3d 0ca3 88bf 4286 f83e 7de7 41be
00000020: 3f44 8d3d 7a55 27bf

mlr.weight f4 [71, 40]
0.27674982 -0.59981334 0.9374035 -0.47031114 -1.1360456 -0.65722275 -0.15997475 0.35612535
-1.6302606 -0.021132441 0.18368797 0.13332371 -0.07112854 -2.2628841 0.11579304 0.7959175
-0.1613975 0.8329364 -0.47376743 0.2942155 0.58776754 -0.16899604 -0.06240481 -0.17745256
-0.33055708 0.9887463 -0.35965493 0.016733224 -0.59803826 0.08195931 0.043237437 0.353826
-0.17313862 -0.60240054 -2.2963092 -0.78582454 -0.3693975 1.1627307 0.13922626 -0.39177752
0.5283636 0.2917885 0.25206923 -0.92528385 0.77254266 0.4863013 -1.6099215 -0.49344638
0.2044151 -1.9657942 -0.010469696 0.75162107 -0.8797114 -0.4925003 0.3657428 -0.12148814
0.16861399 0.8053313 0.7557314 0.30973217 -0.26225448 0.71592903 -0.05609694 0.17832553
-0.36182776 0.2686563 0.25424707 -0.04553108 0.32710403 0.11591754 1.0926172 -0.2757911
0.23901911 -0.6649007 -0.10485437 -0.16353695 0.09811627 0.2955739 0.46866593 -0.029587366
0.33043003 -0.20899189 0.26299277 -0.070996985 0.31619865 0.42520508 0.40517434 -1.6451193
0.10392655 -0.39943254 -1.0150707 0.6369526 0.19949117 -0.844199 0.26406312 0.16472712
0.032634262 0.19042468 0.046377763 0.17935163 0.21909977 0.43396795 0.2548135 -0.04094791
0.029513983 0.33508968 -0.049609497 0.09666944 -0.028452836 0.2605503 0.20877089 -0.16412659
-0.10212842 0.38590354 0.5888566 -0.1645664 -0.5720464 -0.56784195 0.43296364 -0.7450263
0.53285295 0.16751313 -1.5723737 0.12636311 -0.07780848 0.21960396 -0.099510945 0.07143318
0.17265618 0.3866452 -1.3702086 -0.6116954 0.8457984 1.3877225 0.868464 0.76280653
-2.0195897 1.2405864 -0.7813115 0.51369935 0.25670063 -0.37926036 0.24463648 -0.14729136
-0.32351866 0.18071337 0.35947618 0.20556653 0.61672527 0.11451034 -0.04173307 -0.004527285
0.35404137 0.43428174 -0.61703056 0.2781438 -1.2380686 0.11279115 0.02748931 0.86245453
-2.2814348 0.534821 0.39626366 0.25896817 -1.0465955 0.20325696 -0.59592897 0.3810775
0.049660772 -1.29003 -0.73001873 1.4010623 -0.17501453 -1.1275921 0.17511179 -0.7066027
0.24307846 0.5495231 -0.7181564 1.7014084 0.4600099 -0.36537683 0.1788658 0.05263062
0.19821283 0.4276165 0.036047433 0.119939834 -0.1989659 -0.2610764 -0.29355165 -0.8562436
-0.6880968 -0.7446468 -0.6228958 -1.4380715 0.806106 -1.1729304 0.59160787 0.32840896
0.346109 0.50147057 0.17345111 0.36008355 -0.89435536 0.54214764 -0.1918229 0.2959015
0.47627452 0.38402072 -0.10964203 -1.4954382 -0.3956662 -0.8666977 -0.56185657 -0.3581049
1.5158796 0.80835915 -0.5684136 -0.56717384 -0.33938894 -0.05624796 -0.026202653 -0.069875635
-0.35270044 0.060506325 0.4920422 0.18666084 -0.072419375 -0.11028946 0.2680372 -0.44561285
0.31544402 -0.31705964 -0.07686723 -0.2907513 -0.1532269 0.8511212 0.1765056 0.79986316
0.49108824 0.50633657 0.2500949 0.050777916 -1.0278984 0.28832942 0.29531643 0.09637305
0.44602755 0.17350104 -0.117510654 -0.30329227 0.3361171 1.1142564 -0.09815392 0.83805865
00000000: 27b2 8d3e 5e8d 19bf adf9 6f3f 9fcc f0be
00000010: f169 91bf c03f 28bf 6cd0 23be 1056 b63e
00000020: 61ac d0bf f11d adbc b318 3c3e 0386 083e
00000030: d7ab 91bd 18d3 10c0 e724 ed3d 40c1 4b3f
00000040: 6345 25be 523b 553f a591 f2be 6aa3 963e
00000050: ef77 163f 4c0d 2dbe 309c 7fbd 20b6 35be
00000060: c73e a9be 7a1e 7d3f b124 b8be 1d14 893c
00000070: 0919 19bf 48da a73d bd19 313d ae28 b53e
00000080: 404b 31be ec36 1abf bbf6 12c0 cc2b 49bf
00000090: ab21 bdbe 5cd4 943f 5491 0e3e 1097 c8be
000000a0: d642 073f 4d65 953e 380f 813e 67df 6cbf
000000b0: 5bc5 453f 7cfc f83e e811 cebf 01a5 fcbe
000000c0: 3152 513e 259f fbbf 1689 2bbc 3d6a 403f
000000d0: c434 61bf 0029 fcbe a442 bb3e c6ce f8bd
000000e0: 25a9 2c3e 312a 4e3f 9d77 413f 3795 9e3e
000000f0: 3846 86be 2047 373f e8c5 65bd f89a 363e
00000100: 7d41 b9be 528d 893e ac2c 823e cc7e 3abd
00000110: 2e7a a73e 2d66 ed3d e1da 8b3f 7e34 8dbe
00000120: 6dc1 743e ef36 2abf e3bd d6bd 3b76 27be
00000130: 2ff1 c83d 7655 973e fbf4 ef3e 3461 f2bc
00000140: 202e a93e f801 56be fda6 863e de66 91bd
00000150: cae4 a13e 7bb4 d93e 0373 cf3e 4593 d2bf
00000160: 71d7 d43d 6c82 ccbe d6ed 81bf 530f 233f
00000170: 6a47 4c3e 6d1d 58bf 4833 873e 3aae 283e
00000180: 81ab 053d b0fe 423e 9cf6 3d3d f4a7 373e
00000190: b15b 603e 0c31 de3e ea76 823e ffb8 27bd
000001a0: 4fc7 f13c e090 ab3e 5433 4bbd a1fa c53d
000001b0: ec15 e9bc d966 853e 09c8 553e cd10 28be
000001c0: b428 d1bd 2695 c53e 4ebf 163f 1884 28be
000001d0: a271 12bf 175e 11bf 69ad dd3e 0bba 3ebf
000001e0: 0d69 083f 9088 2b3e 8b43 c9bf 5565 013e
000001f0: 0d5a 9fbd dcdf 603e 65cc cbbd 8f4b 923d
00000200: c8cc 303e 5cf6 c53e ff62 afbf 1298 1cbf
00000210: 3e86 583f e4a0 b13f a853 5e3f 4a47 433f
00000220: f540 01c0 89cb 9e3f 0804 48bf cd81 033f
00000230: 446e 833e 6a2e c2be fc81 7a3e 8cd3 16be
00000240: 3da4 a5be ed0c 393e 430d b83e 0880 523e
00000250: b5e1 1d3f 6684 ea3d 4cf0 2abd 9f59 94bb
00000260: e944 b53e 2d5a de3e b7f5 1dbf dd68 8e3e
00000270: 0879 9ebf 0cff e63d 4331 e13c d2c9 5c3f
00000280: 0703 12c0 07ea 083f 12e3 ca3e 7a97 843e
00000290: d7f6 85bf 9822 503e cd8e 18bf 971c c33e
000002a0: 1869 4b3d b41f a5bf 82e2 3abf 0256 b33f
000002b0: 0237 33be f054 90bf 8150 333e eae3 34bf
000002c0: 8fe9 783e 8cad 0c3f 19d9 37bf c0c7 d93f
000002d0: 6b86 eb3e ac12 bbbe 9928 373e 3493 573d
000002e0: 4ef8 4a3e 8df0 da3e 79a6 133d 04a3 f53d
000002f0: b8bd 4bbe ceab 85be 674c 96be c832 5bbf
00000300: 1d27 30bf 2ca1 3ebf 1976 1fbf ba12 b8bf
00000310: f65c 4e3f 9522 96bf 9d73 173f 3825 a83e
00000320: 3335 b13e 6060 003f 2b9d 313e df5c b83e
00000330: 79f4 64bf 30ca 0a3f 396d 44be 6780 973e
00000340: 41da f33e 5d9e c43e 008c e0bd 856a bfbf
00000350: c394 cabe e7df 5dbf d5d5 0fbf 8759 b7be
00000360: 5808 c23f a0f0 4e3f 8e83 11bf 4e32 11bf
00000370: 63c4 adbe 4364 66bd f2a6 d6bc f51a 8fbd
00000380: 2795 b4be 7bd5 773d f5ec fb3e 0524 3f3e
00000390: 9c50 94bd 71df e1bd 2c3c 893e 5e27 e4be
000003a0: e181 a13e a455 a2be 916c 9dbd 5bdd 94be
000003b0: 83e7 1cbe 14e3 593f e2bd 343e d5c3 4c3f
000003c0: eb6f fb3e 469f 013f 700c 803e 81fc 4f3d
000003d0: 2d92 83bf ea9f 933e b733 973e 3c5f c53d
000003e0: b95d e43e 42aa 313e 6da9 f0bd 2049 9bbe
000003f0: 8a17 ac3e f49f 8e3f ec04 c9bd 038b 563f

mlr.bias f4 [71]
0.22619747 0.026547335 0.250259 -0.38093686 0.7071507 0.266403 0.7854122 0.06652095
-0.28975964 -0.29304412 -0.035502147 0.00060502056 -0.6480414 0.20236583 0.30456194 0.58117354
0.30479854 0.3971538 0.21241505 -0.079201184 0.3616943 0.4387676 0.2217564 0.7345794
0.25337356 -0.3970855 -0.9698915 -0.50728405 -2.1379624e-06 -0.35708568 -0.21090606 0.014413093
0.14231956 -0.06992474 -0.39457417 0.5607406 -0.0043483777 0.2665602 0.14117669 -0.10729848
-0.035586137 0.32643113 0.061061762 0.5954327 0.7100816 0.2145646 -0.4654637 -0.02228772
-0.34228864 0.12766483 -0.49197328 -0.3671384 -0.61991054 -0.16134213 -0.4101202 0.17542803
-0.023022724 -0.47748178 0.13143592 -0.19097525 0.043779496 -0.20561981 -0.07436625 -0.19029857
-0.13430598 -0.26615292 -0.29683772 -0.1839801 -0.0776217 -0.103763506 -0.105250716
00000000: 4fa0 673e cc79 d93c f321 803e 280a c3be
00000010: d407 353f f965 883e c610 493f 233c 883d
00000020: 605b 94be e109 96be b36a 11bd 3e9a 1e3a
00000030: 0be6 25bf fd38 4f3e 8bef 9b3e cac7 143f
00000040: 8e0e 9c3e be57 cb3e 5583 593e 3b34 a2bd
00000050: ff2f b93e 26a6 e03e 1c14 633e 650d 3c3f
00000060: 2eba 813e ca4e cbbe cf4a 78bf 5edd 01bf
00000070: ea79 0fb6 efd3 b6be c2f7 57be e524 6c3c
00000080: 38bc 113e b434 8fbd a005 cabe b28c 0f3f
00000090: d67c 8ebb 947a 883e 9f90 103e 4ebf dbbd
000000a0: c5c2 11bd fb21 a73e e61b 7a3d 476e 183f
000000b0: e8c7 353f d3b6 5b3e 4251 eebe bd94 b6bc
000000c0: 7540 afbe 92ba 023e ece3 fbbe 90f9 bbbe
000000d0: 75b2 1ebf df36 25be 46fb d1be 68a3 333e
000000e0: 279a bcbc 7e78 f4be 2397 063e 048f 43be
000000f0: 2152 333d 008e 52be 554d 98bd a1dd 42be
00000100: 8287 09be 3245 88be 1dfb 97be 4865 3cbe
00000110: 20f8 9ebd f681 d4bd b08d d7bd

layer.0.weight f4 [80, 10]
0.25862986 0.5885626 -0.10898977 0.87290853 0.6873984 -1.1008288 0.58550656 0.22913915
0.2588043 -0.526944 -0.13609952 -0.5197219 0.2881727 -0.7653558 -0.20529698 1.0350066
-0.31350598 0.13441917 -0.40356207 0.6494701 0.0060654185 -0.107946575 -0.54286057 0.4809519
-0.8039029 0.27166614 -0.20826735 0.94138753 0.18055812 -0.40601507 -0.13143596 0.54809195
0.92654437 -0.5725057 0.2527763 -0.96498257 -0.6568801 -1.8426744 -0.036588456 0.51583
-0.55457646 0.7901861 -0.06517629 1.5380645 0.12944613 -0.109780245 1.0704591 1.0184704
-0.38213104 -0.063087456 0.32063144 -0.3618411 0.45946702 -0.7846692 -0.5520268 0.054254565
-0.9570223 -0.35941508 0.20899601 0.17588225 0.012702206 0.64688843 0.7157021 0.94724554
0.8844017 0.25374955 0.24412547 -0.34155762 1.6529176 0.5304399 -0.0702975 -0.01691778
-0.4818366 -0.2923463 -1.7733468 -0.24028294 -0.07108232 0.9376861 -1.859139 -0.40990838
-0.20942555 -1.2124685 0.30497542 -0.2926016 -0.4825289 -0.07159414 -1.2539706 -0.8628674
-0.80729395 0.80532384 0.27329692 0.8891051 -0.49977565 0.26231992 -0.031727746 0.04756112
0.69604784 0.08321991 1.06443 -0.95520556 0.41627857 -0.9134052 -1.4792686 -0.29911944
-0.4618877 -0.28000647 0.9150713 -1.407214 1.5192577 -0.29901212 -0.1063624 0.3552213
0.9628816 0.34170637 0.40825456 0.15398061 -0.76676273 0.72541225 -0.77476984 0.023728639
-0.4310002 0.15760836 0.88162315 0.10510933 -0.3986159 -0.46048823 0.016656158 -0.83531564
1.0242451 0.31016022 0.6165382 0.31160012 -1.0967226 0.2141954 -0.15570444 0.7626594
0.25182056 0.7457702 -0.5043386 -0.45023215 -0.40684742 0.8648984 -0.6677066 -0.6992056
0.88985467 -0.17808698 0.985951 0.5241735 -1.348267 1.0740502 0.41413954 -0.685931
0.42201674 0.8413983 -1.2362345 0.2498972 -0.77024424 -0.52232707 0.8409 -1.0130857
-0.0031491078 -1.2408063 -1.2508088 -0.24619146 -0.95132947 -0.11090764 0.9678757 0.8368876
0.08149809 0.6398828 0.1655808 0.8386323 0.59767115 -0.37558246 0.7388483 0.1599886
-0.8446253 -0.7834052 -0.009189142 -0.80411005 -1.177163 -0.11920678 0.6893412 -0.26914036
0.07750828 0.13468356 -0.0065322276 -0.046353158 0.12466279 -0.21271539 1.4682676 0.06407881
-0.7057524 -0.09012309 0.39628994 0.18867442 0.6278382 0.40762195 -0.26406795 0.5515006
0.29291576 0.6151661 0.9712949 0.17872505 0.236156 -0.29465234 0.52741 0.36895272
-0.4154283 0.11906735 -0.26685563 -0.6510937 -0.6262989 -0.1345294 -0.45312837 0.75276107
-0.99857855 -0.13144243 1.1316841 -0.19256635 -0.5833804 -0.48541266 0.20802039 0.63220644
-0.49718457 0.43995517 0.36250976 1.2634836 0.75791234 -0.079348356 0.8362494 0.5063679
-0.062635064 -0.8194031 0.18113849 -0.4738692 -0.3124881 -1.0736257 -0.54512435 -0.16092707
0.21600083 -1.0890584 0.04343756 0.41912538 -0.12580946 1.0319872 0.9019122 -0.3041001
-0.26344755 -1.0566698 -0.10098286 0.6797827 -0.6331852 -0.61191666 0.5462493 -0.96810675
00000000: 226b 843e 0aac 163f 0736 dfbd ef76 5f3f
00000010: 57f9 2f3f f5e7 8cbf c2e3 153f 74a3 6a3e
00000020: ff81 843e cde5 06bf ac5d 0bbe 7f0c 05bf
00000030: 5f8b 933e 5cee 43bf 5f39 52be 197b 843f
00000040: db83 a0be 2ea5 093e b09f cebe ac43 263f
00000050: 6bc0 c63b 1813 ddbd e9f8 0abf 543f f63e
00000060: 95cc 4dbf d317 8b3e 0944 55be c6fe 703f
00000070: 3ae4 383e 35e1 cfbe 2697 06be c14f 0c3f
00000080: 0332 6d3f bc8f 12bf e56b 813e 1909 77bf
00000090: 4b29 28bf c1dc ebbf c7dd 15bd 6f0d 043f
000000a0: b9f8 0dbf a349 4a3f 267b 85bd 4cdf c43f
000000b0: 878d 043e 77d4 e0bd ce04 893f 3d5d 823f
000000c0: aea6 c3be ff33 81bd ce29 a43e 3d43 b9be
000000d0: 433f eb3e 15e0 48bf a151 0dbf 093a 5e3d
000000e0: 6aff 74bf 4105 b8be 0d03 563e 7a1a 343e
000000f0: ea1c 503c 7b9a 253f 4138 373f af7e 723f
00000100: 2668 623f 76eb 813e 07fc 793e a4e0 aebe
00000110: ce92 d33f e9ca 073f 23f8 8fbd 2897 8abc
00000120: 49b3 f6be 6aae 95be 07fd e2bf bb0c 76be
00000130: 9b93 91bd 320c 703f 44f8 edbf 83df d1be
00000140: a773 56be 2b32 9bbf bd25 9c3e e0cf 95be
00000150: 070e f7be f39f 92bd 1c82 a0bf e1e4 5cbf
00000160: d1aa 4ebf b429 4e3f 93ed 8b3e 649c 633f
00000170: 98e2 ffbe cc4e 863e f4f4 01bd 73cf 423d
00000180: 3130 323f 336f aa3d 3e3f 883f 5a88 74bf
00000190: 7722 d53e ecd4 69bf ac58 bdbf 2f26 99be
000001a0: 8b7c ecbe 025d 8fbe 1d42 6a3f 971f b4bf
000001b0: 0977 c23f 1e18 99be 88d4 d9bd 91df b53e
000001c0: 697f 763f 23f4 ae3e be06 d13e 18ad 1d3e
000001d0: 904a 44bf 9eb4 393f 5157 46bf 9062 c23c
000001e0: 0fac dcbe 1664 213e 0eb2 613f 8f43 d73d
000001f0: 6217 ccbe 1dc5 ebbe 7f72 883c 3fd7 55bf
00000200: 771a 833f 52cd 9e3e 73d5 1d3f 0d8a 9f3e
00000210: 6861 8cbf 0a56 5b3e fc70 1fbe a53d 433f
00000220: a0ee 803e ccea 3e3f 561c 01bf d484 e6be
00000230: 4e4e d0be fb69 5d3f d2ee 2abf 23ff 32bf
00000240: 84cd 633f 6f5c 36be 4967 7c3f 3c30 063f
00000250: 0394 acbf 7a7a 893f 190a d43e 2d99 2fbf
00000260: 9412 d83e e165 573f ef3c 9ebf 0de5 7f3e
00000270: ba2e 45bf 3ab7 05bf 3945 573f cbac 81bf
00000280: 4361 4ebb bed2 9ebf 811a a0bf 9d19 7cbe
00000290: 548a 73bf 8b23 e3bd b4c6 773f 443e 563f
000002a0: 78e8 a63d 5ccf 233f 038e 293e 9bb0 563f
000002b0: fa00 193f 584c c0be 2a25 3d3f 0dd4 233e
000002c0: 5d39 58bf 3e8d 48bf 0e8e 16bc 28da 4dbf
000002d0: 47ad 96bf af22 f4bd aa78 303f c4cc 89be
000002e0: a9bc 9e3d 7dea 093e 4c0c d6bb cfdc 3dbd
000002f0: 344f ff3d 10d2 59be 31f0 bb3f c03b 833d
00000300: 30ac 34bf 7492 b8bd 84e6 ca3e de33 413e
00000310: 01ba 203f d3b3 d03e ea33 87be 252f 0d3f
00000320: 0ef9 953e 877b 1d3f c8a6 783f b303 373e
00000330: e1d2 713e acdc 96be 5704 073f 5fe7 bc3e
00000340: 05b3 d4be 95d9 f33d 4da1 88be 14ae 26bf
00000350: 2055 20bf 13c2 09be 7100 e8be f3b4 403f
00000360: d8a2 7fbf d898 06be 06db 903f 1d30 45be
00000370: 6b58 15bf 0288 f8be 4c03 553e 48d8 213f
00000380: fa8e febe ce41 e13e e19a b93e d5b9 a13f
00000390: 8b06 423f 6481 a2bd 7114 563f 54a1 013f
000003a0: d046 80bd 67c4 51bf 5e7c 393e fc9e f2be
000003b0: 71fe 9fbe 916c 89bf 458d 0bbf 11ca 24be
000003c0: 522f 5d3e 4466 8bbf 95eb 313d 9a97 d63e
000003d0: 32d4 00be 2818 843f b8e3 663f 02b3 9bbe
000003e0: 99e2 86be f540 87bf 1ad0 cebd 3d06 2e3f
000003f0: 6d18 22bf 92a6 1cbf fed6 0b3f d8d5 77bf

layer.0.bias f4 [80]
-1.8003255 -0.83606523 0.5334419 -3.7652495 -1.953929 -0.24304944 -0.19237953 -1.729505
-1.6202174 -0.4797427 -2.15859 -0.62367064 -0.81216484 -1.6483839 -1.2272758 -1.1865786
-1.7183121 -0.61692876 -1.5797563 -0.8563479 0.18793903 -2.1501105 -1.119553 -1.4327338
-1.2372658 -1.0659927 -1.8920765 -0.69879794 -0.30521852 -1.9164873 -0.997022 -1.3285699
-0.76014 -2.2845006 -1.5606308 -0.28980625 -0.7474558 -1.2700114 -0.76801497 -1.0929567
-1.6860064 -0.79824185 -1.8235208 -0.31798494 -0.49191558 -1.8316531 -1.220204 -1.347805
-0.6176993 -2.1215887 -1.5157005 -0.18553634 -1.2512863 -1.4840275 -0.20527455 -2.4769235
-0.7520629 -2.5096908 -0.25331107 -2.1722636 -0.83955085 -1.3608158 -0.9894594 -1.4309975
-0.92666686 -2.1529691 -1.8456849 -0.4625054 -1.2695929 -1.132899 -1.3938205 -1.4913098
-2.0043309 -0.66212904 -2.0403173 -0.26339123 -1.5959512 -1.4054273 -1.979266 -0.81930596
00000000: 1171 e6bf 5f08 56bf a68f 083f d9f9 70c0
00000010: 581a fabf f4e1 78be 24ff 44be 6b60 ddbf
00000020: 4963 cfbf d6a0 f5be 5726 0ac0 e1a8 1fbf
00000030: 09ea 4fbf 3efe d2bf 6017 9dbf cfe1 97bf
00000040: a7f1 dbbf 0bef 1dbf 7435 cabf 9e39 5bbf
00000050: 1773 403e 699b 09c0 834d 8fbf d263 b7bf
00000060: ba5e 9ebf 7372 88bf 902f f2bf 6ce4 32bf
00000070: 9a45 9cbe 754f f5bf d53c 7fbf 940e aabf
00000080: 8998 42bf 4235 12c0 c0c2 c7bf 7c61 94be
00000090: 4359 3fbf bc8f a2bf a19c 44bf 01e6 8bbf
000000a0: 0fcf d7bf 9459 4cbf 2169 e9bf ecce a2be
000000b0: 5cdc fbbe 9c73 eabf a52f 9cbf e084 acbf
000000c0: 8b21 1ebf 1cc8 07c0 7902 c2bf 3dfd 3dbe
000000d0: 262a a0bf 9df4 bdbf 7e33 52be ea85 1ec0
000000e0: 3287 40bf c69e 20c0 fdb1 81be 5e06 0bc0
000000f0: ceec 56bf 362f aebf 364d 7dbf ed2a b7bf
00000100: 0a3a 6dbf 3fca 09c0 673f ecbf 82cd ecbe
00000110: 0582 a2bf d602 91bf b668 b2bf 3de3 bebf
00000120: f546 00c0 4a81 29bf 8f94 02c0 37db 86be
00000130: 2148 ccbf 0be5 b3bf 9758 fdbf 09be 51bf
