storage/model/model.pt (torch, 174977 bytes, 30 tensors)

layer.0.weight f4 [80, 20]
0	0xbdf1c977	-0.118060045
1	0xbdb698a3	-0.08915832
2	0xbcba2756	-0.022723835
3	0xbe0e1414	-0.13874847
4	0x3e2ef6d5	0.17086346
5	0x3e9fe778	0.31231284
6	0x3dbb466f	0.091442935
7	0xbec14e75	-0.3775517
8	0xbd9306c1	-0.071790226
9	0x3e5f819d	0.21826787
10	0x3f872eb1	1.0561124
11	0x3eebe1c5	0.46070686
12	0xbe5fb5fa	-0.21846762
13	0xbeb08470	-0.34476042
14	0x3daf9616	0.085735485
15	0x3f3a477a	0.72765315
16	0xbe5da2bd	-0.21644111
17	0xbbe7cb90	-0.007073827
18	0x3e0de21b	0.13855784
19	0x3ecaa5d7	0.3957965
20	0x3bc4de7a	0.0060079666
21	0x3d2a1c54	0.041530922
22	0x3ec425e5	0.3831016
23	0xbea55fda	-0.3229969
24	0x3e4c6657	0.19960915
25	0xbe93b9e1	-0.28852752
26	0x3d0ff353	0.03514416
27	0xbd4c3cf1	-0.049862806
28	0xbd9158ca	-0.07097013
29	0x3ed0ae31	0.40757897
30	0x3d5fd10e	0.05464273
31	0x3ab379e0	0.0013692938
32	0xbe41df80	-0.18932915
33	0xbdbb5af1	-0.09148205
34	0xbe4d9f52	-0.20080307
35	0x3d17ac91	0.037029807
36	0x3c1022c3	0.00879735
37	0xbdc55ca4	-0.096368104
38	0x3c9e9604	0.019358642
39	0x3cb66027	0.022262646
40	0x3f4d778f	0.80260557
41	0x3e4cc795	0.1999801
42	0xbd1b0118	-0.03784284
43	0x3d09a8a5	0.033608098
44	0xbd546a27	-0.051859047
45	0x3ecd2f41	0.40075114
46	0xbe3961d8	-0.1810373
47	0x3a91b0fa	0.0011115365
48	0x3e87c224	0.26515305
49	0xbdbd3f00	-0.09240532
50	0xbea8d02e	-0.32971328
51	0xbf29f040	-0.6638222
52	0x3e231a97	0.15928112
53	0xbb591a88	-0.0033127386
54	0x3e4b4b04	0.19852835
55	0x3d3e790e	0.046502165
56	0x3d4abb6b	0.049495142
57	0x3ae3cf96	0.0017380591
58	0x3d003f5a	0.031310417
59	0x3d6ee7dc	0.058326587
60	0xbed33527	-0.4125149
61	0xbee9bce8	-0.45651937
62	0xbe4e200f	-0.20129417
63	0xbd8a3f11	-0.0675031
64	0x3e9a7033	0.30163726
65	0x3e678be3	0.22611956
66	0xbd4d3af1	-0.05010504
67	0xbe42fbd7	-0.19041382
68	0x3e90ada5	0.2825748
69	0xbe809c4e	-0.2511925
70	0xbf0f5f90	-0.5600519
71	0x3e8871d0	0.26649332
72	0xbe468a05	-0.19388588
73	0xbde7986a	-0.113083676
74	0x3e57d242	0.210763
75	0x3db6531f	0.08902573
76	0xbdb9c68a	-0.090710714
77	0x3deee3ea	0.11664565
78	0xbd6b1f1d	-0.05740272
79	0xbe0755bb	-0.13216297
80	0x3f4ad447	0.7923016
81	0x3c3db9fe	0.0115799885
82	0xbfd33eca	-1.6503537
83	0xbfb5eef4	-1.4213548
84	0xbecb03c9	-0.39651325
85	0x3f03d0bb	0.5149037
86	0x3fa24fb2	1.2680571
87	0x3e6af75b	0.22945921
88	0xbe8bad47	-0.27280638
89	0xbe7c8f52	-0.24664047
90	0x3f97a03b	1.1845773
91	0xbd96fb99	-0.07372207
92	0x400b43ab	2.1760051
93	0xbfe87d11	-1.8163167
94	0xbf44081a	-0.7657486
95	0x3ecf8b68	0.40536046
96	0x3e950e4b	0.29112467
97	0x3d7cbcce	0.061703496
98	0xbdb93913	-0.09044089
99	0x3dc0bc1b	0.09410878
100	0xbfd6fc69	-1.679578
101	0xbdb11167	-0.08645897
102	0xc02af347	-2.6710985
103	0xc0fa1930	-7.8155746
104	0x3ecd682d	0.40118542
105	0xbfa74124	-1.3066754
106	0x40bdf838	5.93655
107	0x3fac4e4b	1.3461393
108	0xc0922639	-4.567166
109	0x406e82c1	3.7267306
110	0x3f731747	0.94957393
111	0xbd97b6f8	-0.074079454
112	0x4000654e	2.0061831
113	0xbfe102f9	-1.7579032
114	0xbf53a213	-0.8266918
115	0x3e99d092	0.3004194
116	0x3e77b8a3	0.24191527
117	0x3d98210b	0.074281774
118	0xbdb3e93d	-0.08784721
119	0x3b6d70a2	0.0036230464
120	0x3e334597	0.17507015
121	0x3ea9ec20	0.33187962
122	0xbe349d92	-0.17638233
123	0x3c20339b	0.009777929
124	0x3dddf0f9	0.108369775
125	0xbe8d1d16	-0.27561253
126	0x3e04e60b	0.1297838
127	0x3d6f6372	0.058444448
128	0x3d7ec854	0.062202767
129	0x3eb04cfc	0.34433734
130	0x3ea0235f	0.31276986
131	0xbe533478	-0.20625484
132	0x3e4847dd	0.19558664
133	0x3e096d7f	0.13420676
134	0xbdb74b20	-0.08949876
135	0x3e1359c2	0.14389709
136	0x3d0fd672	0.03511662
137	0x3d7cabbf	0.061687227
138	0x3d33b2d5	0.04387172
139	0x3d78f724	0.060782567
140	0xbed57d3c	-0.4169711
141	0x3e76301c	0.2404179
142	0xbf612334	-0.8794434
143	0xbec17cad	-0.37790433
144	0xbbd43c10	-0.0064768866
145	0x3e11581c	0.14193767
146	0x3e81ec81	0.2537575
147	0xbb01a29f	-0.0019780768
148	0xbe0ae800	-0.13565063
149	0x3eb8bd15	0.36081758
150	0xbe450455	-0.19239934
151	0xbc3fda64	-0.011709783
152	0x3d8e0c31	0.06935919
153	0xbdef674a	-0.11689623
154	0xbefbaa06	-0.49153155
155	0xbe38fc60	-0.18065023
156	0xbe52b927	-0.20578443
157	0xbf1fc989	-0.62416893
158	0xbedb38c5	-0.4281675
159	0x3e3f7e16	0.18700442
160	0xbf0e1cb0	-0.55512524
161	0xbcc140ed	-0.02359053
162	0xbca81761	-0.02051896
163	0xbe9ae6ab	-0.3025411
164	0xbe72396b	-0.23654716
165	0x3e3ec8ce	0.18631288
166	0x3eabbccb	0.33542475
167	0xbe92fab7	-0.28706905
168	0x3cc9b74f	0.024623541
169	0x3e2cd652	0.16878632
170	0x3ec9a2bf	0.39381978
171	0x3ee3592d	0.44403973
172	0x3e94a2ba	0.290304
173	0x3d156e74	0.03648229
174	0xbdaf3af3	-0.085561655
175	0x3e6e31f0	0.23261237
176	0x3dd89684	0.105755836
177	0x3cf9fa78	0.03051494
178	0x3c93105e	0.01795214
179	0xbcd7f72f	-0.026362984
180	0xbdde6a21	-0.10860086
181	0xbef43284	-0.4769479
182	0xbf18fcf1	-0.5976096
183	0xbe8b00d4	-0.2714907
184	0xbe8ab7e1	-0.27093413
185	0x3e6c80cd	0.23096009
186	0x3ed10060	0.408206
187	0xbe12d7b7	-0.14340101
188	0x3d92d4da	0.071695045
189	0x3e8adbdd	0.27120867
190	0x3dbc71c9	0.0920139
191	0x3e9e6b4b	0.30941233
192	0x3ec2556d	0.379558
193	0xbe243ef1	-0.16039635
194	0xbdf4dc0b	-0.11956032
195	0xbe3ec66d	-0.18630381
196	0xbe81913c	-0.25306118
197	0xbe17fc81	-0.14842416
198	0xbd916608	-0.07099539
199	0x3c4dce14	0.01256134
200	0x3ee09751	0.43865445
201	0xbf469930	-0.77577496
202	0xc0e77185	-7.2326074
203	0x4051f483	3.2805488
204	0x3fd8049f	1.687641
205	0xc019c18f	-2.4024389
206	0x3c2430d1	0.010021404
207	0x40923630	4.5691147
208	0xbf899ebc	-1.0751567
209	0xbe891b6b	-0.2677873
210	0xbf197ebc	-0.59959006
211	0xbf2955b0	-0.66146374
212	0x3eab05d8	0.33402896
213	0xbe909e84	-0.28245938
214	0x3dbb1770	0.0913533
215	0xbf04aab8	-0.51822996
216	0xbae90c61	-0.0017780178
217	0x3d1c3064	0.038132086
218	0x3cc5b34f	0.024133353
219	0xbdba3f3e	-0.09094094
220	0x3f703ed5	0.93845874
221	0xbe88f3b7	-0.2674844
222	0xbebec019	-0.37255934
223	0x3e488be0	0.19584608
224	0x3e619def	0.22032903
225	0x3e015720	0.12630892
226	0xbc0b1cc2	-0.008490743
227	0x3eeb2c77	0.4593236
228	0x3dbf4654	0.09339586
229	0xbec8d19d	-0.39222422
230	0xbf31b42e	-0.6941556
231	0xbf5098d8	-0.8148322
232	0x3eb9a017	0.3625495
233	0xbeb27714	-0.34856474
234	0x3ca48906	0.02008487
235	0xbef606ae	-0.4805197
236	0x3dfd2efa	0.12362476
237	0xbcf879e8	-0.030331567
238	0xbc916d05	-0.01775218
239	0xbd65c88d	-0.056099463
240	0x3e241a4a	0.16025653
241	0xbe8a3e41	-0.2700062
242	0x3ced8d0c	0.02899792
243	0x3d10189d	0.035179723
244	0x3f0a7911	0.5409098
245	0x3f03ae04	0.514374
246	0xbdb6317b	-0.088961564
247	0x3f147b0a	0.5800024
248	0x3e075993	0.13217764
249	0x3e38fca7	0.18065129
250	0xbe59c448	-0.21266282
251	0xbc6e6523	-0.01455048
252	0xbe9078c3	-0.28217134
253	0xbf014fa3	-0.5051214
254	0xbd7a0968	-0.061044127
255	0xbe50b9fe	-0.2038345

layer.0.bias f4 [80]
0	0xc0040dee	-2.0633502
1	0xbd46a88b	-0.04850058
2	0xbe2ae721	-0.16689731
3	0xbf61583e	-0.8802527
4	0xbf8f61c9	-1.1201717
5	0xc0dd57b6	-6.916957
6	0xbd895523	-0.06705692
7	0xbfd8605c	-1.6904407
8	0xbe060077	-0.13086115
9	0xbf2eabbb	-0.6823079
10	0xc108464c	-8.517162
11	0xbea18763	-0.31548604
12	0xbf26e3e9	-0.65191513
13	0xbe6f4d8c	-0.23369426
14	0xbfb849be	-1.4397504
15	0xbdea50f4	-0.11441222
16	0xbe6189b0	-0.2202518
17	0xbf9d6e7c	-1.2299342
18	0xc0273bf4	-2.6130342
19	0xbd492c53	-0.049114536
20	0xc09444e1	-4.633408
21	0xbfb78bd4	-1.4339547
22	0xbee8b100	-0.4544754
23	0xc118351f	-9.512969
24	0xbfc4e5ed	-1.5382668
25	0xbdf07dcd	-0.117427446
26	0xc0c6e3a2	-6.215287
27	0xbf743f6d	-0.9540928
28	0xbd027cfb	-0.031857472
29	0xbf78bc44	-0.9716227
30	0xbd769af0	-0.060206354
31	0xc01936df	-2.393974
32	0xbe47a83c	-0.1949777
33	0xbf7834e3	-0.969557
34	0xbfafa3b8	-1.3721838
35	0xbd05de89	-0.03268293
36	0xbff26843	-1.8938068
37	0xbcc7618a	-0.024338502
38	0xbe37b45c	-0.17939895
39	0xbf602a30	-0.87564373
40	0xc02fe9d4	-2.7486467
41	0xbd232ba4	-0.03983654
42	0xc02aef79	-2.6708663
43	0xc003b754	-2.0580645
44	0xbf30f153	-0.6911823
45	0xbdf91223	-0.121616624
46	0xbeb58deb	-0.35459837
47	0xbe91303a	-0.28357106
48	0xbf026f85	-0.50951415
49	0xc1a002d7	-20.001387
50	0xc0fc33d0	-7.881325
51	0xbf5da706	-0.8658298
52	0xc035c480	-2.8401184
53	0x3c897d1f	0.016783295
54	0xbf99cf27	-1.2016343
55	0xc059ea11	-3.4049113
56	0xbe28264f	-0.16420864
57	0xbf0a9e0a	-0.541474
58	0xbe4c9136	-0.19977269
59	0xbf138537	-0.57625145
60	0xbc8a36d8	-0.016871855
61	0xbfb8a961	-1.442669
62	0xc0388bf7	-2.8835428
63	0xc00adf46	-2.1698775
64	0xbe95c3f9	-0.29251078
65	0xbeaf4a6e	-0.34236473
66	0xbe82a09e	-0.25513166
67	0xbf56d6f7	-0.8392176
68	0xbf47be86	-0.7802509
69	0xbe4cf4fe	-0.20015332
70	0xc03dc68d	-2.9652436
71	0xbf5d5e96	-0.8647245
72	0xbf0431f5	-0.5163873
73	0xc1189c0f	-9.5381
74	0xc0950d7c	-4.657896
75	0xbfc8b282	-1.5679476
76	0xbea7cb4c	-0.3277229
77	0xbe9474ae	-0.2899527
78	0xbd2c3c48	-0.042049676
79	0xc03853f4	-2.880124

layer.1.weight f4 [10, 40]
0	0xbdf7c412	-0.12097944
1	0xbc43dc27	-0.011954344
2	0x3df4c102	0.11950876
3	0xbe8d23c4	-0.2756635
4	0x3d013636	0.03154584
5	0x3db8b238	0.090183675
6	0xbdd37fa9	-0.103270836
7	0x3e8191a1	0.2530642
8	0xbd136362	-0.03598345
9	0x3e5f74c2	0.21821883
10	0xbcc68bb5	-0.02423654
11	0x3e9a2db0	0.30112982
12	0x3d21944b	0.039448064
13	0x3f0d45ef	0.55184835
14	0xbe4d8f74	-0.20074254
15	0xbdc0495c	-0.09388992
16	0x3e054462	0.13014367
17	0xbe35b3d8	-0.17744386
18	0x3cc38344	0.023866303
19	0xbca3488c	-0.019932054
20	0x3d699a87	0.057032134
21	0x3d885a62	0.06657864
22	0x3e60dd8a	0.2195951
23	0x3db48ea6	0.088162705
24	0x3dea7e1b	0.11449834
25	0xbeae5b10	-0.3405385
26	0x3d7b5a35	0.061365325
27	0xbde3f93d	-0.11131523
28	0xbde3023e	-0.11084412
29	0x3d636172	0.055512853
30	0x3c7343d4	0.014847714
31	0x3ed4d19b	0.41566166
32	0xbe05b5f0	-0.13057685
33	0x3d9091fe	0.07059096
34	0xbda8aeda	-0.08236475
35	0xbdee3dbe	-0.1163287
36	0x3e0186ed	0.12649126
37	0xbe9c3fa2	-0.30517298
38	0xbb0c2b2f	-0.0021388044
39	0x3d90b34b	0.070654474
40	0x3de49a14	0.111622006
41	0x3c8b2c5f	0.016988931
42	0xbe40ce92	-0.188288
43	0xbcaf0ebb	-0.021369329
44	0x3e57499f	0.21024178
45	0xbe683dc0	-0.22679806
46	0x3e002ad7	0.12516342
47	0xbc99d206	-0.018776905
48	0x3e50b549	0.20381655
49	0x3e0a5b32	0.13511351
50	0xbdf7c3c6	-0.12097888
51	0xbe97928b	-0.2960399
52	0xbc417b84	-0.011809234
53	0xbd3f9900	-0.04677677
54	0x3de62587	0.112376265
55	0xbe2f7d28	-0.17137587
56	0x3ceddb20	0.029035151
57	0x3bed1e72	0.0072362954
58	0x3cfd9aab	0.03095754
59	0x3e1e0121	0.15430118
60	0xbd60aa43	-0.054849874
61	0x3ecd7471	0.401279
62	0xbde53833	-0.1119236
63	0x3e7b2e96	0.2452949
64	0xbeb93f25	-0.36180988
65	0x3deb85a4	0.11500099
66	0xbdf5dbc1	-0.12004805
67	0x3e02c308	0.12769711
68	0xbc91a927	-0.017780853
69	0xbe9a5d2e	-0.30149215
70	0xbcd5160b	-0.026011487
71	0xbed61130	-0.41809988
72	0xbe11d861	-0.14242698
73	0x3d54b55b	0.051930767
74	0xbe72261b	-0.23647349
75	0xbe3c9ba4	-0.18418747
76	0xbecfa7db	-0.4055775
77	0x3ec1dcfd	0.37863913
78	0xbd9df69f	-0.07713055
79	0xbe425d74	-0.18980962
80	0x3e7a0900	0.24417496
81	0x3c6eae1b	0.014567877
82	0x3ea648fc	0.32477558
83	0xbc848bc1	-0.016179921
84	0x3dfeda39	0.124439664
85	0xbe2d1449	-0.1690227
86	0x3e2bcb69	0.16776814
87	0xbe392ae9	-0.18082775
88	0xbc9af30f	-0.018914727
89	0xbdf2f9a1	-0.11864019
90	0x3eae0dca	0.33994895
91	0x3e7d50c1	0.24737836
92	0x3c357ae5	0.011076664
93	0x3e87272b	0.2639707
94	0xbdab9bb3	-0.08379307
95	0x3e2215df	0.15828656
96	0x3d91c01b	0.07116719
97	0xbc944797	-0.018100543
98	0x3ceab2d9	0.028649734
99	0x3db0a63a	0.08625455
100	0x3d6b7504	0.05748464
101	0xbebf8283	-0.3740426
102	0x3de0fabf	0.10985326
103	0xbd8e2291	-0.06940187
104	0x3c3d1d64	0.011542652
105	0x3da4dd99	0.08050079
106	0xbe0264af	-0.1273372
107	0xbe614582	-0.21999171
108	0x3d542530	0.051793277
109	0xbdc6a92d	-0.097002365
110	0xbc256a47	-0.010096139
111	0x3e664e1e	0.22490737
112	0xbde1e5b9	-0.11030144
113	0x3dc5e67a	0.096631005
114	0x3dd0af77	0.10189717
115	0x3d933d75	0.071894564
116	0x3e0e39f4	0.13889295
117	0x3e346396	0.17616114
118	0x3a8e0085	0.0010833895
119	0xbdad2b5f	-0.08455538
120	0x3dd972e6	0.10617618
121	0x3d061bb0	0.03274125
122	0xbee17c4a	-0.44040138
123	0x3dd4e859	0.10395879
124	0xbe806b8a	-0.25082046
125	0x3e4e170a	0.20125976
126	0xbb1e9e48	-0.002420323
127	0xbe057fbc	-0.13037008
128	0x3db327d7	0.08747833
129	0xba7ddb50	-0.0009683864
130	0x3e91840c	0.28421056
131	0xbd62e436	-0.05539342
132	0x3da428f0	0.08015621
133	0x3d9dfbf4	0.07714072
134	0xbd68cd88	-0.056836635
135	0xbe070517	-0.13185535
136	0xbe304a66	-0.17215881
137	0xbd571a2e	-0.0525152
138	0x3e00ccf4	0.12578183
139	0x3d6707af	0.056403812
140	0xbe5f0c69	-0.21782078
141	0x3dacd84e	0.08439694
142	0x3dd948ae	0.10609566
143	0xbe117744	-0.14205652
144	0xbed97fed	-0.42480412
145	0xbe4d285b	-0.20034926
146	0xbe0ee008	-0.13952649
147	0x3e25b205	0.1618119
148	0xbda0b7e1	-0.07847572
149	0xbdeb3199	-0.114840694
150	0xbd57b20c	-0.052660033
151	0x3c1c82bd	0.009552655
152	0x3e2df1f4	0.16986829
153	0x3d29bfdc	0.041442737
154	0xbd570594	-0.052495554
155	0x3e605fd0	0.2191155
156	0xbcd2c971	-0.02573082
157	0x3e847e85	0.25877777
158	0x3d2c6a9f	0.04209387
159	0x3dbcb79e	0.0921471
160	0x3cc019e8	0.023449853
161	0x3dc1bc21	0.09459711
162	0xbd7b29a4	-0.06131901
163	0x3d31a142	0.043366678
164	0x3cec5225	0.028847763
165	0xbeb05133	-0.3443695
166	0xbe8a6bed	-0.27035466
167	0x3de40d90	0.11135399
168	0x3db6c3de	0.089240775
169	0x3d64263b	0.055700522
170	0xbd50aa6d	-0.05094378
171	0xbe343bde	-0.17600963
172	0x3dad61bf	0.08465909
173	0xbe0059d1	-0.12534262
174	0x3ddd51a1	0.10806585
175	0xbc82463b	-0.01590263
176	0xbdb0b492	-0.08628191
177	0xbcdb9bef	-0.026807753
178	0x3e4c4ddb	0.19951575
179	0x3ddb594e	0.10710393
180	0xbcf7a33e	-0.030229207
181	0xbef6423a	-0.48097402
182	0xbd805040	-0.062653065
183	0x3e1a8419	0.15089454
184	0x3f0ad833	0.54236144
185	0xbe9e1b51	-0.30880216
186	0x3b7eec89	0.003889831
187	0x3d291ecf	0.041289147
188	0xbdc08b1c	-0.09401533
189	0x3d7bb4e5	0.06145181
190	0xbd9ccc57	-0.07656162
191	0x3ec5151d	0.3849267
192	0x3d6ead7e	0.058270924
193	0xbe087a01	-0.13327791
194	0xbe6cce08	-0.2312547
195	0xbe0071d6	-0.12543425
196	0x3c10c2d6	0.008835515
197	0xbdaf510a	-0.08560379
198	0xbe2df127	-0.16986524
199	0xbdfeaa0b	-0.12434777
200	0x3d570085	0.05249073
201	0x3dfdc9e6	0.12392025
202	0xbe986162	-0.29761797
203	0xbcdd8464	-0.027040668
204	0xbd63f56b	-0.05565397
205	0xbeae2457	-0.340121
206	0x3dc1e251	0.094669946
207	0x3dde8de6	0.10866909
208	0xbe438a17	-0.19095646
209	0xbd93bca8	-0.07213718
210	0xbc89a1d0	-0.016800791
211	0xbe1c9c05	-0.15293892
212	0x3e244044	0.1604014
213	0xbed8ec63	-0.4236785
214	0xbe6078a4	-0.21921021
215	0x3d9da70c	0.07697877
216	0x3d6028a8	0.054726273
217	0xbe8538f2	-0.26020008
218	0xbd8fccf9	-0.07021517
219	0xbdd37efc	-0.10326955
220	0xbd8bc5f7	-0.06824868
221	0x3e9bf6d6	0.30461758
222	0x3e09d8e4	0.13461643
223	0x3d00d52e	0.031453304
224	0xbe742f98	-0.2384628
225	0x3efec84b	0.49762186
226	0xbd8c222f	-0.068424575
227	0x3e846d87	0.25864813
228	0xbe40b532	-0.1881912
229	0x3c88f447	0.016718043
230	0xbdf8b9be	-0.121448025
231	0xbde96a21	-0.113971956
232	0xbddb7b01	-0.107168205
233	0x3d779e61	0.060453776
234	0x3e33f50d	0.17573948
235	0xbe21e7ba	-0.15811053
236	0xbe47a01d	-0.19494672
237	0x3dd09f09	0.101865835
238	0x3e12236c	0.14271325
239	0x3e919d9f	0.28440568
240	0x3c235aa0	0.009970337
241	0x3d98a817	0.074539356
242	0x3dd0fcd1	0.10204471
243	0x3d3a4abe	0.045481436
244	0xbdb6aa0d	-0.08919153
245	0x3d2e9085	0.042618293
246	0x3e0b1df2	0.13585642
247	0xbe301fd2	-0.17199638
248	0xbd4fc1e9	-0.050722037
249	0x3df6b577	0.120463304
250	0x3c79b447	0.015240735
251	0x3e6fd63b	0.23421566
252	0x3cf7caa5	0.030247996
253	0xbe14c700	-0.14529037
254	0x3de3e7d1	0.111282
255	0xbd8a311e	-0.067476496

layer.1.bias f4 [10]
0	0x3d837c07	0.06420141
1	0x3dc5774d	0.096418954
2	0x3d07a570	0.033116758
3	0x3d16c5e3	0.036809813
4	0x3d865b59	0.06560392
5	0x3b9aa958	0.0047198944
6	0x3c84d56c	0.016215049
7	0xbcc6ffb7	-0.024291856
8	0x3c2511e5	0.010075067
9	0xbdda9720	-0.10673356

layerz.0.weight f4 [80, 10]
0	0xbe3915b1	-0.18074681
1	0x3a90e691	0.0011055042
2	0xbf23745f	-0.63849443
3	0x3e554858	0.20828378
4	0x3f1799ff	0.59219354
5	0x3f450592	0.76961625
6	0x3da008a4	0.07814148
7	0xbf5244e3	-0.8213636
8	0x3f4e46ef	0.80576986
9	0x3ef7c904	0.4839555
10	0xbd879a87	-0.066212706
11	0xbe2dba61	-0.16965629
12	0xbdf8c6ef	-0.121473186
13	0xbd0a15a9	-0.033712063
14	0xbe6cdfeb	-0.23132293
15	0xbe074e70	-0.13213515
16	0x3e16378e	0.1466963
17	0x3d2862bc	0.041109785
18	0x3da0d7b2	0.078536406
19	0x3ce93f06	0.028472435
20	0x3df5e023	0.12005641
21	0x3d0a92f9	0.03383157
22	0x3e75046e	0.23927471
23	0x3cae66f8	0.021289334
24	0x3dc5ec99	0.09664268
25	0xbdd9189c	-0.10600397
26	0x3d5c2c61	0.05375326
27	0xbb20d7cb	-0.0024542685
28	0x3db589c9	0.08864171
29	0x3e0ef0cc	0.13959044
30	0xbf10b9d6	-0.56533563
31	0xbf8a3111	-1.0796224
32	0x3da24062	0.07922436
33	0xbf19ab06	-0.60026586
34	0x3ebe3d26	0.37156028
35	0xbe2ee032	-0.17077711
36	0xbeb4d307	-0.3531725
37	0x3d6725f7	0.05643269
38	0x3e61bbe9	0.22044338
39	0xbf97e52f	-1.1866816
40	0xbe8d04a1	-0.27542594
41	0x3d3e2244	0.046419397
42	0x3e8615ce	0.2618851
43	0x3d9e765c	0.07737419
44	0xbdff4a3e	-0.124653324
45	0xbcec8161	-0.028870286
46	0xbe256443	-0.16151528
47	0xbdeae06e	-0.11468588
48	0x3d993510	0.07480824
49	0x3cf45798	0.029826924
50	0x3e7eaffd	0.24871822
51	0xbf533501	-0.8250275
52	0x3e05ba3a	0.13059321
53	0xbf659fe1	-0.8969708
54	0x3e4b89d5	0.19876797
55	0xbd247918	-0.040154546
56	0xbd835cc1	-0.06414176
57	0xbdfcbc3d	-0.12340591
58	0x3e650302	0.22364429
59	0xbf569560	-0.8382168
60	0xbf1196ee	-0.56870925
61	0xbe100a47	-0.1406642
62	0xbdf94865	-0.12172011
63	0x3d3b6e2e	0.045759372
64	0xbee8a581	-0.4543877
65	0xbf0f8ee3	-0.560774
66	0xbe3172b4	-0.17328912
67	0x3d3527e9	0.044227514
68	0x3dae970b	0.08524903
69	0x3e93095d	0.2871808
70	0x3f6cc6e3	0.9249098
71	0xbd63a468	-0.055576712
72	0xbee15efe	-0.44017786
73	0xbeb87ecb	-0.36034235
74	0x3e226464	0.15858608
75	0x3e3a2ded	0.18181582
76	0xbec388c3	-0.38190278
77	0xbc21e033	-0.009880113
78	0x3f1f592c	0.6224544
79	0x3ed9905b	0.42492947
80	0xbd63a4ae	-0.055576973
81	0x3e08f5b3	0.13374977
82	0xbe1c97af	-0.15292238
83	0xbdf50f70	-0.11965835
84	0x3e7ee21c	0.24890941
85	0x3e494eda	0.19658986
86	0xbdc028db	-0.093827926
87	0xbc42b4c2	-0.011883916
88	0xbcb5fd15	-0.022215405
89	0x3e415319	0.18879355
90	0x3f03d6c0	0.5149956
91	0x3f85da8c	1.045732
92	0xbfc25ae1	-1.5183984
93	0xbf9e986d	-1.2390267
94	0xc010e2f6	-2.2638526
95	0xbee5639f	-0.44802567
96	0x3e73a4fc	0.23793405
97	0x3f010a87	0.5040669
98	0xbefc2ce4	-0.49253
99	0xbf7230b8	-0.9460559
100	0xbeb8a39b	-0.3606232
101	0xbeb2b6d5	-0.34905115
102	0x3d539687	0.051657226
103	0x3d3c20bc	0.045929655
104	0x3dfef014	0.12448135
105	0x3d78a318	0.060702413
106	0x3de179ed	0.110095836
107	0x3d87acde	0.06624769
108	0xbacf88c5	-0.0015833607
109	0xbe11d411	-0.14241053
110	0x3eddc15c	0.43311584
111	0x3eff8f82	0.49914175
112	0x3ba8214b	0.005130922
113	0xbdcfe0ef	-0.101503246
114	0xbec35e07	-0.38157675
115	0x3e10928a	0.141184
116	0xbe64a92f	-0.22330163
117	0x3dfeafc4	0.124358684
118	0xbcbe3823	-0.023220127
119	0xbe42d46d	-0.19026347
120	0x3da5d128	0.08096534
121	0xbe759dc9	-0.23985972
122	0xbe5d98fa	-0.21640387
123	0x3d94d294	0.07266727
124	0xbb9e36f3	-0.004828328
125	0x3dcb619b	0.09930726
126	0x3de4f9bb	0.11180445
127	0x3dbee224	0.09320477
128	0x3e31c0e4	0.17358738
129	0x3e573ee5	0.21020086
130	0xbf863c24	-1.0487103
131	0x3e1016da	0.14071217
132	0xbeca03f8	-0.39456153
133	0x3d9da819	0.07698078
134	0xbf09deaa	-0.53855383
135	0x3dff2da7	0.12459879
136	0x3e358a15	0.17728455
137	0x3e235a46	0.15952405
138	0x3db235a0	0.087016344
139	0xbe2e8f3e	-0.1704683
140	0x3d01dad2	0.031702824
141	0x3be51865	0.0069914334
142	0x3d2d6a6c	0.04233782
143	0xbe8efc8b	-0.2792705
144	0x3d437b5f	0.047725078
145	0xbdc5ed51	-0.09664405
146	0x3eaa18d9	0.33222082
147	0x3de3eeb2	0.11129512
148	0xbe88aca9	-0.2669423
149	0x3dbc59f4	0.09196845
150	0xbe5c2b81	-0.2150097
151	0xbe2761cc	-0.163459
152	0xbc043534	-0.008069325
153	0x3db84ae5	0.0899866
154	0xbe1c9b6a	-0.15293661
155	0x3df2a87c	0.11848542
156	0xbde9bfbd	-0.11413524
157	0xbe9eebd3	-0.31039295
158	0x3e9cd398	0.30630183
159	0x3eb069a7	0.34455606
160	0x3dc2e1c7	0.0951572
161	0xbe6eb5bd	-0.23311515
162	0xbd178dc9	-0.03700045
163	0xbbb74817	-0.0055933106
164	0xbd2f365c	-0.04277645
165	0x3dbb7f71	0.09155167
166	0x3ea772a2	0.32704645
167	0xbe56f875	-0.20993216
168	0xbd69805f	-0.05700719
169	0x3d50f873	0.05101819
170	0xbea4bbea	-0.32174617
171	0x3e3f1cd7	0.18663345
172	0xbe0f48e8	-0.13992655
173	0x3e87187e	0.26385874
174	0x3d1aea0b	0.037820857
175	0x3d4af08e	0.049545817
176	0xbef330ec	-0.47498262
177	0x3ede2fda	0.43395883
178	0xbcf8dd35	-0.030378917
179	0xbda5be7e	-0.08092974
180	0xbe33f62d	-0.17574377
181	0x3e6f3720	0.23360872
182	0x3d49151b	0.049092393
183	0xbd8acaa6	-0.06776933
184	0x3e1e81b0	0.1547916
185	0x3d1eb072	0.03874249
186	0x3ddd3311	0.10800756
187	0xbe840fbb	-0.2579325
188	0xbcaabb36	-0.020841222
189	0xbe0e0169	-0.13867725
190	0x4004541d	2.0676339
191	0xbe518c21	-0.20463611
192	0xbf310c18	-0.6915908
193	0xbf403004	-0.75073266
194	0x3ed99077	0.4249303
195	0x3f4e945e	0.8069514
196	0xbf701ee4	-0.93797135
197	0x3f37f65b	0.71860284
198	0x3fa1ce86	1.2641151
199	0x3f88c9a4	1.0686536
200	0xc0270795	-2.6098378
201	0x3e3625ed	0.17787905
202	0xbeabab71	-0.33529237
203	0xbe02f657	-0.12789284
204	0xbf0c5452	-0.5481616
205	0xbef300a1	-0.47461417
206	0xbf678a34	-0.90445256
207	0xbcec352d	-0.02883395
208	0x3c96ef5b	0.01842468
209	0x3ee7ea0b	0.45295748
210	0x3ee5e864	0.44903862
211	0x3b965977	0.0045883018
212	0x3deb32b6	0.11484282
213	0xbd74744f	-0.059681233
214	0xbd791cd0	-0.060818493
215	0x3e082a1e	0.13297316
216	0xbdcaa8fe	-0.09895514
217	0xbd284c66	-0.041088484
218	0x3dd82380	0.10553646
219	0x3e0a8c9c	0.135302
220	0xbdb61117	-0.088899784
221	0x3eacc98b	0.33747515
222	0xbe1a1ebb	-0.15050785
223	0xbcbeeb13	-0.023305451
224	0x3defb504	0.11704448
225	0xbd316dc2	-0.043317564
226	0xbe97b8ae	-0.29633087
227	0x3b7e22c6	0.003877805
228	0x3d29d45d	0.04146229
229	0xbd3dd591	-0.04634625
230	0x3dff5c3a	0.12468763
231	0xbf3b297e	-0.7311019
232	0x3df7263f	0.12067842
233	0x3d2becbc	0.041973814
234	0xbcbf68e3	-0.023365444
235	0x3e4bdc35	0.19908221
236	0x3e8bb7c1	0.2728863
237	0x3d0c232c	0.03421323
238	0xbe99290e	-0.29914135
239	0x3e02097e	0.12698933
240	0x3db659cb	0.089038454
241	0xbe8f787a	-0.28021604
242	0xbdd9ac25	-0.10628537
243	0x3e11dd11	0.14244486
244	0xbdd6b996	-0.104846165
245	0xbdfb0adf	-0.12257933
246	0xbdda0db6	-0.106471464
247	0xb9bfaef9	-0.00036560724
248	0x3d2745c0	0.040838003
249	0xbebdd8cc	-0.37079465
250	0x3cbac3a7	0.022798372
251	0x3e59c73c	0.21267408
252	0x3e3ef437	0.18647848
253	0xbf01f199	-0.50759274
254	0xbcbbf116	-0.022942107
255	0xbc419410	-0.011815086

layerz.0.bias f4 [80]
0	0xc0347e31	-2.820202
1	0xbdac5cfd	-0.084161736
2	0xbe924e40	-0.28575325
3	0xbfa15f2a	-1.2607167
4	0xbdf62d31	-0.12020338
5	0xbf9ebe07	-1.2401742
6	0xbf1e781a	-0.6190201
7	0xbf50ad54	-0.8151448
8	0xbd37259d	-0.044713605
9	0xc08af086	-4.341861
10	0xbe70776e	-0.23483059
11	0xbf7a91d6	-0.9787878
12	0xbe7b2073	-0.24524097
13	0xbf888268	-1.0664797
14	0xbebdbef4	-0.37059748
15	0xbea65596	-0.32487172
16	0xbe7a52a7	-0.24445592
17	0xbf51d639	-0.819675
18	0xbe275248	-0.16339982
19	0xc02f7b0b	-2.741885
20	0xc027c8e0	-2.6216354
21	0xbe38eeef	-0.18059896
22	0xbe9342bc	-0.28761852
23	0xbf381302	-0.71904004
24	0xbe12d0dd	-0.14337488
25	0xbf6997a5	-0.91247016
26	0xbf80504d	-1.0024506
27	0xbe506157	-0.20349632
28	0xc0500135	-3.2500737
29	0xbd81497b	-0.063128434
30	0xbf2467ce	-0.64220893
31	0xbeacb719	-0.33733442
32	0xbf409ad3	-0.75236243
33	0xbe2ecfe9	-0.17071499
34	0xbe2f6c3f	-0.17131136
35	0xc0815be5	-4.0424676
36	0xbec98c3a	-0.39364797
37	0xbedfe352	-0.4372812
38	0xbe92421b	-0.2856606
39	0xbf918cd2	-1.13711
40	0xc0715ab5	-3.7711613
41	0xbeecb715	-0.4623343
42	0xbdd91954	-0.10600534
43	0xbf58c155	-0.8467
44	0xbe02c8c6	-0.12771901
45	0xbf9efd75	-1.2421099
46	0xbfc9fa89	-1.5779582
47	0xbde1b189	-0.1102019
48	0xc00647aa	-2.098124
49	0xbe9fbc19	-0.31198195
50	0xbf0cf91d	-0.55067617
51	0xc0149047	-2.321306
52	0xbf1249be	-0.5714377
53	0xbf51a9c5	-0.8189967
54	0xbe0ddac3	-0.13852982
55	0xc058add8	-3.3856106
56	0xbe4cf4b4	-0.20015222
57	0xbf85912b	-1.0434927
58	0xbe0476ea	-0.12935987
59	0xc0db8fd7	-6.8613086
60	0xbf599d2e	-0.8500546
61	0xbe47961b	-0.19490854
62	0xc0280d62	-2.6258168
63	0xbf3b05c2	-0.7305566
64	0xbfbd5ecb	-1.4794554
65	0xbf8ab4de	-1.0836446
66	0xc053c6d7	-3.3090112
67	0xbeee6405	-0.46560684
68	0xbe1e7af0	-0.15476584
69	0xc08ff1ce	-4.498267
70	0xbfc76b77	-1.5579671
71	0xbdc7fda1	-0.09765173
72	0xc0439433	-3.0559204
73	0xbda10f03	-0.078641914
74	0xbff50806	-1.9143074
75	0xbdad5d91	-0.08465112
76	0xbda461bb	-0.08026453
77	0xc023fc70	-2.5622826
78	0xc03050f3	-2.7549407
79	0xbd53cbb3	-0.051707935

layerz.1.weight f4 [10, 40]
0	0x3dcdb885	0.1004496
1	0xbe07e758	-0.13271844
2	0xbd15de9a	-0.036589243
3	0xbde47d03	-0.111566566
4	0xbd159dbb	-0.036527377
5	0xbdfe04ed	-0.12403283
6	0xbc79808b	-0.015228401
7	0x3ddae06b	0.106873356
8	0x3dac3839	0.08409161
9	0x3e816879	0.2527502
10	0x3d7bd24a	0.061479844
11	0xbe5e3ba6	-0.21702442
12	0xbdf4d579	-0.11954779
13	0xbe32a495	-0.17445596
14	0xbd133ece	-0.035948567
15	0x3e0a6296	0.1351417
16	0xbcabde92	-0.020980153
17	0xbe46150e	-0.19343969
18	0xbe3276f2	-0.17428187
19	0x3cf23da0	0.0295704
20	0xbe81a957	-0.2532451
21	0xbe1872da	-0.14887562
22	0xbd1683a6	-0.036746643
23	0xbd9b1e91	-0.075741895
24	0xbe532720	-0.20620394
25	0xbe361270	-0.17780471
26	0xbd1bc312	-0.03802783
27	0xbe3e62e1	-0.18592407
28	0x3d582d0a	0.052777328
29	0xbed506fd	-0.41606894
30	0x3e3491aa	0.17633691
31	0xbe9c3780	-0.30511093
32	0xbeb3232a	-0.34987766
33	0xbe81d8c5	-0.25360695
34	0xbd4ad0eb	-0.049515646
35	0x3c94c01d	0.018158013
36	0xbdf92e2e	-0.12167011
37	0xbe5752df	-0.21027707
38	0xbe11665a	-0.141992
39	0x3e6a914e	0.22906992
40	0xbea3bab7	-0.3197839
41	0xbd82fa36	-0.0639538
42	0xbdb08993	-0.0861999
43	0x3e227b64	0.15867382
44	0xbdf14c0f	-0.11782085
45	0xbd961642	-0.07328464
46	0xbe7ec477	-0.24879633
47	0xbe125241	-0.1428919
48	0xbe223e11	-0.15843989
49	0xbeaadee0	-0.33373165
50	0x3e2efae7	0.17087899
51	0x3ce89dae	0.0283955
52	0x3d8e4362	0.06946446
53	0xbe575847	-0.21029769
54	0xbe452110	-0.19250894
55	0x3ccd2942	0.025044087
56	0x3e15a5f9	0.14614095
57	0xbc308b91	-0.010775463
58	0x3e0fb1dc	0.14032692
59	0xbe3e8753	-0.1860631
60	0xbe9a31fb	-0.30116257
61	0xbc863ac9	-0.016385453
62	0x3e7f911b	0.24957697
63	0xbd5cd6c3	-0.05391575
64	0xbe3395f9	-0.17537679
65	0x3ebea3a6	0.3723423
66	0x3e2acfc5	0.1668082
67	0xbe8611eb	-0.26185545
68	0xbd80747f	-0.0627222
69	0xbe5f76a2	-0.21822599
70	0xbe806aa1	-0.2508135
71	0x3e746f0f	0.2387049
72	0x3dfdfdff	0.124019615
73	0xbe88f138	-0.26746535
74	0x3e0a2aad	0.13492842
75	0xbe63cf45	-0.22247036
76	0x3d3594f0	0.04433149
77	0xbe1b2aa7	-0.1515299
78	0x3e39f990	0.18161607
79	0xbe0d8cc2	-0.13823226
80	0xbd3724d6	-0.044712864
81	0xbe267a60	-0.1625762
82	0x3cfd2d70	0.030905455
83	0xbcee05c4	-0.029055484
84	0x3e264e30	0.16240764
85	0xbe1141ec	-0.14185303
86	0xbcc7fed0	-0.024413496
87	0x3e5f7099	0.21820296
88	0x3d827001	0.06369019
89	0xbe1a4853	-0.15066652
90	0x3e77933a	0.24177256
91	0xbdd17daf	-0.1022905
92	0xbe6c3d47	-0.2307025
93	0x3db1b97c	0.086779565
94	0x3bb43a84	0.0055001397
95	0xbe12e1c7	-0.1434394
96	0x3da240ef	0.07922541
97	0xbec6054e	-0.38675922
98	0x3dea900c	0.11453256
99	0xbdd8d660	-0.10587764
100	0x3e772eac	0.24138898
101	0xbdc6d5a9	-0.09708721
102	0x3dbceffe	0.092254624
103	0xbd6b5e26	-0.057462834
104	0x3e0ac714	0.13552505
105	0x3d0bc46d	0.034122873
106	0xbef5c82a	-0.48004276
107	0x3dcb9996	0.099414036
108	0xbc112109	-0.008857974
109	0xbe2284bd	-0.15870948
110	0xbdaf0d5d	-0.08547471
111	0x3ea3cbdf	0.3199148
112	0x3e2fc02d	0.17163153
113	0x3ed2821f	0.411149
114	0x3dc94fd2	0.09829678
115	0x3d31e5f4	0.04343219
116	0xbe3ad074	-0.18243581
117	0x3daee201	0.085392006
118	0x3bc44c28	0.005990524
119	0x3e14e90b	0.14542024
120	0xbdbf13d5	-0.093299545
121	0x3e486220	0.19568682
122	0xbdc1a6c9	-0.0945564
123	0xbe1f1fa1	-0.15539409
124	0x3d393b9f	0.045222875
125	0x3e805160	0.25062084
126	0x3d8866de	0.06660245
127	0xbe5cbbe4	-0.2155605
128	0x3dd582f3	0.10425367
129	0x3d9ab787	0.07554536
130	0xbe2010fe	-0.15631482
131	0x3dcf0dc2	0.10110046
132	0xbcba8584	-0.022768743
133	0xbd593f07	-0.053038623
134	0x3e1b02b6	0.15137753
135	0x3d55ed98	0.05222854
136	0x3d94ffbb	0.07275339
137	0x3eb0ddf1	0.34544328
138	0xbb3fca7a	-0.0029264973
139	0xbd6181ff	-0.055055615
140	0x3ea91206	0.33021563
141	0xbe37e302	-0.1795769
142	0xbd67db1e	-0.05660545
143	0xbd024efd	-0.03181361
144	0x3db9065c	0.09034416
145	0xbe99896f	-0.29987666
146	0xbd381c7d	-0.044949044
147	0xbdd62f33	-0.10458221
148	0xbe406b54	-0.18790942
149	0xbe69f7b4	-0.22848397
150	0xbd821993	-0.06352534
151	0xbb24f7b6	-0.0025172061
152	0xbdb14030	-0.08654821
153	0x3e0bd1df	0.13654278
154	0x3da9c76b	0.08289989
155	0xbe17f80b	-0.14840715
156	0xbe08834d	-0.13331337
157	0xbe820623	-0.25395307
158	0xbc0cf4ff	-0.0086033335
159	0xbe2823f2	-0.16419962
160	0xbd1f6ac8	-0.038920194
161	0xbb4bdfe2	-0.0031108786
162	0x3d85a068	0.06524736
163	0xbe150f95	-0.14556725
164	0x3d08a05a	0.03335605
165	0x3d088d52	0.0333379
166	0xbdc25865	-0.09489516
167	0x3df77dd0	0.12084544
168	0xbdddc402	-0.10828401
169	0x3d53342a	0.05156342
170	0xbe1cb933	-0.15305023
171	0xbe6607a0	-0.22463846
172	0xbe2a1d23	-0.16612677
173	0xbe1fa252	-0.15589264
174	0x3e261525	0.16219003
175	0x3d31e92a	0.043435253
176	0x3d8dc8c0	0.06923056
177	0x3c4fd471	0.012684927
178	0x3e262d68	0.16228259
179	0x3e1e7c51	0.1547711
180	0xbed4d07c	-0.4156531
181	0x3d36a5c1	0.04459167
182	0x3c37b246	0.011211937
183	0x3e50f911	0.20407511
184	0x3e74993a	0.23886576
185	0xbd5b8e5d	-0.053602565
186	0xbebd62a6	-0.36989325
187	0x3dc8db6b	0.09807476
188	0xbe544d6d	-0.2073266
189	0xbd876a75	-0.06612102
190	0x3dfda6f5	0.1238536
191	0xbeff33b0	-0.49844122
192	0x3eb6e5ee	0.35722297
193	0x3e0ccf1f	0.13750885
194	0xbe012982	-0.1261349
195	0xbc2d6c42	-0.010584893
196	0x3e860d24	0.261819
197	0xbe615319	-0.22004355
198	0x3c1282e1	0.008942337
199	0xbdc533e1	-0.09629036
200	0xbde822a2	-0.11334731
201	0xbdd5254a	-0.10407503
202	0xbe73d15c	-0.23810333
203	0x3d921b9e	0.07134174
204	0x3d960241	0.07324649
205	0xbe205ce1	-0.1566043
206	0xbcbeb664	-0.02328033
207	0xbe376829	-0.17910828
208	0x3dd4bf04	0.10387996
209	0x3d62e93c	0.05539821
210	0x3e469296	0.19391856
211	0x3ddf22c2	0.108953014
212	0xbbded19e	-0.0067998907
213	0xbcd97745	-0.02654613
214	0x3e5abf18	0.21361959
215	0x3d8c9c97	0.06865805
216	0x3d5c10c3	0.053726923
217	0x3eb5def6	0.35521668
218	0x3db35d0a	0.0875798
219	0x3dffb61b	0.12485906
220	0x3ddb87ce	0.10719262
221	0xbe42cc8b	-0.1902334
222	0xbd2889b7	-0.04114696
223	0x3ddd11a1	0.10794378
224	0x3df679d1	0.120349534
225	0xbe3040b7	-0.17212187
226	0x3d1762ac	0.036959335
227	0xbe154ac8	-0.14579308
228	0x3e7e6779	0.24844159
229	0x3cf33831	0.02968988
230	0x3d897fe2	0.06713845
231	0x3ca11e04	0.019667633
232	0x3e982e90	0.29723024
233	0x3e026618	0.12734258
234	0x3edd7aa6	0.43257636
235	0xbd8d3d86	-0.068965
236	0x3d603ba4	0.054744378
237	0xbdd28153	-0.10278573
238	0xbdebc4a1	-0.11512113
239	0x3ce061a3	0.027390307
240	0xbe2c52d1	-0.16828467
241	0xbdaaa7c7	-0.08332782
242	0x3e0fc850	0.14041257
243	0xbe550de8	-0.20806086
244	0x3e9b85f0	0.30375624
245	0xbc9b4511	-0.018953832
246	0xbe8a9bbd	-0.27071944
247	0x3d61d7cc	0.05513744
248	0xbe5f6777	-0.21816812
249	0x3e9ad61f	0.30241486
250	0xbe0a9657	-0.13533913
251	0xbcbb9cc1	-0.022901895
252	0xbd20054f	-0.039067563
253	0x3cbf1d1b	0.023329308
254	0x3ea39755	0.31951395
255	0xbe131fa7	-0.14367543

layerz.1.bias f4 [10]
0	0x3dce6e5b	0.100796424
1	0x3c1bc88e	0.009508265
2	0x3d7edcaf	0.06222218
3	0xbdb07585	-0.08616165
4	0x3d88cb73	0.0667943
5	0xbd4fda86	-0.05074551
6	0x3ce37543	0.027765876
7	0x3e6ea992	0.23306873
8	0xbd906a17	-0.07051485
9	0xbd644dd2	-0.055738278

mlr.weight f4 [256, 40]
0	0x3ec8b65c	0.3920163
1	0xbee1d312	-0.44106346
2	0xbe02671a	-0.12734643
3	0xbd99f6ab	-0.07517751
4	0x3e946e1a	0.2899025
5	0x3ee607ff	0.44927976
6	0xbf778ad9	-0.9669624
7	0xbee8d1a2	-0.45472437
8	0x3e9f9fd6	0.31176633
9	0x3e9948eb	0.29938444
10	0x3c78c6f4	0.015184153
11	0xbfa1e919	-1.2649261
12	0xbd719059	-0.05897555
13	0x3e3cc514	0.18434554
14	0xbead8687	-0.338917
15	0xbef12309	-0.47097042
16	0xc04e0b39	-3.219435
17	0xbe135cc8	-0.14390862
18	0x3f8777dd	1.0583454
19	0xbd71e405	-0.059055347
20	0xbf571975	-0.8402322
21	0xbe367140	-0.17816639
22	0xbe8cb58d	-0.27482262
23	0x3ea88ca8	0.32919812
24	0x3d28d932	0.04122276
25	0xbe3a85f4	-0.18215162
26	0x3ebc5ac1	0.3678799
27	0xbe5f6570	-0.21816039
28	0xbead65fa	-0.33866864
29	0x3eceaa1d	0.4036416
30	0xbffc60ca	-1.9717038
31	0xbebf0aef	-0.3731303
32	0xbeb4f522	-0.35343271
33	0xbefd2661	-0.49443343
34	0x3f90e48c	1.1319747
35	0x3fc8b96b	1.5681585
36	0x3d55516f	0.052079614
37	0x3fd34e4f	1.6508273
38	0x3f2b1498	0.668283
39	0xbf0aebea	-0.54266226
40	0x3eac2685	0.33623138
41	0xbf919c7a	-1.1375878
42	0x3e83fc38	0.25778365
43	0xbeace4a6	-0.33768195
44	0x3eb66ca4	0.3562976
45	0x3ea854cd	0.32877198
46	0xbf589ab5	-0.84611064
47	0xbf529363	-0.82256144
48	0x3f11bacb	0.5692565
49	0x3e02e86a	0.12783971
50	0x3e00cdfc	0.12578577
51	0xbedf5ec6	-0.43626994
52	0xbe3489eb	-0.17630737
53	0x3eea650a	0.45780212
54	0xbe0143f4	-0.12623578
55	0xbecd340a	-0.40078765
56	0xbf57dc1b	-0.8432023
57	0xbf81bea3	-1.0136303
58	0x3e07c0fd	0.13257213
59	0x3e0337ab	0.12814204
60	0xbf223835	-0.63367015
61	0x3eb746ee	0.35796303
62	0x3d380ee3	0.044936072
63	0x3ea5042e	0.3222975
64	0x3e0ec0ab	0.13940684
65	0xbf541ba9	-0.82854706
66	0x3e7d32bd	0.24726386
67	0x3e53b278	0.20673549
68	0xbec94585	-0.39310852
69	0xbd90acab	-0.07064184
70	0xbf3afa5d	-0.73038274
71	0xbe96cbb3	-0.29452285
72	0xbf23fce7	-0.64057773
73	0xbe8b070d	-0.27153817
74	0x3f5b0f95	0.8557065
75	0x3ea249b3	0.31696853
76	0x3dc5114b	0.09622439
77	0x3df0394b	0.11729678
78	0x3f92e76f	1.1476878
79	0xbe5da89f	-0.21646355
80	0xbe319030	-0.1734016
81	0xbf3af4b0	-0.73029613
82	0x3ec8e9da	0.39240915
83	0xbf9e9275	-1.2388445
84	0x3eabbef3	0.3354412
85	0xbe257db6	-0.16161236
86	0xbef11d47	-0.4709265
87	0xbd3752b5	-0.04475661
88	0x3f037d26	0.51362836
89	0xbe801fd4	-0.25024283
90	0x3fb74e86	1.4320838
91	0x3f5213dd	0.8206156
92	0xbcfb1315	-0.030648747
93	0x3e6de27c	0.23230928
94	0x3e7be70f	0.2459986
95	0x3e8dfb10	0.27730608
96	0x3f94eb96	1.1634395
97	0x3e230e5d	0.15923448
98	0xbe04dc1d	-0.12974592
99	0x3e9c539f	0.30532548
100	0xbe369a46	-0.17832288
101	0x3e9cbd6e	0.30613273
102	0x3eebfa0b	0.46089205
103	0x3ec624a3	0.38699827
104	0xbbd9f6cd	-0.0066517354
105	0xbeb6f7be	-0.35735887
106	0xbd907337	-0.070532255
107	0x3e454f59	0.1926855
108	0xbe7cf638	-0.247033
109	0xbdcef492	-0.10105242
110	0x3ea83cff	0.32859036
111	0xbefe663e	-0.4968738
112	0xbe95ec1f	-0.2928171
113	0xbe833e86	-0.2563364
114	0x3f1360d9	0.5756965
115	0xbf74c94a	-0.9561964
116	0x3f36683a	0.7125279
117	0xbef69b85	-0.48165527
118	0x3e91334b	0.28359446
119	0x3ec296d5	0.380057
120	0xbe70a7a6	-0.23501453
121	0xbe052494	-0.13002235
122	0x3eb82591	0.3596616
123	0xbf9bee3f	-1.2182082
124	0x3eb0405f	0.3442411
125	0xbf96341d	-1.1734654
126	0xbe1588af	-0.14602922
127	0x3f03cb64	0.51482224
128	0x3e2ee348	0.17078888
129	0xbf275f46	-0.6537975
130	0x3fd3bdf3	1.6542343
131	0x3d40e467	0.04709282
132	0x3e79f5d0	0.24410176
133	0xbc52b03b	-0.012859399
134	0x3f4c5414	0.79815793
135	0x3fd58f97	1.6684445
136	0x3f5c8c62	0.8615171
137	0x3e12d90b	0.14340608
138	0xbf6b092b	-0.91810864
139	0xbf0ffcdd	-0.56245214
140	0xbe19afd6	-0.15008482
141	0xbd39d292	-0.04536683
142	0x3eefe1dd	0.46852008
143	0x3de50922	0.111833826
144	0xbe97849a	-0.29593354
145	0xbe578f19	-0.21050681
146	0xbf2f8cd0	-0.6857424
147	0x3e2817fc	0.164154
148	0x3f326a5b	0.69693536
149	0xbe249bc9	-0.16075052
150	0x3e77671d	0.24160428
151	0x3e0fe5ed	0.14052553
152	0x3ea887b7	0.32916042
153	0xbe2f5a3c	-0.17124265
154	0x3c195164	0.009357784
155	0xbf93c03e	-1.1543043
156	0x3f90bcb3	1.1307586
157	0xbef303c0	-0.474638
158	0xbec2c221	-0.38038734
159	0x3fa26dd9	1.2689773
160	0x3ecabe68	0.39598393
161	0x3db416d2	0.08793415
162	0xbeaaff2e	-0.33397812
163	0x3e8e8a8c	0.27840078
164	0x3ed2495a	0.41071588
165	0xbfa7a1f6	-1.3096302
166	0xbed8833c	-0.42287624
167	0x3ecdb7d3	0.4017931
168	0xbf6d66c1	-0.92734915
169	0xbe19b153	-0.1500905
170	0xbe102c32	-0.14079359
171	0xbeca77dd	-0.39544573
172	0x3f9a1a7d	1.2039334
173	0x3c4e7e17	0.012603304
174	0x3f05614b	0.5210158
175	0xbf012d05	-0.5045932
176	0x3ea43d0c	0.32077825
177	0x3d886bac	0.06661162
178	0xc00e34cb	-2.2219722
179	0xbfa1ec04	-1.2650151
180	0x3d7600c2	0.060059316
181	0xbefd7ef6	-0.49510926
182	0xbe9766e3	-0.29570684
183	0x3e9d763d	0.3075427
184	0xbe9eea43	-0.31038103
185	0x3dea1ffa	0.1143188
186	0xbf81ed16	-1.0150478
187	0xbee4c792	-0.4468351
188	0x3ef77e21	0.48338416
189	0x3ec296c6	0.38005656
190	0xbd026ecc	-0.031843945
191	0x3e844775	0.25835767
192	0x3f78c19c	0.97170424
193	0xbdc62a31	-0.09676016
194	0x3e27b9fa	0.16379538
195	0xbe6639fd	-0.22483058
196	0xbeae3563	-0.34025106
197	0x3f74509d	0.95435506
198	0x3d3165a2	0.043309815
199	0x3d61e11d	0.055146325
200	0x3eeaabbf	0.45834157
201	0xbdef44d2	-0.11683048
202	0xbe9cb211	-0.30604604
203	0x3f00ce18	0.50314474
204	0x3e8f251e	0.27958006
205	0xbf3505a3	-0.70711726
206	0xbfcecbf6	-1.6155994
207	0x3df3c3d9	0.11902589
208	0xbf1dfef4	-0.6171715
209	0x3d41d884	0.047325626
210	0xbf0283fc	-0.5098264
211	0xbdf5e1b3	-0.12005939
212	0x3fbeb092	1.4897635
213	0xbdcd83a8	-0.10034877
214	0x3f12c76d	0.5733555
215	0xc001e352	-2.0294995
216	0xbfdb9648	-1.7155237
217	0xbeac2ee2	-0.3362952
218	0x3f3e402d	0.74316674
219	0xbfc01e69	-1.500928
220	0xbf59e9a2	-0.8512212
221	0x3e27854d	0.16359444
222	0xbe5e93d8	-0.21736085
223	0x3e5b0758	0.2138952
224	0xbe4c9ccb	-0.19981687
225	0x3de23a86	0.11046319
226	0xbf1a6b73	-0.60320204
227	0xbed63713	-0.41838893
228	0x3e3240a4	0.17407471
229	0x3ed987b7	0.42486355
230	0xbee40dd2	-0.44541794
231	0x3e4219a3	0.18955092
232	0x3f6622b8	0.89896727
233	0xbeefa3ce	-0.4680466
234	0x3f9e3abb	1.2361673
235	0xbded1904	-0.11577037
236	0xbfe0c09b	-1.7558779
237	0x3f485f05	0.7826999
238	0x3e8db7cd	0.2767929
239	0xbf1a3d65	-0.6024993
240	0x3e41e547	0.18935119
241	0x3de7404c	0.112915605
242	0x3e3be8a2	0.18350461
243	0x3e837381	0.2567406
244	0x3d7cf772	0.06175942
245	0x3d185588	0.037190944
246	0xbf80ef1c	-1.007297
247	0xbdf5f4d2	-0.120095864
248	0xbe4f1ce7	-0.20225869
249	0xbdc81516	-0.09769647
250	0xbf36d89a	-0.7142426
251	0x3e80b15d	0.25135317
252	0x3e4edcc5	0.20201404
253	0xbe94eb83	-0.2908593
254	0x3eeb60b7	0.45972225
255	0xbf261b03	-0.64884967

mlr.bias f4 [256]
0	0xc004c6f3	-2.074643
1	0x3fceb5b1	1.6149198
2	0x3f909ed5	1.1298472
3	0x3d8ba744	0.06819013
4	0x3f6c653d	0.9234198
5	0xbf851a39	-1.0398628
6	0xbe6eab37	-0.23307501
7	0x3fbbd02f	1.4672908
8	0xbec9e65f	-0.39433572
9	0xbfbbad83	-1.4662327
10	0xbfae1515	-1.3600184
11	0xbf05fa98	-0.523355
12	0xbe9492ad	-0.29018155
13	0xbf14f280	-0.58182526
14	0xbfd34cf3	-1.6507858
15	0xbffe0012	-1.9843771
16	0xc054a281	-3.3224185
17	0xc007f644	-2.1244059
18	0x3fca78a3	1.5818065
19	0x401ae5fc	2.4202871
20	0x3f8e865b	1.1134752
21	0xbf38ea9f	-0.72233003
22	0xbf5eb554	-0.86995435
23	0xbf4f914d	-0.81081086
24	0xbfdcaad7	-1.7239636
25	0xbe5a9df5	-0.21349318
26	0x40189497	2.3840692
27	0x402c8992	2.6958966
28	0xbd661a58	-0.056177467
29	0xbfcd4256	-1.6035869
30	0x3d2d8ee6	0.042372607
31	0x403a73c7	2.9133165
32	0x403de13a	2.9668717
33	0x3f8bf5c0	1.0934372
34	0x3d911bf3	0.07085409
35	0xbfa827e0	-1.3137169
36	0xbf6cc222	-0.92483723
37	0xbe8cdf15	-0.27513948
38	0xbe81406f	-0.2524447
39	0xbd46cd10	-0.048535407
40	0xbe4e7393	-0.20161276
41	0x3d63ff55	0.055663425
42	0x3f003bb5	0.50091106
43	0x3f9fc8fb	1.2483209
44	0xbf257389	-0.6462942
45	0xbfd56688	-1.6671915
46	0x3ede10f6	0.43372315
47	0x403655d2	2.848988
48	0x403b5533	2.9270751
49	0x3fca6201	1.5811158
50	0x40197917	2.3980157
51	0x403cc7a2	2.9496846
52	0xbf2469f3	-0.64224166
53	0xc0135bbd	-2.3024743
54	0xc00c687e	-2.1938777
55	0xbf8cc061	-1.0996209
56	0xbde7bdbb	-0.11315485
57	0x3e6a597c	0.22885698
58	0xbf3c5809	-0.7357183
59	0xbd2179ee	-0.03942292
60	0x3ec17c7d	0.3779029
61	0xbe862834	-0.26202548
62	0xbf2ce6c2	-0.6753961
63	0xbfcb7e2c	-1.589788
64	0x3fe874f1	1.8160688
65	0x3fe114db	1.758449
66	0xc0492655	-3.1429646
67	0xbf777ade	-0.96671855
68	0xbefef160	-0.4979353
69	0xbeff656c	-0.49882066
70	0x3f874aba	1.056968
71	0x3f8b4095	1.0879084
72	0x3ede047b	0.43362793
73	0x3f379aea	0.71720755
74	0x3f3c279c	0.7349794
75	0x3fc64507	1.5489815
76	0x3eb189f8	0.34675574
77	0x3f122dea	0.5710131
78	0x3fd4c4b3	1.6622528
79	0xbef55d79	-0.47922876
80	0xbfbac994	-1.4592767
81	0xbed0f528	-0.4081204
82	0x3f888a47	1.0667199
83	0x3f50974d	0.81480867
84	0x3f8a10f2	1.0786421
85	0x4016eb18	2.358099
86	0x4027b523	2.6204307
87	0x3f9c2844	1.2199788
88	0xbfb4e13f	-1.413124
89	0xbfb0d3c6	-1.3814628
90	0x3ef1fc57	0.47262833
91	0x3f2b194f	0.6683549
92	0xbf4f07fe	-0.8087157
93	0xc03d2382	-2.9552922
94	0xc01ab96b	-2.417567
95	0xbf73d3ec	-0.9524524
96	0x3f8474a4	1.0348096
97	0x3f06102d	0.5236843
98	0xbfe044b7	-1.752097
99	0x3e4323e6	0.19056663
100	0xbdc2f264	-0.095188886
101	0xbfc624d3	-1.5479988
102	0xbf3cdd02	-0.7377473
103	0x3e206261	0.15662529
104	0x3e78a11e	0.24280211
105	0x3dfa3272	0.12216653
106	0x3e1fd7bb	0.15609638
107	0x3ec929ec	0.39289796
108	0x3fc7d167	1.561078
109	0x402e2538	2.7210217
110	0x40288a1f	2.6334302
111	0x3fa5c32d	1.2950188
112	0xbedbc246	-0.42921656
113	0x3d2074ef	0.039174017
114	0x400a6dce	2.162952
115	0x3fb421d3	1.4072822
116	0xbbbcbaa7	-0.0057595554
117	0xbf5a9793	-0.85387534
118	0x3d796128	0.06088367
119	0xbfb2e7aa	-1.3976948
120	0xbefd2f4d	-0.4945015
121	0x3f4aa24f	0.79153913
122	0xbe868e12	-0.26280266
123	0x3fc19f4f	1.5126742
124	0x3f13bfcd	0.5771454
125	0xbfdd875b	-1.7306932
126	0xbf234f36	-0.6379274
127	0x40097892	2.147984
128	0x3f087d73	0.5331642
129	0xc0401055	-3.0009968
130	0xbfa96896	-1.3235042
131	0x3e181e8e	0.14855406
132	0x3dd1a755	0.10236994
133	0xbf013b9e	-0.50481594
134	0xc055bc2c	-3.33961
135	0xc001c56f	-2.0276754
136	0x3ddc2cab	0.10750707
137	0x3f72ce8d	0.9484642
138	0x3e876403	0.2644349
139	0xbe73c49b	-0.23805468
140	0xbf45c58d	-0.77254564
141	0xbfebc53b	-1.8419565
142	0x3fceca68	1.615552
143	0x40259c17	2.587652
144	0x3f44f31f	0.76933473
145	0xbeccb792	-0.39983803
146	0x3f19e5c6	0.6011623
147	0xbfcb12a1	-1.586506
148	0xbf7838c5	-0.96961623
149	0xbeea4035	-0.4575211
150	0xbe0e11c6	-0.13873968
151	0x3f488cf3	0.7834007
152	0x3ed5552e	0.4166655
153	0xbff11aba	-1.8836281
154	0xbfa0b9d0	-1.2556705
155	0xbfe43ae9	-1.7830478
156	0xbf863d56	-1.0487468
157	0x3f72bc81	0.94818884
158	0x400c906b	2.1963146
159	0xbc8c2578	-0.01710771
160	0xbed990ce	-0.4249329
161	0xbedba187	-0.42896673
162	0x3f7ea527	0.9947075
163	0xbf223ad5	-0.6337102
164	0xbf2ce1fa	-0.6753231
165	0x4026a948	2.604082
166	0x403d2017	2.9550836
167	0x3f903414	1.1265893
168	0xc009c4f0	-2.152645
169	0xc004c356	-2.0744224
170	0xbf4b2322	-0.79350483
171	0x3d20f7d1	0.039298836
172	0x40004340	2.0041046
173	0x3fb0d3bd	1.3814617
174	0x3f42bec3	0.7607233
175	0xbe2d18da	-0.16904011
176	0xbf4ae058	-0.7924857
177	0x3e3b2c23	0.18278556
178	0x4032820c	2.7891874
179	0x400bd243	2.1847084
180	0xbfea3f88	-1.8300638
181	0xbfc4b47a	-1.5367577
182	0xbf4d2532	-0.8013488
183	0xc016e8e6	-2.357965
184	0xbfdc8238	-1.722724
185	0xbffb9b14	-1.9656701
186	0x3ba6e6b0	0.005093418
187	0x40359942	2.837479
188	0x3ff91b8f	1.9461535
189	0x3fcde6b5	1.6086031
190	0x3f0b622c	0.54446673
191	0x3f20e866	0.6285461
192	0xbf10be0e	-0.5654
193	0x3f2cbca1	0.67475325
194	0xbeff995f	-0.499217
195	0xbfa0aeb6	-1.2553318
196	0x3f7dae95	0.99094516
197	0x3fb59b9e	1.4188116
198	0xbe9f3eee	-0.311027
199	0x3eedc2cd	0.46437684
200	0x3fcd41fa	1.603576
201	0x3ece9f7a	0.40356046
202	0x3f72f8f2	0.9491111
203	0xbe5930e8	-0.21210063
204	0xc00e556f	-2.2239645
205	0xc0233918	-2.5503597
206	0xbf9df35c	-1.2339892
207	0xbf940e2d	-1.1566826
208	0xc024e848	-2.5766773
209	0xc0007dff	-2.0076902
210	0xbdda9207	-0.10672384
211	0xbe02a70d	-0.12759037
212	0x3e8b5b24	0.27217972
213	0x3f960dc8	1.1722956
214	0x3fb3a8b3	1.4035858
215	0x3fb74880	1.4319
216	0x3c6bd88a	0.014394889
217	0xc071c244	-3.777482
218	0xbff698e8	-1.9265413
219	0x3d56a1c0	0.05240035
220	0x3f8aa9e8	1.0833101
221	0xbe61acfd	-0.22038646
222	0x3e0ac1ac	0.13550442
223	0x3e1d1586	0.15340242
224	0xbf2a3daa	-0.6650034
225	0xbe2b1294	-0.16706306
226	0x3fc5625a	1.542064
227	0x3fc88f4f	1.5668734
228	0x3f998607	1.1994027
229	0x3fa3c531	1.2794553
230	0x3f0d1447	0.55109066
231	0xbf94c347	-1.1622094
232	0xbf64cce8	-0.8937516
233	0xc02b81c4	-2.6797953
234	0xc02cfc22	-2.702889
235	0x3f39dd1c	0.7260301
236	0x3faea2ce	1.3643434
237	0x3fe83951	1.8142492
238	0x3fd1e5fa	1.6398308
239	0x3ea49a5d	0.3214902
240	0xc013a97b	-2.3072193
241	0xbf29b8d5	-0.66297656
242	0x3e7084ae	0.23488113
243	0xbfaf51f5	-1.3696886
244	0xbf8e7327	-1.1128892
245	0xbdbc3599	-0.091899104
246	0x3f94970f	1.16086
247	0x3d03e8fc	0.032204613
248	0x3f6bedb1	0.92159563
249	0x3f701fa1	0.9379826
250	0xbfc4cb8b	-1.5374616
251	0xbf67f946	-0.90614736
252	0xbf4aec4a	-0.792668
253	0x3e0743e1	0.13209487
254	0x3f148a71	0.58023745
255	0xbf10576f	-0.56383413
