storage/model2/model.pt (torch, 56897 bytes, 30 tensors)

layer.0.weight f4 [80, 20]
0	0x3ebe04f9	0.3711317
1	0x3d959146	0.07303099
2	0xbe7c1250	-0.2461636
3	0xbda13636	-0.07871668
4	0xbc67af39	-0.014140897
5	0xbd58926d	-0.052874018
6	0x3e514d5d	0.20439668
7	0xbdf4f7e4	-0.11961344
8	0xbd24b370	-0.040210187
9	0xbde576a9	-0.11204273
10	0x3e7ad510	0.2449534
11	0xbf72189a	-0.9456879
12	0x3e5d314f	0.21600841
13	0xbf44725a	-0.76736987
14	0x3d872480	0.06598759
15	0xbf24ca8c	-0.6437156
16	0xbe1869a2	-0.14884046
17	0xbf1fbf19	-0.62400967
18	0x3f15efbe	0.5856894
19	0xbfa39d0a	-1.27823
20	0xbe25ee4d	-0.16204186
21	0xbdb1fdb0	-0.08690965
22	0x3d80a482	0.062813774
23	0x3dbfdd5f	0.09368395
24	0xbd6610e3	-0.05616845
25	0xbc0ad846	-0.008474415
26	0xbdc12e34	-0.09432641
27	0x3cbb5bdd	0.022870952
28	0x3e0b0c02	0.135788
29	0xbd5abd18	-0.05340299
30	0xbdbd2f9d	-0.09237597
31	0x3e0ccd5d	0.13750215
32	0xbdc93504	-0.09824565
33	0x3e1f0d4e	0.15532419
34	0x3da35907	0.07975965
35	0x3e825dcb	0.25462183
36	0xbd4f6a0b	-0.05063824
37	0x3e06eafd	0.13175578
38	0xbd98ab84	-0.07454589
39	0x3e8e3df6	0.27781647
40	0x3f36ccc1	0.7140618
41	0x3f0fb388	0.5613332
42	0xbf8ccf34	-1.1000733
43	0xbe12e037	-0.14343344
44	0xbe960467	-0.29300234
45	0x3d8d5292	0.06900515
46	0x3e26e5d6	0.16298613
47	0x3eb845d0	0.35990763
48	0x3d684759	0.056708667
49	0xbc6d3a23	-0.014479193
50	0x3f24059a	0.6407105
51	0xbf1039f3	-0.56338423
52	0xbd0c8bfb	-0.034313183
53	0xbd41308e	-0.047165446
54	0xbd92e4c4	-0.0717254
55	0xbdc5015d	-0.09619401
56	0xbe08f7b9	-0.13375749
57	0x3e7e6817	0.24844395
58	0x3d9178ec	0.07103142
59	0xbe0661e3	-0.13123278
60	0xbd2527f4	-0.040321305
61	0xbe507dec	-0.20360535
62	0x3f261d94	0.6488888
63	0x3e2d93b7	0.1695088
64	0x3e1a49fc	0.15067285
65	0x3e29c472	0.16578844
66	0xbe78ce5b	-0.24297468
67	0xbdf2d450	-0.11856902
68	0x3ceb11ec	0.02869507
69	0xbe389897	-0.18026958
70	0xbf013f9b	-0.5048768
71	0x3e3b31d3	0.18280725
72	0xbdada461	-0.084786184
73	0xbcc49bcf	-0.024000077
74	0x3e2a34fb	0.16621773
75	0x3d912dc9	0.07088811
76	0xbd9d29f9	-0.07674021
77	0xbe1401f5	-0.14453872
78	0xbd804405	-0.06262974
79	0x3e1ed52c	0.15511006
80	0x3ecde3c1	0.40212825
81	0xbe018eff	-0.12652205
82	0xbef17504	-0.47159588
83	0xbe0e20e0	-0.13879728
84	0xbe1c7159	-0.15277614
85	0x3df99cdf	0.12188124
86	0x3e17e6e3	0.1483417
87	0x3e2a8a27	0.16654263
88	0x3dee8dcd	0.1164814
89	0xbcc258b7	-0.023723943
90	0x3e3540db	0.17700522
91	0xbc86a127	-0.016434265
92	0x3f1f8b50	0.6232195
93	0xbf08cd02	-0.5343782
94	0xbe729c3e	-0.23692414
95	0xbc935fd1	-0.017990025
96	0xbd0019f2	-0.031274743
97	0x3de514d6	0.11185615
98	0xbd616ba6	-0.055034302
99	0xbd83fb4d	-0.06444416
100	0xbf500b37	-0.8126711
101	0xbd6dc013	-0.058044504
102	0xbed8921b	-0.4229897
103	0xc0128764	-2.2895136
104	0xbd803160	-0.062594175
105	0xbeee0019	-0.4648445
106	0x3fbf58da	1.494899
107	0x3ebd4dd2	0.36973435
108	0xbfaffca3	-1.3748974
109	0x3f8687d5	1.0510203
110	0x3e355407	0.17707835
111	0x3d722e1b	0.059126
112	0x3e1bdff8	0.15222156
113	0xbee7d8cc	-0.4528259
114	0xbee034f9	-0.43790415
115	0x3da8dad5	0.08244864
116	0x3e1cbbec	0.15306062
117	0xbe6b21e0	-0.22962141
118	0x3dbb9cb1	0.09160746
119	0x3d9d7b6f	0.07689559
120	0x3ed88ecd	0.42296448
121	0xbf21d568	-0.6321626
122	0xbf054e9d	-0.5207308
123	0x3da4ed1a	0.08053036
124	0xbed3c552	-0.4136148
125	0x3f203f6a	0.6259676
126	0x3ebfec66	0.37485045
127	0xbee5d759	-0.4489086
128	0x3d414dfe	0.04719352
129	0xbe1a8945	-0.15091427
130	0xbf0a6764	-0.5406401
131	0xbeb5d3bd	-0.35513106
132	0x3df3a2df	0.118962996
133	0xbc9b61b6	-0.01896749
134	0x3dc15f2f	0.09441983
135	0x3e65c6f1	0.22439171
136	0x3dd52940	0.104082584
137	0xbd5b5817	-0.053550806
138	0xbccaa5a2	-0.024737183
139	0x3cd5fd76	0.026121836
140	0x3f5dafa1	0.86596113
141	0x3f5a4477	0.8526072
142	0x3ee68abd	0.45027724
143	0x3c4ec7f3	0.012620914
144	0x3f6df020	0.92944527
145	0xbe3b0899	-0.18264998
146	0xc01cd562	-2.4505239
147	0xbf10bf69	-0.5654207
148	0xc00370ce	-2.05376
149	0x3e438fb9	0.19097795
150	0xbef03838	-0.46917892
151	0xbedf4c5d	-0.43612948
152	0xbc6b7a07	-0.014372355
153	0x3e20f7ea	0.15719572
154	0x3d37c669	0.044866953
155	0x3e51d2f6	0.20490631
156	0xbbefdd39	-0.007320073
157	0xbe4c1fb8	-0.19933975
158	0xbdebb6e8	-0.11509496
159	0x3c3ed298	0.011646889
160	0x3ed320c7	0.41235945
161	0x3e8af55a	0.27140313
162	0x3d328c07	0.04359057
163	0xbd8fdf42	-0.07025005
164	0x3e87158f	0.26383635
165	0x3e5da21f	0.21643876
166	0xbe8bbf7c	-0.27294528
167	0xbd3c7100	-0.046006203
168	0xbe426581	-0.18984033
169	0x3cac02b5	0.020997385
170	0xbf122c51	-0.5709887
171	0xbec826ad	-0.39092007
172	0x3e4c6cca	0.19963375
173	0xbe7b230a	-0.24525085
174	0xbcd922f7	-0.02650593
175	0x3ce7d656	0.028300446
176	0x3db5eb41	0.08882762
177	0xbdbc3d65	-0.091913976
178	0x3db90a1a	0.0903513
179	0x3e075f11	0.13219859
180	0x3f88b39c	1.0679812
181	0xc092d22b	-4.5881553
182	0xbf6304b9	-0.8867908
183	0x3f0af673	0.542823
184	0xbfadb2c7	-1.3570184
185	0x40041bb1	2.0641901
186	0xbdd6830b	-0.10474213
187	0x3f0a7a68	0.5409303
188	0xbe15b8cf	-0.1462128
189	0xbf2f83da	-0.68560565
190	0xbf20b9ae	-0.62783325
191	0xbec69a35	-0.38789526
192	0x3e4d8f98	0.20074308
193	0xbea367cc	-0.31915128
194	0xbdc4e485	-0.09613899
195	0xbe969d02	-0.29416662
196	0x3e22ceb2	0.1589916
197	0xbb8a06c3	-0.004212232
198	0x3dc4122e	0.0957378
199	0xbe0842e8	-0.13306773
200	0x4044bc66	3.073999
201	0x3dc7493e	0.09730767
202	0xbf8c5d62	-1.0965998
203	0xbf2d58bb	-0.67713517
204	0x3f278ff5	0.65454036
205	0x3f46301f	0.77417177
206	0xbfa280a5	-1.2695509
207	0x3efa53fb	0.48892197
208	0x3fbf0aea	1.4925206
209	0x3fd19ed7	1.6376599
210	0xbe28ba00	-0.16477203
211	0xbef809ea	-0.48445064
212	0x3e912ea8	0.28355908
213	0xbe14d93f	-0.14535998
214	0xbf011ac6	-0.5043148
215	0x3d487c0b	0.04894642
216	0xbe6debb8	-0.23234451
217	0xbe2504c4	-0.16115099
218	0x3d11b99e	0.03557741
219	0x3d1d267a	0.038366772
220	0xbeda4625	-0.4263164
221	0x3e5f2af3	0.21793728
222	0xbe884e3e	-0.26622194
223	0xbe2978f2	-0.16550043
224	0xbf11f555	-0.5701497
225	0xbda37cb0	-0.07982767
226	0x3d991616	0.07474916
227	0x3e0cdaae	0.13755295
228	0xbc1286b6	-0.00894325
229	0x3e088203	0.13330846
230	0x3cce5f1f	0.025191842
231	0xbed50470	-0.41604948
232	0x3e4d1442	0.20027259
233	0x3e0d509e	0.13800284
234	0xbe5e1a6f	-0.21689771
235	0x3dbb1d42	0.0913644
236	0xbd8e566d	-0.06950078
237	0xbdecc240	-0.11560488
238	0x3c5998a2	0.013281019
239	0x3c86d13e	0.016457196
240	0x3e815d4e	0.25266498
241	0x3e57dd74	0.21080571
242	0xbe07a206	-0.13245401
243	0x3e8980f7	0.26856205
244	0x3d5f5e4c	0.054533288
245	0xbd82848b	-0.06372937
246	0x3e5593a7	0.20857106
247	0x3e3b6b8a	0.18302742
248	0x3e1f061a	0.15529671
249	0x3d59b2bf	0.05314898
250	0x3da186e7	0.07887059
251	0xbed94303	-0.42433938
252	0x3d1be3f1	0.03805918
253	0x3d949259	0.07254476
254	0x3da6372b	0.08115991
255	0xbe110c21	-0.14164783

layer.0.bias f4 [80]
0	0xbfb9aa93	-1.450518
1	0xbecf4f66	-0.40490264
2	0xbf60cd3e	-0.87813175
3	0xbf60bac6	-0.87784994
4	0xbf04851b	-0.517656
5	0xc004361d	-2.0658028
6	0xbfae9bf0	-1.3641338
7	0xbfd4bb2e	-1.6619623
8	0xbeb5da06	-0.355179
9	0xc07a5c79	-3.911894
10	0xc01f450f	-2.48859
11	0xbf312ba3	-0.6920721
12	0xbeb83817	-0.35980293
13	0xbfc5d658	-1.5456038
14	0xbf17942c	-0.5921047
15	0xbf7a7770	-0.978385
16	0xbf817423	-1.0113567
17	0xbefaf791	-0.49017003
18	0xbf3399a5	-0.7015632
19	0xbf511c4e	-0.81683815
20	0xc06880f3	-3.6328704
21	0xbeee1cbd	-0.465063
22	0xbf40236d	-0.75054055
23	0xbf360b41	-0.7111092
24	0xbef922d2	-0.48659378
25	0xbf67c052	-0.9052783
26	0xbf763549	-0.96175057
27	0xbf542c06	-0.82879674
28	0xbee5799b	-0.4481934
29	0xbf7c8288	-0.98636675
30	0xbf13622a	-0.5757166
31	0xbf6c3df4	-0.9228203
32	0xbf0e8e37	-0.5568575
33	0xbfa9bf62	-1.326153
34	0xbe991575	-0.29899183
35	0xbfae8cb0	-1.3636684
36	0xc05a2f5a	-3.40914
37	0xbe6e4174	-0.23267156
38	0xbec14928	-0.37751126
39	0xbfeb2d57	-1.8373212
40	0xbec7c4c6	-0.39017314
41	0xbfe6131f	-1.7974585
42	0xbf78fbd8	-0.97259283
43	0xbf41f1ac	-0.75759387
44	0xbf3e20a9	-0.74268585
45	0xbf87412d	-1.0566765
46	0xbf4597dd	-0.7718485
47	0xbf73046f	-0.9492864
48	0xc0471fb8	-3.111311
49	0xbf8b2bcc	-1.0872741
50	0xbef97db5	-0.4872872
51	0xbf7f1725	-0.9964469
52	0xbfe0a002	-1.754883
53	0xbe9cce03	-0.30625924
54	0xbe35c708	-0.17751706
55	0xc00e8cea	-2.2273507
56	0xbff0b03d	-1.8803784
57	0xbf87251d	-1.0558201
58	0xbf7353d8	-0.9504981
59	0xbf0949d6	-0.5362829
60	0xbf4049f8	-0.7511287
61	0xbf3a629a	-0.72806704
62	0xbf65bd8f	-0.8974237
63	0xbf20d224	-0.6282065
64	0xbfba67d5	-1.4562937
65	0xbed0c864	-0.40777886
66	0xbf50bc79	-0.81537586
67	0xbf6e30d8	-0.9304328
68	0xbf92ec68	-1.1478395
69	0xbeff0cf9	-0.49814585
70	0xc0160b97	-2.3444574
71	0xbe3a8103	-0.18213277
72	0xbe33268d	-0.17495175
73	0xc0606733	-3.5062988
74	0xc0418b75	-3.0241368
75	0xbe544f3b	-0.20733349
76	0xbe9f6260	-0.31129742
77	0xbfb097ba	-1.3796303
78	0xbf3bf508	-0.73420763
79	0xbf219d2e	-0.6313046

layer.1.weight f4 [10, 40]
0	0x3e547302	0.20746997
1	0x3d8ab1c4	0.06772187
2	0xbd093e4c	-0.033506677
3	0x3e46bdc6	0.1940833
4	0x3dd79b20	0.105276346
5	0xbe2af3ef	-0.16694616
6	0xbd89846f	-0.06714713
7	0xbd72e346	-0.059298776
8	0x3cd51810	0.02601245
9	0xbda41d0b	-0.08013352
10	0xbdc99da9	-0.098445244
11	0xbddf7be8	-0.10912305
12	0x3d05388a	0.032524623
13	0xbe11bb7c	-0.14231676
14	0x3b925399	0.004465532
15	0x3e5e7c0d	0.21727009
16	0x3d280e4a	0.041029252
17	0x3de4c15e	0.11169694
18	0xbce66050	-0.028122097
19	0x3e383970	0.1799066
20	0xbe7da29d	-0.24769063
21	0x3df13b9a	0.11778946
22	0x3dddb8a4	0.10826233
23	0xbe4c436c	-0.19947594
24	0xbee229b1	-0.44172433
25	0xbe278dbe	-0.16362664
26	0x3d6ef7b3	0.058341693
27	0xbe52b888	-0.20578206
28	0x3c7dae64	0.0154834725
29	0xbc10db39	-0.008841329
30	0x3d841188	0.06448656
31	0x3d853b1c	0.06505415
32	0xbc63173e	-0.013860522
33	0x3e7a1e31	0.2442558
34	0xbde1440c	-0.10999307
35	0x3d997df5	0.074947275
36	0xbd1e38c9	-0.038628373
37	0x3e89fbac	0.26949823
38	0x3df59ada	0.11992426
39	0x3d8284e2	0.06373002
40	0x3d10cac9	0.03534964
41	0x3c97b2e1	0.018517913
42	0x3e04bb26	0.12962016
43	0xbdfa79fc	-0.12230298
44	0xbeba3ca6	-0.36374396
45	0x3e3155c3	0.17317872
46	0xbdf09cfd	-0.11748693
47	0x3dda30c7	0.10653835
48	0x3dccd341	0.10001231
49	0xbbb3de4e	-0.0054891473
50	0x3e691d24	0.22765023
51	0xbe3148d9	-0.17312945
52	0x3e3290a5	0.1743799
53	0xbd19f2d0	-0.03758508
54	0xbbb6f07c	-0.005582867
55	0x3de98689	0.11402614
56	0x3dc81bbd	0.09770916
57	0x3db2c7c5	0.08729509
58	0x3cf87ff7	0.030334456
59	0xbe04dd63	-0.12975077
60	0xbcfaafb4	-0.03060136
61	0x3d5f24df	0.054478522
62	0xbcec2a1e	-0.028828677
63	0xbe60c836	-0.21951374
64	0x3e84f16c	0.2596544
65	0x3da05276	0.07828228
66	0xbd51813d	-0.05114864
67	0xbdfcd3d5	-0.12345091
68	0x3dce5a2e	0.10075794
69	0x3e2a11c9	0.16608347
70	0xbdc5cbb3	-0.09657993
71	0xbd1f828f	-0.03894287
72	0xbc3f987d	-0.011694071
73	0x3de6994e	0.11259709
74	0xbe9f886f	-0.31158778
75	0xbe198408	-0.14991772
76	0xbcc1eaa9	-0.023671465
77	0x3cf0c59c	0.029391102
78	0x3d72f6cf	0.059317406
79	0x3eb5c0b6	0.3549859
80	0xbdd94829	-0.106094666
81	0x3ddd8576	0.10816471
82	0x3db0d111	0.08633626
83	0xbe77c6c9	-0.24196924
84	0xbd4df890	-0.050285876
85	0xbe1a00a5	-0.15039308
86	0x3db66cdf	0.08907484
87	0xbe3add8c	-0.18248576
88	0xbd225311	-0.03963
89	0x3d5c7c86	0.053829692
90	0x3dddacf8	0.10824007
91	0xbc93315e	-0.017967876
92	0xbe9963f7	-0.2995908
93	0xbda4fd07	-0.08056074
94	0x3d8a2af5	0.06746475
95	0xbca15c13	-0.019697225
96	0x3d80a8a0	0.06282163
97	0xbd1b4781	-0.03790999
98	0x3db68de3	0.089137815
99	0xbe2a9520	-0.16658449
100	0xbea2ea3e	-0.31819338
101	0x3d01a012	0.031646796
102	0xbe215de6	-0.15758476
103	0x3d29bca5	0.04143967
104	0xbe0a3feb	-0.13500945
105	0xbc993171	-0.018700333
106	0x3d3a8a37	0.04554197
107	0xbe1784bc	-0.14796728
108	0x3eced064	0.40393364
109	0x3acbc034	0.0015544952
110	0xbd8c6823	-0.068558
111	0x3e30508c	0.17218226
112	0x3cfe9bc4	0.031080134
113	0xbd99593e	-0.07487725
114	0x3d9e7fa4	0.07739189
115	0x3d2844fd	0.041081417
116	0xbcebbc4a	-0.028776307
117	0xbccbd109	-0.02487995
118	0xbe2e6b65	-0.17033155
119	0xbcac9c1b	-0.02107053
120	0xbd8af9b3	-0.067859076
121	0x3dfb82c0	0.12280798
122	0xbdf88539	-0.12134785
123	0xbe2a05b6	-0.16603741
124	0xbe74fcd8	-0.23924577
125	0xbc149c36	-0.009070447
126	0xbdba5252	-0.090977326
127	0x3e65ecf1	0.22453667
128	0x3d1dd528	0.03853336
129	0x3cd506a9	0.026004152
130	0xbe76d478	-0.24104488
131	0xbd9f4cc8	-0.07778317
132	0xbe21db8b	-0.15806405
133	0xbe4d918d	-0.20075054
134	0xbe163b76	-0.1467112
135	0x3e894c4e	0.26816028
136	0xbdf96b02	-0.12178613
137	0x3def948c	0.11698255
138	0xbda94b47	-0.08266311
139	0x3db640d6	0.08899085
140	0xbdd7e4bd	-0.10541675
141	0xbe65357d	-0.22383685
142	0x3e3ae7d5	0.182525
143	0x3e247521	0.16060306
144	0xbeaf7874	-0.34271586
145	0x3cce45c4	0.025179751
146	0x3e2b5355	0.16731007
147	0xbe5f323e	-0.2179651
148	0xbd824efe	-0.06362723
149	0x3e53dfff	0.20690916
150	0xbe0f316a	-0.13983694
151	0xbea31563	-0.31852254
152	0x3e0064cf	0.12538455
153	0x3da3380c	0.079696745
154	0xbe07605f	-0.13220356
155	0x3e6ad6be	0.2293348
156	0x3ca67594	0.020319737
157	0xbdc26060	-0.09491038
158	0xbd83f01d	-0.06442282
159	0xbcbca69e	-0.023028668
160	0xbe454b01	-0.19266893
161	0xbe8c34a8	-0.27383924
162	0x3ebe82d3	0.37209186
163	0x3d721f54	0.059111908
164	0x3c2dd1b7	0.010609082
165	0xbd816387	-0.063178115
166	0xbe06698c	-0.131262
167	0x3bdbdd24	0.0067097116
168	0x3e2efe1c	0.17089123
169	0xbe6c0307	-0.2304803
170	0x3d3c1fe8	0.045928866
171	0xbdd41767	-0.10356026
172	0xbe179d50	-0.14806104
173	0x3d601667	0.054708865
174	0x3e1934c2	0.14961532
175	0x3dd3eb75	0.10347644
176	0xbe7cd273	-0.24689655
177	0x3e643d6d	0.22289057
178	0xbcabf73a	-0.02099191
179	0x3e122e66	0.14275512
180	0xbe12ab9e	-0.1432328
181	0xbcaad0b6	-0.020851474
182	0xbdbd60b4	-0.0924696
183	0xbd96271c	-0.07331678
184	0xbe1edb68	-0.15513384
185	0xbe536f43	-0.20647912
186	0xbe542f8e	-0.20721266
187	0x3d357685	0.044302482
188	0xbc88399a	-0.016629029
189	0xbe0a6490	-0.13514924
190	0xbe8d5070	-0.2760043
191	0xbdcdcb17	-0.10048502
192	0xbe25bb60	-0.16184759
193	0x3e45281c	0.19253582
194	0xbd40d770	-0.047080457
195	0x3e6f7434	0.23384172
196	0xbe91cea0	-0.28477955
197	0xbdd4fdf3	-0.103999995
198	0xbe00340a	-0.12519851
199	0x3e271b99	0.16319121
200	0xbe89c354	-0.26906836
201	0x3cac46e0	0.02102989
202	0xbe0504a5	-0.12990053
203	0x3e44bdd6	0.19213042
204	0x3e12fa5d	0.14353319
205	0x3ea6bbea	0.32565242
206	0xbd75f6c3	-0.060049783
207	0x3e9f9618	0.311692
208	0x3d682548	0.05667618
209	0x3d919fcf	0.07110559
210	0x3dcad012	0.099029675
211	0x3e8b4c1d	0.27206507
212	0xbdd92585	-0.106028594
213	0xbe793f0f	-0.24340461
214	0x3e287c73	0.16453724
215	0xbd903694	-0.0704166
216	0x3e459d1c	0.19298214
217	0x3e7d7a19	0.24753608
218	0xbeb2a63d	-0.34892455
219	0xbe08a403	-0.13343816
220	0xbd735e24	-0.05941595
221	0x3e00e1d0	0.1258614
222	0xbe8cd4c1	-0.27506068
223	0xbe38892e	-0.1802108
224	0xbd65e1e4	-0.05612363
225	0x3d2bb75c	0.041922912
226	0x3d917a8a	0.071034506
227	0xbdb128f9	-0.08650393
228	0xbe304174	-0.17212468
229	0xbddea1ae	-0.10870682
230	0xbda0457c	-0.07825753
231	0xbdec1280	-0.11526966
232	0xbcf373e1	-0.029718341
233	0x3d0e0b67	0.034678843
234	0x3db54de8	0.0885275
235	0xbe3bd9ef	-0.18344854
236	0x3e4ec454	0.2019208
237	0xbe2d00be	-0.16894814
238	0xbd3f59b3	-0.046716403
239	0x3c34e16e	0.011040075
240	0x3cd001c6	0.02539147
241	0x3e0cd938	0.13754737
242	0x3e056785	0.13027771
243	0xbca9e4c5	-0.020738969
244	0xbc51d356	-0.012806734
245	0x3e89d7de	0.26922506
246	0xbe5101ed	-0.20410891
247	0xbcda4466	-0.026643943
248	0x3df873cd	0.12131462
249	0xbdb118a2	-0.086472765
250	0xbe7ac5ba	-0.24489489
251	0xbe03cdc2	-0.12871459
252	0xbd51fdf9	-0.051267598
253	0x3ce0bf45	0.027434954
254	0xbe5a8b51	-0.21342207
255	0xbd84abc3	-0.064780734

layer.1.bias f4 [10]
0	0x3e091845	0.13388164
1	0xbdf1af78	-0.11801046
2	0x3e0e3816	0.13888583
3	0x3d3c411f	0.04596054
4	0x3de48f40	0.11160135
5	0xbb416290	-0.002950821
6	0x3d987af1	0.07445324
7	0xbcde7556	-0.02715556
8	0xbcf3dac0	-0.029767394
9	0x3d7e51f4	0.062089875

layerz.0.weight f4 [80, 10]
0	0xbbbdfe53	-0.00579814
1	0xbce5045a	-0.027956177
2	0x3e98728d	0.29774895
3	0x3e132fe8	0.14373744
4	0x3e8ad727	0.27117273
5	0xbe00264d	-0.1251461
6	0x3e21a543	0.15785699
7	0xbe9d4138	-0.3071382
8	0x3b3796cb	0.0028013464
9	0xbd8a7d05	-0.06762127
10	0x3eb4b0c8	0.35291123
11	0x3e89b496	0.2689559
12	0xbe9b006a	-0.30273753
13	0xbe853c48	-0.26022553
14	0xbe58e31d	-0.21180387
15	0x3e37a6a8	0.17934668
16	0xbe90da5d	-0.28291598
17	0x3f4e4257	0.80569977
18	0xbda7b749	-0.08189256
19	0x3e4cbc34	0.19993669
20	0xbebb279d	-0.3655366
21	0xbf613efc	-0.8798673
22	0xbf0c9f76	-0.5493082
23	0xbf24a685	-0.6431659
24	0xbe36f658	-0.1786741
25	0x3ea7d894	0.32782423
26	0x3f2159f8	0.63027906
27	0xbe20382a	-0.15646425
28	0xbe00f10c	-0.12591952
29	0xbe197397	-0.149855
30	0x3db45e14	0.088070065
31	0x3e10b0a4	0.14129883
32	0xbdf98d93	-0.12185206
33	0x3d95b3a9	0.07309658
34	0x3dfdab4c	0.12386188
35	0xbdc56783	-0.09638884
36	0xbf04fffa	-0.5195309
37	0xbd8ae881	-0.06782628
38	0xbea87931	-0.32904962
39	0x3d749607	0.05971339
40	0x3e40a33d	0.1881227
41	0xbda3ba65	-0.07994536
42	0xbda1d23b	-0.079014264
43	0x3dca1006	0.098663375
44	0xbd906869	-0.07051165
45	0xbcc4fba2	-0.02404577
46	0xbd68cfaf	-0.056838688
47	0x3c829b00	0.01594305
48	0x3e909f34	0.28246462
49	0xbe38b08f	-0.18036102
50	0xbeb4d835	-0.35321203
51	0x3d4618ff	0.048363682
52	0xbe8b1d95	-0.27171007
53	0xbf2f9eac	-0.6860149
54	0x3e9695c7	0.29411146
55	0xbd99b1e1	-0.07504631
56	0x3eae4308	0.34035516
57	0x39884f7b	0.0002599916
58	0xbf37b2d6	-0.71757257
59	0x3f2c4106	0.6728672
60	0x3f63f0f6	0.8903955
61	0x3de6a0cd	0.11261139
62	0xbe8d4d06	-0.27597827
63	0xbec2a2dd	-0.3801488
64	0x3eb088fe	0.34479517
65	0x3cd9257b	0.02650713
66	0xbe1fbe93	-0.15600042
67	0xbdc6783e	-0.09690903
68	0x3f385dd1	0.7201815
69	0x3e4e23b0	0.20130801
70	0xbf35ebb1	-0.7106276
71	0xbe39ffe0	-0.18164015
72	0xbda93228	-0.0826152
73	0x3da02bd6	0.07820861
74	0xbe9ffba7	-0.31246683
75	0x3db782d3	0.089604996
76	0xbe3fba47	-0.18723403
77	0x3e079243	0.13239388
78	0xbde5b8da	-0.11216898
79	0x3e4a497b	0.19754593
80	0xbe356dc0	-0.17717648
81	0x3e893d80	0.26804733
82	0x3e700633	0.23439865
83	0xbd38a1d8	-0.04507622
84	0x3eb83e99	0.35985258
85	0x3e5f0ea9	0.21782936
86	0xbcf23c8c	-0.029569887
87	0xbdd8c7e6	-0.105850026
88	0xbe07b40c	-0.13252276
89	0xbeb80836	-0.35943764
90	0xbd837033	-0.06417885
91	0xbedf0fcd	-0.43566743
92	0xbe9b0a0e	-0.3028111
93	0xbc47d143	-0.012195888
94	0xbf14e61a	-0.5816361
95	0xbecd3e90	-0.40086794
96	0xbe2cd359	-0.16877498
97	0xbde47b0e	-0.11156283
98	0x3db3d58c	0.08780965
99	0x3e851eae	0.2599997
100	0xbea3b12c	-0.3197111
101	0xbe6bf134	-0.2304123
102	0x3ec39a94	0.3820387
103	0xbb0b3603	-0.002124191
104	0x3ddbcada	0.1073205
105	0x3e88274a	0.26592475
106	0x3ea6af78	0.32555747
107	0x3d680048	0.056640893
108	0xbe18db64	-0.14927441
109	0x3dcfd70c	0.10148439
110	0x3ee0f92a	0.43940097
111	0x3e9b78d6	0.30365628
112	0xbe175964	-0.14780194
113	0xbe17e20b	-0.14832322
114	0xbe1cd253	-0.15314607
115	0x3d9bc3a0	0.07605672
116	0xbed4d62d	-0.41569653
117	0x3e32c1b9	0.17456712
118	0x3dab8e2b	0.08376726
119	0xbdc0d49f	-0.09415554
120	0xc051a3b7	-3.2756174
121	0x3ed87c6f	0.42282435
122	0xbf9adef4	-1.209929
123	0xbf138e87	-0.57639354
124	0x3e4e04fb	0.20119087
125	0x3f8e0176	1.1094196
126	0xbeca705c	-0.39538848
127	0xbe26d2db	-0.16291372
128	0x3e956e66	0.2918579
129	0xbf135b58	-0.57561255
130	0x3d77eefa	0.06053064
131	0xbe261082	-0.16217235
132	0xbe1e3ec5	-0.15453632
133	0xbd39d8c0	-0.045372725
134	0x3dc10d47	0.094263606
135	0xbdb6a7aa	-0.08918698
136	0x3df0375b	0.11729308
137	0x3cef4598	0.02920799
138	0xbcdffb55	-0.027341524
139	0x3eb147df	0.34625146
140	0x3ea82333	0.32839355
141	0x3e9c8ba8	0.305753
142	0xbe07ed1e	-0.13274047
143	0x3e08df08	0.1336633
144	0x3ebdc725	0.37065998
145	0x3e7175f7	0.23580156
146	0xbfa942bb	-1.322349
147	0xbe52e301	-0.20594408
148	0xbf8c4052	-1.0957129
149	0xbe7ee8cc	-0.24893492
150	0xbe5820e5	-0.21106298
151	0xbd993030	-0.07479894
152	0xbd8b1f9a	-0.06793137
153	0xbe6f7bca	-0.23387066
154	0xbd0d405d	-0.03448521
155	0xbe294c8b	-0.16533105
156	0x3e9329e0	0.28742886
157	0xbe7aac92	-0.24479893
158	0x3d714672	0.058905073
159	0x3ebb8b02	0.36629492
160	0x3fba1ccf	1.4540042
161	0xbdfd595b	-0.12370559
162	0xbeb29bb0	-0.34884405
163	0xbf431a50	-0.76212025
164	0x3f548070	0.8300848
165	0x3e8bcf30	0.2730651
166	0xbf156673	-0.5835945
167	0x3cb782a1	0.022401156
168	0x3f9027e6	1.1262176
169	0x3f859bb8	1.0438147
170	0xbe2a3362	-0.16621163
171	0x3e170127	0.14746533
172	0xbbc06f90	-0.0058726743
173	0x3dff7cc3	0.12474968
174	0xbe81cde9	-0.2535241
175	0xbdf19c32	-0.1179737
176	0xbde64d86	-0.11245255
177	0x3e01b087	0.12664996
178	0xbd96f02c	-0.07370028
179	0xbe6ed5fe	-0.23323819
180	0x3d3f63b0	0.04672593
181	0x3c8e71cb	0.017388245
182	0x3e2528e8	0.16128886
183	0x3e3b2513	0.18275861
184	0x3e0d3a60	0.137918
185	0x3d69aa72	0.057047315
186	0xbd1a0de3	-0.0376109
187	0x3cabcc5c	0.02097147
188	0xbe005a80	-0.12534523
189	0x3d310c95	0.04322489
190	0xbe7ba822	-0.24575856
191	0xbf3749bd	-0.7159689
192	0x3d896d9b	0.06710359
193	0xbfda0480	-1.7032623
194	0xbb0d944b	-0.0021603282
195	0xbf9bb71a	-1.2165253
196	0xbd97c72f	-0.07411038
197	0x3e8a886b	0.27057204
198	0x3e8a8689	0.27055767
199	0xbf2a8504	-0.66609216
200	0xbf997b52	-1.1990759
201	0xbf12ff59	-0.5742088
202	0xbfd920e6	-1.6963165
203	0xbe8fb47f	-0.28067395
204	0xbf6f1cc3	-0.9340326
205	0x3e27426a	0.16333929
206	0x3ea40a1e	0.3203897
207	0xbf882171	-1.0635206
208	0x3e897cf4	0.26853144
209	0x3e77e9bb	0.24210255
210	0x3e4c3f01	0.19945909
211	0x3e1519ea	0.14560667
212	0x3e6ade8b	0.22936456
213	0xba5039e5	-0.0007943197
214	0x3e60b91d	0.21945615
215	0xbe3f7fb2	-0.18701056
216	0xbe0cb607	-0.13741313
217	0x3e044506	0.12916955
218	0xbd47fb00	-0.048823357
219	0x3d8cc6e6	0.06873874
220	0xbd6fb508	-0.058522254
221	0xbdc38561	-0.095469244
222	0xbd3a9c38	-0.045559138
223	0xbdd1edfa	-0.102504686
224	0xbe40b889	-0.18820395
225	0x3ca0db8d	0.01963594
226	0xbe3fb8aa	-0.18722787
227	0x3ca8a527	0.020586563
228	0xbd32e4e6	-0.043675326
229	0xbed3a68f	-0.41338012
230	0x3e297de3	0.16551928
231	0x3df49dcb	0.11944159
232	0xbeb50449	-0.35354832
233	0x3d45e148	0.048310548
234	0x3e609f68	0.21935809
235	0xbed395b3	-0.4132515
236	0x3f95f4f3	1.1715378
237	0xbee1029c	-0.43947303
238	0x3df3051d	0.1186621
239	0x3f5c1ee5	0.8598464
240	0x3d78c158	0.060731262
241	0x3d48682a	0.048927464
242	0x3e985cda	0.2975834
243	0x3d99f023	0.075165056
244	0x3e33c872	0.17556933
245	0x3e29d6a9	0.16585793
246	0x3dd5a0f7	0.10431092
247	0x3dbe1256	0.09280841
248	0x3e69e394	0.2284072
249	0x3dd14b5c	0.10219452
250	0xbfe74ebc	-1.8070903
251	0xbd36a3c8	-0.044589788
252	0xbdbbdeee	-0.0917338
253	0xbf091c10	-0.53558445
254	0xbfc41f55	-1.5322062
255	0xc0090bac	-2.1413374

layerz.0.bias f4 [80]
0	0xbec7403b	-0.3891619
1	0xbf82d91d	-1.0222508
2	0xbfa1bcb9	-1.2635719
3	0xbeb79215	-0.3585364
4	0xbf0603c5	-0.523495
5	0xbf54ce1f	-0.83127016
6	0xbf7ed5fd	-0.9954527
7	0xbf161d88	-0.5863881
8	0xbf1f8ba8	-0.62322474
9	0xbf1de70b	-0.6168067
10	0xbf4149bf	-0.7550315
11	0xbf07abae	-0.5299634
12	0xc05afaf1	-3.4215662
13	0xbe1e808d	-0.15478726
14	0xbfa5fd73	-1.2967972
15	0xbeed941d	-0.46402064
16	0xbffe8120	-1.9883156
17	0xbe9befc3	-0.3045636
18	0xbdc146cd	-0.09437332
19	0xc0259a28	-2.587534
20	0xc028e055	-2.6386921
21	0xbe81fa96	-0.25386494
22	0xbdf5a8fa	-0.1199512
23	0xc03412a2	-2.8136373
24	0xbe8f4caf	-0.27988192
25	0xc04a60b7	-3.162153
26	0xc0083d07	-2.1287248
27	0xbe70d0b3	-0.23517112
28	0xbedbb094	-0.42908156
29	0xbf3cf37f	-0.73809046
30	0xbe0614da	-0.13093892
31	0xc0113d24	-2.2693567
32	0xbe96d983	-0.29462823
33	0xbfa5994c	-1.2937407
34	0xbea392d3	-0.31947955
35	0xbfac644e	-1.346811
36	0xbfa34690	-1.2755909
37	0xbece74cf	-0.40323493
38	0xbfa40112	-1.2812827
39	0xbef4f2f1	-0.478416
40	0xc019549f	-2.3957899
41	0xbe83fb56	-0.25777692
42	0xbe9db181	-0.30799487
43	0xc00437ea	-2.0659127
44	0xbd397709	-0.045279536
45	0xc043289f	-3.0493543
46	0xbeb21c42	-0.34787184
47	0xbf94a50c	-1.1612868
48	0xc049213f	-3.1426542
49	0xbe9c9fe3	-0.30590734
50	0xbebc5bc1	-0.36788753
51	0xbfabbf43	-1.3417743
52	0xbf363b10	-0.7118387
53	0xbf1a831a	-0.60356295
54	0xbfea10a9	-1.8286334
55	0xbe8994e6	-0.26871413
56	0xbfadbda2	-1.3573496
57	0xbf66f22d	-0.9021328
58	0xc0561970	-3.3453026
59	0xbe7bc387	-0.24586307
60	0xc0033e3c	-2.0506735
61	0xbe45a987	-0.19302951
62	0xbe26156e	-0.16219112
63	0xc059db44	-3.404008
64	0xbf2414ab	-0.64094037
65	0xbf284581	-0.65731055
66	0xbe2fba27	-0.17160855
67	0xc00b1125	-2.1729214
68	0xbe9db1b2	-0.30799633
69	0xbf8f1b56	-1.1180217
70	0xbfa881d3	-1.3164619
71	0xbf4755cd	-0.77865297
72	0xbe2e283a	-0.17007533
73	0xc0005733	-2.0053222
74	0xbe8dd795	-0.2770354
75	0xbfc26eba	-1.5190041
76	0xbfe3a233	-1.7783874
77	0xbf1ef0f7	-0.62086433
78	0xc04865a4	-3.1312037
79	0xbdcc33ff	-0.09970855

layerz.1.weight f4 [10, 40]
0	0x3e01b70b	0.12667482
1	0xbda97056	-0.082733795
2	0x3e6ff768	0.23434222
3	0xbe31b26e	-0.17353222
4	0xbd4b1087	-0.04957631
5	0xbe585aa6	-0.2112833
6	0xbdbe5c88	-0.09294993
7	0xbe070b7a	-0.13187972
8	0xbdfb47e6	-0.12269573
9	0x3e4507fa	0.19241324
10	0x3e971a71	0.2951236
11	0xbe6db625	-0.23214014
12	0xbc9e0347	-0.019288672
13	0x3e2bd922	0.16782048
14	0x3c4413fb	0.011967654
15	0x3d275e95	0.040861685
16	0x3d8ca744	0.06867841
17	0xbea61844	-0.32440388
18	0xbd0f32a2	-0.034960397
19	0xbdbe4e89	-0.09292323
20	0x3e4e8d4e	0.20171091
21	0xbe427b01	-0.18992235
22	0xbc936f2b	-0.017997345
23	0xbe8f70e2	-0.2801581
24	0xbd3a4a9e	-0.045481317
25	0x3dc612a1	0.09671522
26	0x3ea98c10	0.33114672
27	0xbccea70a	-0.025226135
28	0x3e8fbd1a	0.2807396
29	0xbde950c5	-0.11392359
30	0x3d86b9de	0.0657842
31	0x3e8ca606	0.27470416
32	0xbe15d554	-0.1463216
33	0xbe1a11a4	-0.15045792
34	0xbca75175	-0.020424584
35	0x3e08a0e4	0.13342625
36	0x3dca0d6d	0.09865842
37	0xbe40dedb	-0.18835013
38	0xbdcc54b9	-0.09977097
39	0x3e28c4af	0.16481279
40	0x3daeb672	0.085308924
41	0xba64e05e	-0.0008730943
42	0xbdaa13fc	-0.08304593
43	0x3ddc8102	0.10766794
44	0x3ecd6118	0.4011314
45	0x3c79ac9a	0.015238905
46	0x3debaa4d	0.11507092
47	0x3e9a8f66	0.3018753
48	0xbe9df9c7	-0.30854627
49	0xbd9919bf	-0.07475614
50	0xbe0d968d	-0.13826962
51	0xbe7b9eb6	-0.24572262
52	0xbe12ed8b	-0.14348428
53	0xbe3c4f37	-0.18389593
54	0xbe8052cb	-0.25063166
55	0x3e3d968a	0.18514457
56	0xbd802e84	-0.06258872
57	0xbce398b7	-0.027782781
58	0xbd9fe68f	-0.078076474
59	0x3dd61413	0.104530476
60	0x3d519984	0.051171795
61	0xbedf0723	-0.43560132
62	0xbe4ff15d	-0.20306917
63	0x3da92d95	0.08260647
64	0x3cf53ca1	0.029936137
65	0xbcc011a6	-0.023445915
66	0x3dd7b644	0.10532811
67	0xbdf798a1	-0.120896585
68	0xbc97c36b	-0.0185258
69	0xbec4ad7a	-0.38413602
70	0x3d4e6121	0.050385598
71	0x3c6b7305	0.0143706845
72	0x3dfbb52e	0.12290417
73	0x3e05563c	0.13021177
74	0x3c97d04b	0.018531939
75	0xbd9dbb38	-0.07701725
76	0xbdf1b35c	-0.11801788
77	0xbeb7b3b7	-0.358793
78	0x3d8a97b8	0.06767219
79	0x3bb7cb12	0.0056089247
80	0xbe87d9b4	-0.26533282
81	0x3dc88119	0.097902484
82	0x3d00d76a	0.031455435
83	0xbe0f8c85	-0.14018448
84	0x3c91cba6	0.017797302
85	0xbe08af31	-0.1334808
86	0xbe4ae599	-0.19814147
87	0x3d29261c	0.04129611
88	0x3d83906b	0.0642403
89	0xbe83c3ae	-0.2573523
90	0x3e073c8d	0.13206692
91	0x3dce95a3	0.10087135
92	0xbe66ac59	-0.22526683
93	0xbdab35b2	-0.08359851
94	0xbd6a8156	-0.05725225
95	0xbe957553	-0.29191074
96	0x3ddf84a0	0.10913968
97	0xbc1c3cf9	-0.009536021
98	0xbda1a455	-0.07892672
99	0xbe959b81	-0.29220203
100	0x3d86edf3	0.06588354
101	0x3e939175	0.28821912
102	0xbc94caa4	-0.018163033
103	0x3e48638d	0.19569226
104	0x3db4a537	0.08820575
105	0xbd164bdd	-0.036693443
106	0x3d16283d	0.036659468
107	0x3d4f1e09	0.050565753
108	0x3e65eb19	0.22452964
109	0x3e31a4ba	0.17347994
110	0x3c820411	0.01587108
111	0x3eb71e69	0.3576539
112	0x3ce906ef	0.028445689
113	0x3d8ef1f4	0.06979743
114	0x3e633aea	0.22190443
115	0x3d719af4	0.058985665
116	0x3eab94dd	0.3351201
117	0xbe1266ef	-0.14297079
118	0x3e2ce9cd	0.16886063
119	0xbdd124e5	-0.10212115
120	0xbe4612c4	-0.19343096
121	0x3e5b0ee9	0.21392407
122	0x3dc878dd	0.09788678
123	0x3e258d96	0.16167292
124	0x3da58f20	0.080839396
125	0xbdc18421	-0.0944903
126	0x3dcb8a96	0.099385425
127	0xbe2112a4	-0.15729767
128	0xbe71b58e	-0.23604414
129	0xbeb56a29	-0.35432556
130	0x3c51fc2c	0.01281647
131	0xbe0d6b93	-0.13810568
132	0xbd976071	-0.073914416
133	0x3ea76d0e	0.3270039
134	0x3d1a2563	0.03763331
135	0xbcc962fa	-0.024583329
136	0x3cd46399	0.025926398
137	0x3e01527b	0.1262912
138	0x3d0e2e61	0.0347122
139	0xbe0570dc	-0.13031334
140	0xbdbe0967	-0.09279137
141	0xbdc8cbde	-0.098045096
142	0x3ece6722	0.4031306
143	0xbe057011	-0.13031031
144	0xbdac2312	-0.08405127
145	0xbda54103	-0.080690406
146	0x3d5ee339	0.054415915
147	0xbe9f344b	-0.31094584
148	0xbe71ebb3	-0.23625068
149	0xbc31ffff	-0.010864257
150	0x3b52a093	0.0032139167
151	0xbdbc72e8	-0.09201604
152	0xbd9fdf5b	-0.078062735
153	0xbd3a73ee	-0.045520715
154	0x3db33bfc	0.087516755
155	0x3d15e350	0.036593735
156	0xbdd3512f	-0.10318219
157	0xbc0294d9	-0.007970058
158	0x3e0e5fd9	0.1390375
159	0x3dc28616	0.09498231
160	0xbdab3b44	-0.083609134
161	0x3e42efbb	0.19036762
162	0xbe8f0153	-0.27930698
163	0xbda2e29e	-0.0795338
164	0x3dd668d5	0.10469214
165	0xbd1f25a0	-0.03885424
166	0xbe8b1590	-0.27164888
167	0xbe1048d2	-0.14090279
168	0x3e56b1b2	0.20966223
169	0xbc01b9ca	-0.007917831
170	0x3e77ad7e	0.24187276
171	0x3e23b469	0.1598679
172	0xbd993c8a	-0.0748225
173	0x3d9aeb68	0.075644314
174	0x3e287740	0.1645174
175	0x3d9cf284	0.07663444
176	0x3ebc4c54	0.36776984
177	0x3e24587a	0.16049376
178	0xbe6f55e8	-0.23372614
179	0x3e979938	0.29609084
180	0xbd9dc2c6	-0.07703166
181	0x3c7a89b4	0.01529162
182	0xbde382a6	-0.111089036
183	0xbdf39f1c	-0.11895582
184	0xbe111c4a	-0.14170948
185	0xbe86ff46	-0.26366633
186	0x3e295d50	0.16539502
187	0xbe4f2632	-0.20229414
188	0x3cbf4cb4	0.023352005
189	0x3e75d9e4	0.240089
190	0xbd779dae	-0.06045311
191	0xbdc9b170	-0.09848297
192	0x3eadcdd6	0.33946103
193	0x3e03fefd	0.12890239
194	0x3dc1d806	0.09465031
195	0xbe52dcfa	-0.20592108
196	0x3e240092	0.16015843
197	0x3dd2db65	0.102957524
198	0x3e72e54b	0.23720281
199	0x3e242eea	0.16033521
200	0x3de264d6	0.11054389
201	0x3db468a4	0.08809021
202	0xbd9fc945	-0.07802061
203	0xbdcbfc8b	-0.09960278
204	0x3e03825b	0.12842695
205	0xbe7c89ee	-0.24661991
206	0xbddca1c6	-0.10773043
207	0xbdea7ad5	-0.114492096
208	0xbced5172	-0.0289695
209	0xbd1beafa	-0.038065888
210	0xbdbb552c	-0.091471046
211	0x3e738646	0.2378169
212	0xbe6e8dec	-0.23296326
213	0x3db96bb6	0.09053747
214	0xbd223383	-0.039599907
215	0xbdba2361	-0.09088779
216	0xbe5506c1	-0.20803358
217	0xbddee1bb	-0.108828984
218	0xbe633221	-0.22187091
219	0x3e447189	0.19183935
220	0x3d1b72b5	0.03795119
221	0xbe3d503e	-0.18487641
222	0xbc210870	-0.009828672
223	0x3d00fe87	0.031492736
224	0xbccb69a6	-0.02483065
225	0xbb7c6dba	-0.003851755
226	0x3e3c80dc	0.18408531
227	0x3e7445ff	0.23854826
228	0xbd9d9fe1	-0.0769651
229	0xbea3ae89	-0.31969097
230	0x3e0c46a6	0.13698825
231	0x3e2e85a6	0.1704317
232	0xbe05806e	-0.13037273
233	0x3d283c25	0.041072983
234	0xbe15c6a3	-0.14626555
235	0x3eb497a6	0.3527195
236	0x3dd94258	0.10608357
237	0x3d2445b6	0.040105544
238	0xbe0f99e6	-0.14023551
239	0x3e97216c	0.29517686
240	0x3e264838	0.16238487
241	0xbebe38c5	-0.37152687
242	0x3d837896	0.06419484
243	0xbe394288	-0.18091786
244	0xbe0e49c3	-0.13895325
245	0xbb9f85d1	-0.004868247
246	0xbe0ecfff	-0.13946532
247	0x3e4b7d74	0.19872075
248	0xbeabd8b0	-0.33563757
249	0x3d79fd99	0.061032865
250	0xbe8f5616	-0.27995366
251	0x3cccdebc	0.025008552
252	0xbec50450	-0.38479853
253	0xbc54387f	-0.012952923
254	0xbcc8bc1c	-0.02450376
255	0xbd91a7bf	-0.07112073

layerz.1.bias f4 [10]
0	0xbd520913	-0.051278185
1	0x3db7b1f3	0.08969488
2	0x3d8c906c	0.06863484
3	0xbca2420f	-0.01980689
4	0x3bab2ada	0.005223614
5	0x3d6860b2	0.05673284
6	0x3d96d77a	0.07365318
7	0xbd5900c6	-0.052979253
8	0xbc695a81	-0.014242769
9	0x3cbca932	0.023029897

mlr.weight f4 [16, 40]
0	0x3ef2896d	0.47370473
1	0xbc409d7e	-0.011756299
2	0x3c887463	0.01665706
3	0xbd9c4077	-0.07629483
4	0xbe00a570	-0.1256311
5	0xbdc1ba58	-0.094593704
6	0x3c41acd9	0.011820995
7	0xbe212577	-0.15736948
8	0x3ea8c845	0.32965294
9	0x3c4cc34a	0.012497732
10	0x3e562976	0.20914254
11	0x3c3f8c21	0.011691124
12	0xbe3b10b5	-0.18268092
13	0xbf2428e9	-0.64124924
14	0x3d903d18	0.07042903
15	0xbf21b3f4	-0.6316521
16	0x3e950bad	0.2911047
17	0x3ead569a	0.33855134
18	0xbe64b19f	-0.22333382
19	0x3d1b370d	0.037894297
20	0x3dc9f432	0.0986103
21	0x3e1827ff	0.14859007
22	0x3d12494a	0.035714425
23	0xbe2c74d4	-0.16841441
24	0x3e5061d8	0.20349824
25	0xbcaa13de	-0.020761427
26	0xbe1adeee	-0.15124103
27	0xbdb65e82	-0.08904745
28	0xbe4e5364	-0.20148998
29	0xbdc710e7	-0.09720021
30	0xbcfca5b8	-0.03084074
31	0xbe1898f6	-0.149021
32	0x3eb5df63	0.35521993
33	0xbd059d71	-0.03262085
34	0xbcb6588a	-0.022259016
35	0x3dc107e8	0.09425336
36	0xbdf6b820	-0.12046838
37	0x3e3d0b52	0.1846135
38	0xbd8dcd20	-0.0692389
39	0x3e8c9f09	0.27465084
40	0x3e06ddd3	0.13170557
41	0x3be2b8f6	0.0069190217
42	0x3ea8a022	0.32934672
43	0x3ddb4a27	0.10707503
44	0x3e99f528	0.30069852
45	0x3c7a1c20	0.015265495
46	0xbe8e2ccb	-0.2776855
47	0xbe46487b	-0.19363587
48	0x3e62d9ab	0.22153346
49	0xbe688138	-0.22705543
50	0xbe915bc4	-0.28390324
51	0x3e5ea71b	0.21743433
52	0x3da3ad7d	0.07992075
53	0xbe799233	-0.24372177
54	0x3d82d050	0.06387389
55	0x3effb79b	0.49944767
56	0xbdf7e1fb	-0.12103649
57	0xbe5f1da8	-0.21788657
58	0x3d2f9f02	0.04287625
59	0x3d9214df	0.07132887
60	0x3d844caf	0.06459939
61	0xbeb3f38f	-0.35146758
62	0xbda615f0	-0.08109653
63	0x3e860555	0.26175943
64	0x3e062646	0.13100538
65	0x3e27e1c7	0.16394721
66	0x3e56a94c	0.20963019
67	0xbe80d35d	-0.25161257
68	0xbe4624c1	-0.19349958
69	0x3e8888a9	0.26666763
70	0x3e865948	0.2623999
71	0xbb7cf380	-0.0038597286
72	0x3e35b95e	0.17746493
73	0xbb96349d	-0.0045839087
74	0x3e4c29d9	0.19937839
75	0xbd5b8f11	-0.053603236
76	0xbe06daee	-0.13169453
77	0x3cb6e928	0.022327974
78	0x3e241bdb	0.16026251
79	0xbc9e6091	-0.019333156
80	0xbeef6ae0	-0.46761227
81	0xbec09dd0	-0.376204
82	0x3e109cd1	0.1412232
83	0x3d61e65a	0.05515132
84	0xbe1a23d3	-0.15052728
85	0xbb0f86a9	-0.0021900332
86	0xbe909a72	-0.28242832
87	0xbe05d859	-0.13070811
88	0xbdd83019	-0.10556049
89	0x3e888a85	0.26668182
90	0x3d61b365	0.055102725
91	0xbebe0e27	-0.37120172
92	0xbe3b23c6	-0.18275365
93	0x3e1c754d	0.15279122
94	0xbe9fa53b	-0.31180748
95	0xbe6847a7	-0.22683583
96	0x3ee7475c	0.4517163
97	0x3d5b5c16	0.053554617
98	0xbdb2e73c	-0.08735511
99	0x3de53633	0.11191978
100	0xbe9dec33	-0.30844268
101	0xbe3aec18	-0.18254125
102	0x3e050276	0.1298922
103	0x3e700e9c	0.23443073
104	0xbd7505a9	-0.05981985
105	0x3dee1a74	0.11626139
106	0x3d286b4f	0.041117962
107	0x3e5ff6d5	0.21871503
108	0x3e25c8e6	0.16189918
109	0xbebd8c2e	-0.3702101
110	0x3d5c03ec	0.053714678
111	0xbdbb84c7	-0.09156185
112	0x3e45c45f	0.19313191
113	0x3ea00470	0.31253386
114	0x3e339c0d	0.17539997
115	0x3c469237	0.012119821
116	0x3e405b6c	0.18784875
117	0x3c5b2b36	0.0133770015
118	0xbe2ac9bf	-0.16678523
119	0xbd958b3f	-0.0730195
120	0x3d3f3e57	0.04669031
121	0x3e1accf5	0.15117247
122	0xbe1d2f8c	-0.15350169
123	0xbe2a8d50	-0.16655469
124	0xbd82e7ee	-0.06391893
125	0xbdd8d4a9	-0.10587437
126	0xbe1a0e45	-0.15044506
127	0x3e60bca9	0.21946968
128	0x3ae72fd3	0.0017638154
129	0xbe0b3d98	-0.13597715
130	0x3e81fa85	0.25386444
131	0xbd975e73	-0.07391062
132	0x3e2cd450	0.16877866
133	0xbe02c5ef	-0.12770818
134	0xbef32def	-0.47495982
135	0x3e947f04	0.29003155
136	0x3e08ce39	0.13359918
137	0xbedc8137	-0.43067333
138	0xbda1f9a6	-0.07908945
139	0xbf07d305	-0.53056365
140	0x3e9205d9	0.28520086
141	0x3d0030a3	0.031296384
142	0xbe13ee64	-0.14446408
143	0xbd120004	-0.035644546
144	0x3e61c515	0.22047837
145	0x3c54f4c9	0.012997814
146	0xbda953f0	-0.08267963
147	0xbcfcd2a7	-0.030862166
148	0x3c89cdeb	0.016821822
149	0xbc93099e	-0.017948922
150	0xbe862555	-0.26200357
151	0x3cf7ddf5	0.030257205
152	0x3e5b7537	0.21431433
153	0xbe88758a	-0.26652175
154	0xbd09368f	-0.033499297
155	0x3e3138c8	0.17306817
156	0xbd8cb80e	-0.06871043
157	0x3e836fdf	0.25671288
158	0x3eee09de	0.46491903
159	0x3e33305f	0.17498921
160	0x3e0592f6	0.13044342
161	0xbde7464a	-0.112927034
162	0x3e8be905	0.27326217
163	0xbd18b715	-0.037283976
164	0xbe086595	-0.1332
165	0x3e571dae	0.21007416
166	0x3da70777	0.08155721
167	0xbe87fbbf	-0.26559255
168	0xbd7f5c03	-0.06234361
169	0xbe88a800	-0.26690674
170	0xbe511162	-0.20416787
171	0xbe9257b0	-0.28582525
172	0x3e56bf96	0.20971522
173	0xbe5eaafb	-0.21744911
174	0xbd32d04d	-0.043655682
175	0xbe38bb61	-0.1804023
176	0xbeadb8ec	-0.33930147
177	0x3e0c1def	0.13683294
178	0x3e42b2fd	0.19013591
179	0x3f2ec98f	0.68276304
180	0xbdf8e109	-0.12152297
181	0x3e5c8f06	0.21538934
182	0x3e9f3a4e	0.3109917
183	0xbefb7227	-0.4911053
184	0x3eb66659	0.3562496
185	0x3d7cd95b	0.061730724
186	0xbdfa73de	-0.12229131
187	0xbe95e3d1	-0.29275373
188	0xbe92f05e	-0.2869901
189	0xbe7d63a7	-0.24745046
190	0xbe31e8ea	-0.17374006
191	0x3c57a352	0.013161497
192	0xbe05d3e8	-0.13069117
193	0x3f3ddbf8	0.7416377
194	0xbdc8b1e4	-0.09799555
195	0xba737bd1	-0.00092881644
196	0xbe54bd2b	-0.20775287
197	0xbeabdaca	-0.3356536
198	0xbe2191fd	-0.15778346
199	0x3ede301b	0.43396077
200	0xbdb52dc3	-0.08846619
201	0xbd43993c	-0.047753558
202	0x3e4e1e4d	0.20128746
203	0x3c7404ec	0.014893752
204	0xbd95ba42	-0.073109165
205	0xbe343d49	-0.17601503
206	0xbd3fe8a1	-0.04685271
207	0x3de195ac	0.11014876
208	0x3d5d1931	0.053979103
209	0xbe9c3399	-0.30508116
210	0x3ef158cc	0.4713806
211	0x3d4496f5	0.047995526
212	0x3b68fa83	0.0035549707
213	0x3e917e33	0.28416595
214	0xbf03a52f	-0.51423925
215	0xbec354d1	-0.38150647
216	0x3e0d2eb5	0.13787349
217	0x3e0c1330	0.13679194
218	0x3eab89c1	0.33503535
219	0x3e9edcb4	0.31027758
220	0x3ceac281	0.0286572
221	0x3cfaac01	0.030599596
222	0x3cc95fbd	0.024581784
223	0xbdafb442	-0.08579303
224	0x3dc4da32	0.0961193
225	0xbdb056f9	-0.08610339
226	0xbaffb5ea	-0.0019509171
227	0xbe157a5d	-0.14597459
228	0x3d8a72db	0.06760188
229	0x3d8ebec3	0.06969979
230	0xbe89b262	-0.26893908
231	0x3d641532	0.055684276
232	0xbde09622	-0.109661356
233	0x3e9f763b	0.3114489
234	0x3dd107ef	0.10206591
235	0x3e90df9c	0.282956
236	0xbdab23e7	-0.08356457
237	0xbedd7f03	-0.43260965
238	0xbe8b9a16	-0.27265996
239	0xbdfd5922	-0.12370516
240	0x3d9f04cf	0.07764589
241	0xbe079966	-0.1324211
242	0xbde8f14e	-0.1137415
243	0xbcbbc1af	-0.022919504
244	0xbdf28837	-0.11842387
245	0xbdc2b5ff	-0.09507369
246	0x3ed3674e	0.41289753
247	0x3e44bdf3	0.19213085
248	0xbb7061e5	-0.0036679443
249	0x3d35b371	0.04436058
250	0x3d157313	0.036486696
251	0xbe899d6a	-0.2687791
252	0x3f034dcf	0.512906
253	0x3ceb960b	0.02875807
254	0x3ea23479	0.31680658
255	0x3e792469	0.24330296

mlr.bias f4 [16]
0	0xbd6c558b	-0.057698768
1	0xbe51c177	-0.20483957
2	0x3f1c4a16	0.61050546
3	0x3da70430	0.081550956
4	0x3de6962b	0.11259111
5	0x3e53b27c	0.20673555
6	0xbe821fde	-0.25414938
7	0xbe8a6744	-0.2703191
8	0x3d98151d	0.07425902
9	0xbe86c941	-0.2632542
10	0x3e988cdd	0.2979497
11	0xbe17a76e	-0.14809963
12	0xbe7bb317	-0.24580036
13	0xbeaf96f2	-0.3429485
14	0x3e822541	0.25419047
15	0xbc8d6a20	-0.017262518

layer.0.weight f4 [80, 20]
0	0x3eca4fb5	0.39513937
1	0x3d7dc1a7	0.06195226
2	0xbe79ce61	-0.24395134
3	0xbe214ff5	-0.15753157
4	0x3c0c65b3	0.008569169
5	0xbd6a7d75	-0.05724855
6	0x3e91bc23	0.2846385
7	0xbdef065e	-0.11671136
8	0x3b37e986	0.0028062775
9	0xbd8d48c5	-0.06898645
10	0x3e8d74b4	0.276281
11	0xbf63f590	-0.89046574
12	0x3e3a94e8	0.18220866
13	0xbf55383b	-0.83288926
14	0x3d9ae06c	0.07562336
15	0xbf1031b3	-0.56325835
16	0xbe30498f	-0.1721556
17	0xbf2c514c	-0.6731155
18	0x3f0723c4	0.5278895
19	0xbf9f47f5	-1.2443835
20	0xbe1a3d16	-0.15062365
21	0xbd9814b4	-0.07425824
22	0x3df367fa	0.11885066
23	0x3e20c7e6	0.15701255
24	0xbd982a94	-0.07429996
25	0xbc632eb1	-0.013866113
26	0xbde84381	-0.11341
27	0xbc5f75d0	-0.0136389285
28	0x3da3d8ba	0.08000322
29	0xbd471fe1	-0.048614386
30	0xbe1a099b	-0.15042727
31	0x3ddafc6d	0.10692678
32	0xbdbbc9a3	-0.091693185
33	0x3e14dcd9	0.14537372
34	0x3ddd8d50	0.10817969
35	0x3e2d67ed	0.16934176
36	0x3ccc49b6	0.024937492
37	0x3e2856f4	0.1643942
38	0xbd3dd43a	-0.046344973
39	0x3e8a5eca	0.27025443
40	0x3f3ed3f8	0.7454219
41	0x3f14d4b6	0.5813707
42	0xbf87cb99	-1.0609008
43	0xbe40a172	-0.18811586
44	0xbe84a4be	-0.25906938
45	0xbc1bd231	-0.009510563
46	0x3e2d4d97	0.1692413
47	0x3eb4c4ac	0.353063
48	0x3d58e420	0.052951932
49	0xbd73b91c	-0.059502706
50	0x3f214b9b	0.6300599
51	0xbf116c4e	-0.56805885
52	0xbdb5d688	-0.08878809
53	0xbd80720f	-0.06271755
54	0xbd976aff	-0.07393455
55	0xbd81fb7d	-0.06346796
56	0xbe1a4be5	-0.15068014
57	0x3e7f2f10	0.24920297
58	0x3d48e0e2	0.04904259
59	0xbd307f88	-0.043090373
60	0xbd5e54b6	-0.054280005
61	0xbe58384e	-0.21115229
62	0x3f20a299	0.62748104
63	0x3e365f16	0.1780971
64	0x3e341aad	0.17588301
65	0x3e1a23ea	0.15052763
66	0xbe788ab7	-0.24271666
67	0xbe260e1d	-0.16216321
68	0x3d816fa0	0.06320119
69	0xbdda604e	-0.106629
70	0xbeecb28e	-0.46229976
71	0x3e44e113	0.19226484
72	0xbd4fa01d	-0.050689805
73	0x3c940af3	0.018071627
74	0x3e3c6f3c	0.18401808
75	0x3cc2b96c	0.023770057
76	0x3c8ebae7	0.017423106
77	0xbe1e4461	-0.15455772
78	0x3d04a64d	0.03238516
79	0x3db57a40	0.08861208
80	0x3eb7dc99	0.3591049
81	0xbe028d23	-0.12749152
82	0xbefb8c8e	-0.49130672
83	0xbe2fc101	-0.17163469
84	0xbe2b4a57	-0.16727577
85	0x3e305619	0.17220344
86	0x3e0e798b	0.13913552
87	0x3e4e42de	0.20142695
88	0x3e02f29e	0.12787864
89	0xbddc7e38	-0.10766262
90	0x3e180e60	0.14849234
91	0xbb80bb80	-0.0039286017
92	0x3f21fcec	0.63276553
93	0xbefe038d	-0.49612084
94	0xbe4a62c4	-0.19764239
95	0xbd33854d	-0.043828297
96	0xbc8c2436	-0.01710711
97	0x3d988736	0.074476644
98	0xbd44f601	-0.04808617
99	0xbc2fec52	-0.0107374955
100	0xbf44359e	-0.76644313
101	0xbd43ef71	-0.04783577
102	0xbee877ab	-0.454038
103	0xc01018a3	-2.2515037
104	0xbc8aa8cb	-0.01692619
105	0xbef2064b	-0.47270426
106	0x3fbdc76a	1.4826481
107	0x3e990df6	0.29893464
108	0xbfac7577	-1.3473347
109	0x3f8c3b45	1.0955588
110	0x3e36cc59	0.1785139
111	0x3d4be3bb	0.049777728
112	0x3df15001	0.11782838
113	0xbeeff47f	-0.46866223
114	0xbee2b19f	-0.4427614
115	0x3dfe674a	0.124220446
116	0x3d3e9684	0.04653026
117	0xbe02c5d2	-0.12770775
118	0x3da68942	0.081316486
119	0x3d5de5e9	0.054174338
120	0x3ed984d6	0.42484158
121	0xbf112120	-0.5669117
122	0xbf00c253	-0.50296515
123	0x3db594a0	0.088662386
124	0xbec2ef9b	-0.3807343
125	0x3f1b5876	0.60681856
126	0x3ed54200	0.41651917
127	0xbecdb0fb	-0.40174088
128	0x3dd3572d	0.10319362
129	0xbdd2e8e2	-0.10298325
130	0xbf0b6898	-0.5445647
131	0xbeaf4a3b	-0.3423632
132	0x3e11ceab	0.14238994
133	0xbd355544	-0.04427077
134	0x3e4098c3	0.18808274
135	0x3e6d38fd	0.2316627
136	0x3dd5abb2	0.10433139
137	0xbcb1b470	-0.021692485
138	0xbd03a4e6	-0.03213968
139	0x3c6a638d	0.014305961
140	0x3f6ab22e	0.9167813
141	0x3f4f91e2	0.81081975
142	0x3efbe8c7	0.49201033
143	0xbc8485f0	-0.016177148
144	0x3f6ddbaf	0.92913336
145	0xbe36d856	-0.17855963
146	0xc01baee1	-2.4325488
147	0xbf047788	-0.5174489
148	0xc004f1d3	-2.0772598
149	0x3e3a6b90	0.18205094
150	0xbef8a3f1	-0.48562577
151	0xbede0f44	-0.43371022
152	0x3bd7f780	0.0065907836
153	0x3e291dea	0.16515318
154	0x3c6cb9f8	0.014448635
155	0x3e40c63e	0.18825623
156	0x3d2381ad	0.03991859
157	0xbe3f80f6	-0.18701538
158	0xbd83deac	-0.06438956
159	0x3d57c3dc	0.05267702
160	0x3ee5fbdb	0.44918713
161	0x3e8466e3	0.25859746
162	0x3d1b47f4	0.037910417
163	0xbe0c9bb4	-0.13731271
164	0x3e4c5ee4	0.19958073
165	0x3e7f701e	0.24945113
166	0xbe82470c	-0.2544483
167	0x3cb045ec	0.021517716
168	0xbe76c530	-0.24098659
169	0x3bbeaf67	0.0058192494
170	0xbeee5d25	-0.4655544
171	0xbec3e03c	-0.38257015
172	0x3e1dcb6e	0.15409634
173	0xbe5aba4b	-0.21360128
174	0x3d07559b	0.033040624
175	0x3d68f1c2	0.056871183
176	0x3d81f74b	0.063459955
177	0xbce7ab4e	-0.028279927
178	0x3d068de6	0.03285017
179	0x3dc318dc	0.09526226
180	0x3f857584	1.0426488
181	0xc09259f3	-4.57348
182	0xbf59a806	-0.8502201
183	0x3f19cd27	0.6007866
184	0xbfadff4f	-1.3593539
185	0x40098463	2.1487052
186	0xbdd7c9b2	-0.10536517
187	0x3f05d2ac	0.52274585
188	0xbe1e4f1e	-0.15459868
189	0xbf307140	-0.68922806
190	0xbf3b0861	-0.7305966
191	0xbed6ba48	-0.41938996
192	0x3e5d15c0	0.21590328
193	0xbeadce51	-0.3394647
194	0xbe110d19	-0.14165153
195	0xbea1d3f0	-0.31607008
196	0x3e0977bc	0.13424581
197	0xbd962e8d	-0.073330976
198	0x3e0fd5f8	0.14046466
199	0xbdf4821e	-0.119388804
200	0x4043d5e3	3.0599296
201	0x3dafc3c4	0.08582261
202	0xbf8f0cb1	-1.1175748
203	0xbf488720	-0.78331184
204	0x3f11a156	0.56886804
205	0x3f4f98e0	0.81092644
206	0xbfa4ac8a	-1.2865155
207	0x3ef89de8	0.48557973
208	0x3fc2d1fb	1.5220331
209	0x3fd15528	1.6354113
210	0xbe49c088	-0.19702351
211	0xbf001409	-0.5003057
212	0x3e89491a	0.26813585
213	0xbe0837d8	-0.13302553
214	0xbf0425a9	-0.51619965
215	0x3ca6426f	0.02029535
216	0xbe682920	-0.22671938
217	0xbdb64a52	-0.08900894
218	0x3c457ccd	0.012053681
219	0x3d844589	0.06458575
220	0xbedf5832	-0.43621975
221	0x3e7fa7fa	0.24966422
222	0xbe7c9b07	-0.24668513
223	0xbe0935f4	-0.13399488
224	0xbef858fb	-0.48505387
225	0xbddaf054	-0.1069037
226	0x3d1ab684	0.037771717
227	0x3e152de1	0.14568283
228	0x3d0a3e3c	0.033750758
229	0x3e3802c4	0.17969805
230	0x3d8a7125	0.06759862
231	0xbed31010	-0.41223192
232	0x3e71a94a	0.23599735
233	0x3da24af6	0.07924454
234	0xbe425767	-0.18978654
235	0x3dfe3ffb	0.12414547
236	0xbdaa5a4d	-0.08318005
237	0xbdc9edd6	-0.09859817
238	0x3d499a99	0.0492197
239	0x3d5861a4	0.052827492
240	0x3e7746a8	0.24148047
241	0x3e4ef62d	0.20211096
242	0xbdec237b	-0.11530205
243	0x3e9f5da0	0.31126118
244	0x3d264ab8	0.0405986
245	0xbda159a1	-0.078784235
246	0x3e7a9570	0.24471068
247	0x3e2cf9be	0.16892144
248	0x3e1257fd	0.14291377
249	0x3db7f000	0.08981323
250	0x3c118001	0.008880616
251	0xbed2a138	-0.41138625
252	0x3db13687	0.086529784
253	0x3db0e299	0.0863697
254	0x3ddda83e	0.10823105
255	0xbdf0d099	-0.11758537

layer.0.bias f4 [80]
0	0xbfbc9c1a	-1.4735138
1	0xbec59875	-0.38592878
2	0xbf5d07a3	-0.8633978
3	0xbf61e6b2	-0.8824264
4	0xbf05dd55	-0.5229085
5	0xc003be3a	-2.0584855
6	0xbfaf682e	-1.3703668
7	0xbfd4b44a	-1.661752
8	0xbece6b14	-0.4031607
9	0xc07a32e0	-3.9093552
10	0xc01d88fb	-2.4614856
11	0xbf3ce882	-0.7379228
12	0xbec25fdf	-0.3796377
13	0xbfc01d1a	-1.5008881
14	0xbf19df4c	-0.6010635
15	0xbf69ddf1	-0.9135428
16	0xbf7fde2d	-0.9994839
17	0xbef8a969	-0.4856675
18	0xbf284b82	-0.65740216
19	0xbf565a6b	-0.83731717
20	0xc067f5ef	-3.6243856
21	0xbeddd07c	-0.43323123
22	0xbf393fd8	-0.7236304
23	0xbf4242f5	-0.7588342
24	0xbef5e090	-0.4802289
25	0xbf5f2be5	-0.8717635
26	0xbf8229b7	-1.016898
27	0xbf4800d7	-0.7812628
28	0xbee80580	-0.45316696
29	0xbf6c80c1	-0.9238396
30	0xbf16c148	-0.58888674
31	0xbf6fbfd1	-0.93652064
32	0xbf09069d	-0.53525716
33	0xbfac8f0b	-1.3481153
34	0xbea67650	-0.3251214
35	0xbfaafd83	-1.3358616
36	0xc0549846	-3.321794
37	0xbe63abd0	-0.2223351
38	0xbebf2cd8	-0.373389
39	0xbff0354a	-1.8766263
40	0xbed9af27	-0.42516443
41	0xbfe30d60	-1.7738457
42	0xbf7a74e5	-0.97834617
43	0xbf41e9aa	-0.7574717
44	0xbf3d40ce	-0.7392701
45	0xbf8518f2	-1.0398238
46	0xbf355a8e	-0.708413
47	0xbf827c5a	-1.0194199
48	0xc04a90bb	-3.1650836
49	0xbf80f7fd	-1.007568
50	0xbeedc009	-0.46435574
51	0xbf7dba6c	-0.9911258
52	0xbfeaae95	-1.8334528
53	0xbe938422	-0.28811747
54	0xbe3336c0	-0.17501354
55	0xc00c0a75	-2.1881382
56	0xbfeccd96	-1.850024
57	0xbf8670f1	-1.0503217
58	0xbf63d830	-0.8900175
59	0xbf120794	-0.57042813
60	0xbf369c7d	-0.7133253
61	0xbf3b485c	-0.73157287
62	0xbf556c00	-0.8336792
63	0xbf31bde9	-0.69430405
64	0xbfb1e8b7	-1.3899144
65	0xbef18987	-0.47175238
66	0xbf5ee4f4	-0.87068105
67	0xbf6bf93d	-0.9217718
68	0xbf90f2b0	-1.1324062
69	0xbf0a25cf	-0.5396394
70	0xc013ebd0	-2.3112679
71	0xbe49c933	-0.19705658
72	0xbe20e0a8	-0.157107
73	0xc05ed8a7	-3.4819734
74	0xc040811d	-3.0078804
75	0xbe31d895	-0.17367776
76	0xbea09e20	-0.3137064
77	0xbfa99326	-1.3248031
78	0xbf30a8ba	-0.69007456
79	0xbf210d13	-0.62910575
