storage/model-itcl/model.pt (torch, 37889 bytes, 30 tensors)

layer.0.weight f4 [40, 10]
0	0x3dfc4d68	0.123194516
1	0x3f4d4d0e	0.801957
2	0xbd0f2a9d	-0.03495275
3	0x3f5ea9f0	0.86978054
4	0x3f8337ef	1.0251445
5	0xbf64f576	-0.89437044
6	0xbf7af96e	-0.9803685
7	0xbeea7ed9	-0.45799902
8	0xbf8d67a6	-1.1047256
9	0xbe693d25	-0.22777231
10	0xbe9adbf5	-0.3024594
11	0xbf3a108e	-0.7268151
12	0x3dd6fb66	0.10497169
13	0xbf0e4315	-0.5557111
14	0xbf1fb1b5	-0.62380534
15	0x3f36b042	0.713627
16	0x3f293474	0.6609566
17	0x3f09a676	0.53769624
18	0x3f936a5b	1.1516832
19	0x3e81dc81	0.25363544
20	0x3d0bd320	0.03413689
21	0xbf453cb4	-0.7704575
22	0x3f9ab576	1.2086627
23	0xbec1f29a	-0.37880403
24	0xbeb8d890	-0.36102724
25	0xbf7ff122	-0.99977314
26	0xbf264351	-0.64946467
27	0xbee61656	-0.44938916
28	0xbfe45494	-1.7838311
29	0xbf6cfcc8	-0.92573214
30	0x3d266841	0.040626768
31	0x3f345849	0.7044721
32	0xbf1650f2	-0.5871726
33	0x3e15b82b	0.14621036
34	0x3d900ef8	0.07034105
35	0x3ef6936a	0.48159343
36	0x3f3fcf3e	0.749256
37	0xbd04f871	-0.032463495
38	0x3f276276	0.65384614
39	0x3f21e34d	0.6323746
40	0xbeda4c09	-0.42636135
41	0xbe32dbd7	-0.17466675
42	0xbec4d9f1	-0.38447526
43	0x3ee2b1a5	0.44276157
44	0xbe307480	-0.17231941
45	0xbf417128	-0.7556329
46	0xbc823d5c	-0.015898399
47	0x3e9126b8	0.28349853
48	0x3f1a9d19	0.6039596
49	0x3f1fb38a	0.6238333
50	0x3f4e16d8	0.80503607
51	0x3f27bb86	0.65520513
52	0x3efae882	0.49005514
53	0x3d94bf57	0.07263058
54	0x3f0550ea	0.5207659
55	0x3f9ae8c4	1.2102284
56	0x3e068f80	0.13140678
57	0xbee6ea56	-0.4510066
58	0xbed245ae	-0.41068786
59	0xbf868c20	-1.0511513
60	0x3f056274	0.5210335
61	0x3e572726	0.21011028
62	0xbe469f5d	-0.1939673
63	0xbd31812c	-0.04333608
64	0x3f52b4ad	0.8230694
65	0x3d644f20	0.055739522
66	0xbf56cb58	-0.8390403
67	0xbf84831e	-1.0352514
68	0xbff4eac5	-1.9134146
69	0xbea48f99	-0.32140806
70	0xbe4e5362	-0.20148996
71	0xbf025e98	-0.5092559
72	0xbdbf2bf0	-0.09334552
73	0xbdf31edc	-0.1187112
74	0xbf38f16b	-0.72243375
75	0x3e1dff7e	0.15429494
76	0x3ed2f0d9	0.41199377
77	0x3f130525	0.57429725
78	0x3f9188f6	1.1369922
79	0x3eed31f3	0.4632717
80	0x3db31262	0.087437406
81	0x3f4e8011	0.80664164
82	0xbe8718c1	-0.26386073
83	0xbf943781	-1.1579438
84	0xbebcba32	-0.36860806
85	0xbf5b0eb2	-0.855693
86	0x3f3eb26b	0.74490994
87	0xbf954fda	-1.1664994
88	0xbe5d1bfe	-0.2159271
89	0xbed9e23e	-0.42555422
90	0xbea0a423	-0.31375226
91	0xbf19e015	-0.6010755
92	0xbeb27f56	-0.34862775
93	0x3e7a3058	0.24432504
94	0x3e9f6670	0.3113284
95	0x3e9510a7	0.29114267
96	0xbea5796d	-0.32319203
97	0x3e8ab90a	0.270943
98	0x3db5655a	0.08857222
99	0xbdc07e66	-0.093991086
100	0x3d4614d6	0.048359714
101	0xbf7f2319	-0.9966293
102	0xbfa5680d	-1.2922379
103	0xbf0c6365	-0.54839164
104	0xbfb14d51	-1.385172
105	0x3e021bee	0.12705967
106	0xbf94f968	-1.1638613
107	0x3f0972f1	0.5369101
108	0x3f4a2709	0.7896581
109	0xbe1d840e	-0.15382406
110	0x3ea44d53	0.32090244
111	0x3eff717d	0.49891272
112	0x3f21b4d4	0.63166547
113	0xbde3a8e1	-0.111161955
114	0x3f47a61a	0.77987826
115	0x3e16b20b	0.14716356
116	0x3f48c51b	0.7842576
117	0xbf02ab7b	-0.5104291
118	0xbf1937e6	-0.5985092
119	0x3ec9a7aa	0.3938573
120	0x3f002cee	0.5006856
121	0xbedcf382	-0.43154532
122	0xbf162f9f	-0.58666414
123	0xbd1ead82	-0.03873969
124	0xbf1558f1	-0.5833884
125	0x3defd9f1	0.11711491
126	0x3f307e47	0.68942684
127	0xbf50d79e	-0.81579006
128	0x3ec772a2	0.38954645
129	0x3e3243a6	0.17408618
130	0xbf78b605	-0.9715274
131	0x3f8de807	1.1086434
132	0xbde28e5c	-0.11062309
133	0xbf736d01	-0.950882
134	0x3f24b351	0.64336115
135	0xbda2dea0	-0.079526186
136	0xbfb5c088	-1.4199381
137	0x3f0aab57	0.54167694
138	0xbea47af7	-0.32125065
139	0xbe9852d0	-0.2975068
140	0x3edfdb94	0.43722212
141	0xbee2c0cd	-0.4428772
142	0x3e3882b1	0.18018605
143	0xbf5f6ca7	-0.87275165
144	0xbf50b1d3	-0.8152134
145	0x3f7ab724	0.979357
146	0x3f2f9aac	0.68595386
147	0xbeba7176	-0.3641469
148	0x3f6a8c39	0.9162021
149	0x3bec0c17	0.0072035897
150	0xbe897a6b	-0.2685121
151	0x3f4d0ae1	0.80094725
152	0xbe27355b	-0.16328947
153	0x3f2eea4b	0.6832625
154	0x3eb77f00	0.3583908
155	0xbf5388ba	-0.82630503
156	0xbf16a727	-0.58848804
157	0x3e7fe5b2	0.24989966
158	0xbf5458c6	-0.8294796
159	0x3e75ec69	0.24015965
160	0xbe769d21	-0.24083377
161	0x3cabb33d	0.02095949
162	0xbfa26082	-1.2685702
163	0xbce91a3b	-0.02845489
164	0xbf321706	-0.6956638
165	0x3eec947c	0.46207035
166	0x3f639ac8	0.8890805
167	0xbd38dca2	-0.045132287
168	0x3d66c5eb	0.056341093
169	0x3e8f4ceb	0.2798837
170	0x3eddd095	0.43323198
171	0xbe96fbf4	-0.294891
172	0x3f9cc681	1.2248079
173	0xbe9035b8	-0.28165984
174	0x3f811030	1.0083065
175	0xbeeaa3bb	-0.4582804
176	0xbfbc4b82	-1.4710543
177	0xbeaf44db	-0.3423222
178	0x3e909e38	0.2824571
179	0xbf1f9999	-0.62343746
180	0xbf896cdd	-1.0736347
181	0x3e998c62	0.29989916
182	0x3e7cf1ba	0.24701586
183	0xbff1140a	-1.883424
184	0x3f00a717	0.5025496
185	0xbeede285	-0.46461883
186	0xbf7513ac	-0.9573314
187	0x3f8dada2	1.1068614
188	0xbe4a4809	-0.19754042
189	0x3e8ccb68	0.27498937
190	0x3eb34b1b	0.35018238
191	0x3e7418a6	0.23837528
192	0xbde892b9	-0.1135611
193	0x3f688756	0.90831506
194	0xbe750e8f	-0.23931335
195	0x3d07a372	0.033114858
196	0x3f5bd8ca	0.8587767
197	0xbe438686	-0.19094285
198	0x3daa8721	0.08326555
199	0xbf0a77ca	-0.54089034
200	0x3f60a822	0.8775655
201	0x3ec660ad	0.38745633
202	0xbc919379	-0.017770516
203	0x3f3e5018	0.74340963
204	0xbdae4c25	-0.08510617
205	0x3ed6cc8b	0.4195293
206	0x3f6d3f79	0.92674977
207	0xbf0a73b1	-0.5408278
208	0x3f06d713	0.5267193
209	0x3da42d90	0.08016503
210	0xbf27d1e8	-0.65554667
211	0xbeb630ac	-0.3558401
212	0x3ec940f9	0.39307383
213	0xbf00b49e	-0.502756
214	0x3e916942	0.28400618
215	0xbe3e4455	-0.18580754
216	0xbfb37d04	-1.4022527
217	0x3f9c2f56	1.2201946
218	0xbf81481f	-1.0100135
219	0x3f437035	0.7634309
220	0xbef4e86b	-0.4783357
221	0x3dc0fb3d	0.0942292
222	0xbf140d73	-0.5783302
223	0x3e177fe9	0.14794888
224	0x3e82884f	0.2549462
225	0xbf69ae00	-0.9128113
226	0xbf14d1e3	-0.5813276
227	0xbe62e92f	-0.22159265
228	0xbeb3c3a2	-0.35110193
229	0x3e7276ea	0.23678175
230	0x3f314529	0.69246155
231	0xbe3ee5c4	-0.18642336
232	0x3e6889e6	0.22708854
233	0xbf71cac8	-0.94450045
234	0xbf6d53ef	-0.927062
235	0x3f97b6f3	1.1852707
236	0x3e4485aa	0.19191614
237	0x3de132c8	0.10996014
238	0x3e081b64	0.13291699
239	0xbf257aed	-0.64640695
240	0x3f6217cb	0.88317555
241	0x3f142467	0.57868046
242	0x3f1f8941	0.6231881
243	0xbeab92e2	-0.335105
244	0xbf2bf1ee	-0.6716603
245	0x3e79af9d	0.24383397
246	0xbf210850	-0.6290331
247	0xbee8ca7f	-0.45466992
248	0x3e78521d	0.24250074
249	0xbe8ef480	-0.27920914
250	0xbf4f35dc	-0.8094156
251	0xbf29009b	-0.6601655
252	0xbf120be5	-0.570494
253	0x3f0b7bbd	0.54485685
254	0x3f1c4468	0.6104188
255	0xbdf46593	-0.11933436

layer.0.bias f4 [40]
0	0xc0142305	-2.3146374
1	0xbfac19f4	-1.344542
2	0xc080ac97	-4.021068
3	0xbee02243	-0.4377614
4	0xbf760af6	-0.96110475
5	0xc03cb5b4	-2.9485903
6	0xbfd142c5	-1.6348501
7	0xbf5aae0b	-0.8542182
8	0xc026e2c9	-2.6075919
9	0xbeacd953	-0.33759555
10	0xc00b31fd	-2.174926
11	0xbf6ddca9	-0.92914826
12	0xbf3da1ad	-0.7407482
13	0xc04cd141	-3.2002718
14	0xc004579e	-2.0678477
15	0xbfd6e2fe	-1.6788023
16	0xbfa77870	-1.308363
17	0xc005152d	-2.0794175
18	0xc0636656	-3.553121
19	0xbe86d831	-0.26336816
20	0xbf9ec84d	-1.2404877
21	0xc0228f6f	-2.5400045
22	0xbfc7950d	-1.5592362
23	0xc010d3ac	-2.2629194
24	0xbfb79f6d	-1.4345528
25	0xbffe82f5	-1.9883715
26	0xbf1aa4ae	-0.6040753
27	0xbfed390c	-1.8533034
28	0xc0009eb3	-2.0096862
29	0xbf61e84e	-0.88245094
30	0xbfe1677e	-1.7609708
31	0xbfafc7ae	-1.3732812
32	0xbfe5604c	-1.7920012
33	0xbf814fcb	-1.0102476
34	0xc00ec3f2	-2.2307096
35	0xbffe7629	-1.987981
36	0xc00c7888	-2.1948566
37	0xbfed5cad	-1.8543907
38	0xbf8ba950	-1.0911045
39	0xc0460ee3	-3.0946586

layer.1.weight f4 [5, 20]
0	0x3f144bb0	0.5792799
1	0x3e277c72	0.16356066
2	0x3f3f764e	0.74789894
3	0xbed82538	-0.42215896
4	0xbe9743b6	-0.29543847
5	0xbd8e2609	-0.069408484
6	0xbf09deaa	-0.53855383
7	0x3dee32b9	0.11630768
8	0x3d7f1864	0.06227912
9	0x3f06c168	0.52638865
10	0x3e4842ea	0.19556776
11	0xbf68e112	-0.9096843
12	0xbdc8c53d	-0.09803245
13	0x3d8a5d61	0.06756092
14	0xbe1b924f	-0.15192531
15	0x3dae02b9	0.08496613
16	0x3dbfc822	0.09364344
17	0x3ec74210	0.3891759
18	0xbe8ed00d	-0.27893105
19	0xbe895550	-0.268229
20	0xbf22cffb	-0.63598603
21	0x3e87b705	0.2650682
22	0xbf177847	-0.59167904
23	0x3efafe4a	0.49022132
24	0xbe2b993f	-0.16757677
25	0x3f0023f9	0.5005489
26	0x3e4c9f91	0.19982745
27	0x3ead54b3	0.33853683
28	0xbe5de3c3	-0.21668915
29	0xbeb680ef	-0.35645244
30	0x3e2e111e	0.16998717
31	0x3da726d6	0.08161704
32	0x3f21a91c	0.63148665
33	0x3d83b3ba	0.064307645
34	0xbe4d27cb	-0.20034711
35	0xbdf115c3	-0.11771729
36	0xbf232993	-0.6373531
37	0x3c958608	0.018252388
38	0xbe40fb06	-0.18845758
39	0xbebd2e8e	-0.3694958
40	0x3f231bc8	0.63714266
41	0xbf73ba48	-0.9520612
42	0xbeb91103	-0.3614579
43	0x3ec3a6f9	0.38213328
44	0xbf2dc37e	-0.6787642
45	0xbebcfbfe	-0.36911005
46	0xbdcda554	-0.100412995
47	0xbf2a464b	-0.6651351
48	0xbf2092eb	-0.6272418
49	0xbeff200e	-0.49829143
50	0x3f8f7fd9	1.1210891
51	0x3f2db934	0.6786072
52	0xbe51ec1b	-0.20500223
53	0x3e9a0859	0.30084494
54	0x3f28e792	0.6597835
55	0x3ec226bf	0.37920186
56	0xbef72fdf	-0.4827871
57	0xbf83c529	-1.0294544
58	0x3f50079b	0.81261605
59	0x3f5735ca	0.8406645
60	0x3ecf6904	0.40509808
61	0xbed2c37e	-0.41164774
62	0x3ed3cc7b	0.41366944
63	0xbef75f10	-0.48314714
64	0xbf072aaf	-0.52799505
65	0xbe86c07f	-0.26318738
66	0x3f2de3e0	0.67925835
67	0xbf12dd4f	-0.5736894
68	0xbe33a83e	-0.17544648
69	0xbf3336f8	-0.7000575
70	0x3ebbbf43	0.3666936
71	0xbea3dc35	-0.32003942
72	0xbe8d81a5	-0.27637973
73	0xbf1eef43	-0.62083834
74	0xbd8036ae	-0.06260429
75	0x3f3ea95f	0.7447719
76	0xbf324252	-0.69632447
77	0xbe96128f	-0.29311034
78	0x3f15e19c	0.5854738
79	0x3f04a56a	0.518149
80	0x3e2576e8	0.1615864
81	0xbeaaa2c0	-0.33327293
82	0x3e99166e	0.29899925
83	0xbd047b23	-0.032343995
84	0xbe0741d7	-0.1320871
85	0x3ea58e27	0.32335016
86	0xbd2b9095	-0.04188593
87	0xbe960b5c	-0.29305542
88	0x3f3df576	0.7420267
89	0xbedf74fe	-0.43643945
90	0x3e0d0f1c	0.13775295
91	0xbe2ecfe7	-0.17071496
92	0xbefb1c99	-0.49045256
93	0x3d9329f1	0.07185734
94	0xbf0cfdf1	-0.55074984
95	0xbe5c305f	-0.21502827
96	0x3e59b878	0.21261775
97	0x3f0df11b	0.5544602
98	0xbecdeaf3	-0.40218315
99	0x3e0e237a	0.1388072

layer.1.bias f4 [5]
0	0x3e206da3	0.15666823
1	0xbec63f89	-0.38720348
2	0x3d9d7221	0.07687784
3	0xbf0d6715	-0.55235416
4	0xbf27794a	-0.6541945

layerz.0.weight f4 [40, 5]
0	0x3fd4939e	1.6607549
1	0x3f907a01	1.1287233
2	0x3e637baf	0.2221515
3	0x3fa4ffad	1.2890526
4	0xbc300dd6	-0.010745486
5	0xbfc13dd0	-1.5096989
6	0xbf1a574e	-0.60289466
7	0x3ed8590d	0.4225544
8	0xc002d030	-2.0439568
9	0x3ee45dd9	0.4460285
10	0x3f68a35d	0.9087427
11	0x3f44dfb3	0.7690384
12	0x3e7f8a12	0.24955013
13	0x3fadb852	1.3571875
14	0x3f30a1e5	0.6899703
15	0xbf5d8fad	-0.86547357
16	0xbf439dd7	-0.7641272
17	0xbe652df4	-0.22380811
18	0xbfe850b2	-1.8149626
19	0xbdeece12	-0.116603985
20	0x3f8e54dd	1.1119648
21	0x3fab1308	1.3365183
22	0xbee67044	-0.45007527
23	0x3f072c62	0.528021
24	0xbedf220b	-0.4358066
25	0xbf612af4	-0.87956166
26	0xbf8ce640	-1.1007767
27	0x3ef958bc	0.4870051
28	0xbf267a8d	-0.6503075
29	0x3f16078e	0.5860528
30	0x3f814a4a	1.0100796
31	0x3d704106	0.05865576
32	0x3e8aa53a	0.27079183
33	0x401603cb	2.3439815
34	0x3f097afe	0.53703296
35	0xbf1b42e1	-0.60648924
36	0x3dd5881a	0.1042635
37	0xbf1afa7e	-0.6053847
38	0xbfe6bce7	-1.8026398
39	0xbebfbc2b	-0.37448248
40	0x3ed493c3	0.41518983
41	0xbef90492	-0.486363
42	0xbf00fdd2	-0.503873
43	0x3eb515b1	0.35368112
44	0xbf55a6c8	-0.83457613
45	0xbf804174	-1.0019975
46	0x3f8fe69b	1.124225
47	0x3f9953c9	1.1978694
48	0xbf71c1f5	-0.9443658
49	0x3f913f9e	1.134754
50	0xbf9a00c0	-1.2031479
51	0xbe547a26	-0.20749721
52	0xbe7dae1e	-0.24773452
53	0x3da9846b	0.0827721
54	0x3ea697d7	0.3253772
55	0x3fc9ce33	1.5766052
56	0x3e879721	0.2648249
57	0xbd0f769d	-0.035025228
58	0x3e81bf09	0.2534106
59	0xbf44c2ec	-0.7685993
60	0x3c3f4f4e	0.011676623
61	0x3ee23211	0.44178823
62	0x3fa4cd2d	1.2875115
63	0x3f02687c	0.5094068
64	0x3ebca71a	0.36846238
65	0x3ced8740	0.028995156
66	0xbed7ce16	-0.4214942
67	0xbfc6608d	-1.5498215
68	0xbf710316	-0.94145334
69	0xbf071beb	-0.52776974
70	0xbefe2600	-0.49638367
71	0x3fffa356	1.9971721
72	0x3dd97487	0.10617929
73	0x3fd227eb	1.6418432
74	0xbf1105dc	-0.56649566
75	0x3e62d568	0.2215172
76	0xbf844427	-1.0333298
77	0xbebe7e1e	-0.37205595
78	0xbf87a6fc	-1.0597835
79	0x3e7b1117	0.24518238
80	0xbf6ccae4	-0.92497087
81	0x3e3b5392	0.18293598
82	0xbe386b50	-0.18009686
83	0x3f8202d0	1.0157108
84	0x3f3d839f	0.7402896
85	0x3fb6d068	1.428235
86	0x3eac2e56	0.33629102
87	0x3ef87983	0.48530206
88	0xbf840341	-1.0313493
89	0xbf23bf28	-0.63963556
90	0x3e12b7cc	0.14327925
91	0xbf472614	-0.7779248
92	0xbedd694b	-0.43244395
93	0xbf60016d	-0.87502176
94	0xbf53f9b0	-0.8280287
95	0xbe39280f	-0.18081687
96	0x3faa19e4	1.3289151
97	0x3f4ba889	0.7955404
98	0x3f61a1f5	0.8813775
99	0x3faa0528	1.3282824
100	0x3f8a08c7	1.0783929
101	0x3eb959b9	0.36201265
102	0xbf9a23c4	-1.2042165
103	0xbfeaebd6	-1.8353221
104	0xbf43bb08	-0.7645726
105	0xbf20b1d8	-0.6277137
106	0xbebe0447	-0.37112638
107	0x3f567960	0.83778954
108	0x3f9a700d	1.2065445
109	0x3f0adcc2	0.542431
110	0xbf25fa35	-0.6483491
111	0x3f831dc2	1.0243456
112	0xbe5bcfda	-0.21466008
113	0xbf7573b8	-0.958797
114	0xbe99d9f2	-0.30049092
115	0x3f57ec30	0.8434477
116	0xbfa095ca	-1.2545712
117	0x3ee8efb1	0.4549537
118	0x3f6eccae	0.93281066
119	0xbdf54908	-0.1197682
120	0x3e863888	0.26215005
121	0xbfd69bf5	-1.6766344
122	0x3e22490b	0.15848176
123	0x3f38c807	0.7218022
124	0xc0080b54	-2.1256914
125	0xbd1a17dd	-0.037620414
126	0x3f5af61b	0.8553178
127	0xbc6770a3	-0.014125976
128	0xbedce6b2	-0.43144757
129	0x3f8fcaf0	1.1233807
130	0xbf56cca7	-0.83906025
131	0xbf56f48e	-0.8396691
132	0x3fc0b411	1.5054952
133	0xbfad71bc	-1.3550334
134	0x3f51960d	0.81869584
135	0x3e8419a4	0.25800812
136	0x3e836b86	0.2566797
137	0xbf414e90	-0.755105
138	0x3f44c228	0.7685876
139	0xbf16fe0b	-0.5898139
140	0xbeae994f	-0.3410134
141	0x3f390183	0.7226793
142	0x3fc29ad2	1.5203497
143	0x3ea6bc23	0.32565412
144	0xbeaae6f8	-0.3337934
145	0x3dfa5adb	0.122243606
146	0xbef86cb1	-0.48520425
147	0xbfa79e54	-1.3095193
148	0xbe923eda	-0.28563577
149	0x3e4b7586	0.1986905
150	0x3f2d947e	0.67804706
151	0x3fd4a108	1.6611643
152	0xbedb1e55	-0.4279658
153	0x3efdba39	0.4955614
154	0x3f209eaf	0.6274213
155	0xbe3d0a8d	-0.18461056
156	0xbedf4b13	-0.43611965
157	0xbc94b35d	-0.018151933
158	0xbec029d5	-0.37531915
159	0xbddb55ba	-0.107097104
160	0xbfb1d36a	-1.3892643
161	0x3b2d3693	0.0026430234
162	0xbf51ec45	-0.82001144
163	0x3f41c1d8	0.7568641
164	0x3ed3edfa	0.413925
165	0x3e7ce688	0.24697316
166	0x3e45fe59	0.19335307
167	0xbdb5c844	-0.08876088
168	0xbe5f5c8b	-0.21812646
169	0xbe8f4cf2	-0.27988392
170	0xbc3e6a0a	-0.011621961
171	0xbfeee075	-1.8662249
172	0xbf1deb6e	-0.6168736
173	0xbf3df570	-0.7420263
174	0xbf822d2f	-1.0170039
175	0x3e82d60b	0.25553927
176	0x40119863	2.274926
177	0x3e2f4fce	0.17120287
178	0x3f77d5d8	0.96810675
179	0x3f6edd8c	0.93306804
180	0xbe556c14	-0.2084201
181	0x3faeb512	1.3649008
182	0x3e82ce49	0.25548008
183	0xbebb9661	-0.36638168
184	0x3f39f129	0.72633606
185	0x3f2f0b63	0.6837675
186	0xc0152341	-2.3302767
187	0xbf11581a	-0.5677506
188	0x3ec7ead2	0.3904634
189	0xbf63866a	-0.88876975
190	0xbc52650a	-0.012841472
191	0x3fcb28ec	1.5871863
192	0x3f419c22	0.75628865
193	0x3f94da39	1.1629096
194	0x3f6cf559	0.9256187
195	0x3bb17e36	0.005416657
196	0xbfdcff6c	-1.7265449
197	0xbf787c61	-0.9706479
198	0xbfbc403e	-1.4707105
199	0xbf86c8bf	-1.0530013

layerz.0.bias f4 [40]
0	0xbffc29f6	-1.9700305
1	0xc0181254	-2.3761187
2	0xbf85bc56	-1.04481
3	0xbfff5515	-1.994784
4	0xbfb6c505	-1.4278876
5	0xbfd3d1ed	-1.6548439
6	0xc010d20f	-2.262821
7	0xbf59028d	-0.8476952
8	0xbd7bd6c6	-0.06148412
9	0xc0509633	-3.2591674
10	0xbfffbfa0	-1.9980354
11	0xc009495a	-2.145102
12	0xbeb544a8	-0.35403943
13	0xbf9f121f	-1.2427405
14	0xc02d393f	-2.706619
15	0xbf08e4a8	-0.534739
16	0xbf9b433f	-1.2129897
17	0xc0134745	-2.301225
18	0xbe36feed	-0.17870684
19	0xbffda205	-1.981507
20	0xc007316b	-2.1123912
21	0xbf7ee7b2	-0.9957229
22	0xbf80974e	-1.0046175
23	0xc0002494	-2.0022326
24	0xc0316c9d	-2.7722542
25	0xbe751d69	-0.23937
26	0xc068f1c9	-3.6397574
27	0x3d33a9f8	0.043863267
28	0xbfa1190a	-1.2585766
29	0xbf19615f	-0.599142
30	0xc04e658d	-3.2249482
31	0x3e296d87	0.16545688
32	0xc095b2c8	-4.678074
33	0x3e6cd122	0.23126653
34	0xbfcffdb2	-1.6249297
35	0xbfcd997c	-1.6062465
36	0xbed6943a	-0.41909963
37	0xc03d5d22	-2.9588094
38	0xbf9f36b6	-1.2438571
39	0xbfc737db	-1.5563921

layerz.1.weight f4 [5, 20]
0	0xbf47bffc	-0.7802732
1	0x3f659927	0.89686817
2	0x3f6579c0	0.896389
3	0xbcbf5c4f	-0.023359446
4	0x3f83147a	1.0240624
5	0xbe8412af	-0.25795504
6	0x3bc6b7d5	0.006064395
7	0xbf2e3b75	-0.68059474
8	0x3f9a66e5	1.2062651
9	0x3ebcdc4d	0.36886826
10	0xbf4a8785	-0.79113036
11	0xbdc74c18	-0.097313106
12	0xbf30eeb4	-0.6911423
13	0xbf8efb0e	-1.1170366
14	0x3e32de66	0.17467651
15	0x3e9d02e8	0.3066628
16	0xbea96f03	-0.33092508
17	0xbf27c755	-0.6553853
18	0x3f643c05	0.8915408
19	0x3e97f2d2	0.29677445
20	0xbe0cf81e	-0.13766524
21	0xbf655ba2	-0.89592946
22	0x3e350b31	0.1768005
23	0x3f665213	0.89968985
24	0xbdd8ee40	-0.105923176
25	0x3b7cab44	0.003855423
26	0xbdb3704a	-0.08761652
27	0x3e16576a	0.14681783
28	0x3efafabd	0.49019423
29	0xbf5f5dbe	-0.87252414
30	0xbf540054	-0.82813
31	0xbf2721b2	-0.6528579
32	0x3f4be6a3	0.796488
33	0xbdc81ebd	-0.09771488
34	0x3f353312	0.7078105
35	0xbc6457f8	-0.013936989
36	0x3f8d3207	1.1030892
37	0x3f65bf04	0.8974459
38	0xbf7567ee	-0.9586171
39	0x3f01382f	0.50476354
40	0xbf8d1ed8	-1.1025038
41	0x3f3bb946	0.7332958
42	0x3df8aec9	0.121427126
43	0x3f02def1	0.5112143
44	0xbf291955	-0.6605428
45	0x3fb59ae2	1.4187891
46	0xbec0fdba	-0.37693578
47	0x3e85e1ad	0.2614874
48	0xbea9976c	-0.33123338
49	0xbec0f83d	-0.3768939
50	0xbe23b9cd	-0.15988846
51	0xbf3462ae	-0.70463073
52	0xbf0a0de6	-0.5392746
53	0xbeb0e232	-0.34547573
54	0x3e20c65b	0.15700667
55	0x3e16af8c	0.14715403
56	0x3ecf46e2	0.40483767
57	0x3ec02f23	0.37535962
58	0x3f468755	0.7755025
59	0xbea90f8a	-0.33019668
60	0x3f65745d	0.8963068
61	0xbe5129b5	-0.20426066
62	0xbe8205f8	-0.2539518
63	0xbf2852ab	-0.6575114
64	0xbe8bf45a	-0.27334863
65	0xbf84be75	-1.0370623
66	0xbd82933d	-0.0637574
67	0xbf510335	-0.8164552
68	0xbe7edd7b	-0.24889176
69	0x3b098230	0.0020982139
70	0x3ed4aae0	0.41536617
71	0x3f7d9e17	0.9906935
72	0xbe3eb166	-0.1862236
73	0x3ec6cbb2	0.38827282
74	0x3d37dfd5	0.044891197
75	0x3f780c17	0.9689345
76	0x3f1ef566	0.620932
77	0xbf414e1a	-0.755098
78	0xbf5da249	-0.8657575
79	0x3f953d81	1.1659395
80	0xbfc3766f	-1.5270518
81	0x3e1378a0	0.14401484
82	0x3f8e1301	1.109955
83	0x3f112e7b	0.5671155
84	0x3f215823	0.6302511
85	0x3eb80c4f	0.3594689
86	0xbf4a4e08	-0.79025316
87	0xbf3aff57	-0.7304587
88	0x3ea7a90c	0.3274616
89	0xbea9a470	-0.33133268
90	0xbefd891e	-0.49518675
91	0xbea5106c	-0.3223909
92	0xbdbfa623	-0.0935786
93	0xbe83c3e9	-0.25735405
94	0xbb9a7784	-0.0047139544
95	0x3d0b1a80	0.03396082
96	0x3f1e6ee3	0.6188795
97	0xbef36952	-0.4754129
98	0xbe0c905a	-0.13726941
99	0x3f53c665	0.827246

layerz.1.bias f4 [5]
0	0x3ec6dcf5	0.38840452
1	0xbeaf0931	-0.341867
2	0xbf31719a	-0.6931397
3	0xbe8891c6	-0.26673716
4	0xbd9c9b1c	-0.07646772

mlr.weight f4 [71, 20]
0	0x3dd21200	0.102573395
1	0x3e9edc2d	0.31027356
2	0xbef6a2c4	-0.48171055
3	0x3f3f6d39	0.74776036
4	0x3d079b41	0.033107046
5	0x3ee45b27	0.44600794
6	0x3f0a549e	0.54035366
7	0xbf96b377	-1.1773518
8	0x3ef38a6d	0.47566548
9	0x3e2e891b	0.17044489
10	0xbdfc581a	-0.123214915
11	0x3e110a2a	0.14164034
12	0x3ed33009	0.41247585
13	0xbe6268e0	-0.22110319
14	0xbfc31f9f	-1.5244025
15	0x3e352299	0.17688979
16	0xbe33e819	-0.17569007
17	0xbfcf381b	-1.6188997
18	0xbf8b0ea7	-1.0863847
19	0x3e9f3cc3	0.31101045
20	0xbf1611c6	-0.5862087
21	0x3f0cc4b6	0.5498766
22	0x3df4a4d4	0.11945501
23	0x3f2ddb06	0.6791233
24	0x3ead7c52	0.3388391
25	0x3f81b62d	1.0133721
26	0x3e175398	0.14777982
27	0x3ef657c0	0.48113823
28	0x3d5ce4d2	0.053929158
29	0x3c9d325e	0.019189056
30	0xbf1f78f9	-0.62293965
31	0xbedc411e	-0.4301843
32	0x3e81f207	0.25379965
33	0x3f17d0c5	0.5930293
34	0xbf0cd1f1	-0.55007845
35	0x40048dfc	2.071166
36	0xbf2facc3	-0.6862299
37	0x3f0cc799	0.5499206
38	0xbf3af0a4	-0.7302344
39	0x3fc55a16	1.5418117
40	0x3d902695	0.07038609
41	0x3f01730b	0.50566167
42	0x3ec311aa	0.38099414
43	0x3e9d8eb8	0.30772948
44	0x3e9a65ec	0.30155885
45	0x3ea53499	0.3226669
46	0xbc3d66b4	-0.011560131
47	0xbe1f1dd3	-0.15538721
48	0x3de2f138	0.11081165
49	0xbeb63380	-0.35586166
50	0x3e9a0c3d	0.30087462
51	0x3eaff97a	0.34370023
52	0xbcee141a	-0.02906232
53	0x3e928a85	0.28621307
54	0x3eaafa4a	0.3339408
55	0x3f3497ab	0.70543927
56	0xbd2ec209	-0.042665515
57	0x3d5ba2ae	0.05362194
58	0xbda8317d	-0.08212564
59	0x3f7aa26a	0.97904074
60	0x3ef9d242	0.48793226
61	0x3ee0690d	0.43830147
62	0x3e75cfc8	0.24005044
63	0xc01760c6	-2.3652816
64	0x3e813b91	0.25240758
65	0xbe3543e0	-0.17701674
66	0xbebdff03	-0.3710862
67	0x3f58dfec	0.8471668
68	0xbed13cd0	-0.4086671
69	0x3e2d4b21	0.1692319
70	0x3f0bc781	0.54601294
71	0x3e651d73	0.22374515
72	0xbd0f8870	-0.035042226
73	0x3d9b0c2a	0.075706795
74	0x3f116790	0.5679865
75	0xbea2ab00	-0.31771088
76	0xbf104375	-0.5635293
77	0x3cbc7948	0.02300705
78	0xbe1a7439	-0.15083398
79	0x3ec143b1	0.37746957
80	0xbf4e2f44	-0.8054087
81	0xbe2a49e6	-0.16629753
82	0x3ef42391	0.47683385
83	0xbce7b1f5	-0.028283099
84	0x3e6bb614	0.23018676
85	0x3f2be3f3	0.671447
86	0x3e36006c	0.17773598
87	0x3db0a445	0.08625082
88	0xbf8a3294	-1.0796685
89	0x3e7f2f9a	0.24920502
90	0x3ea7911c	0.32727897
91	0xbd6368dd	-0.055519927
92	0x3deee18c	0.116641134
93	0x3ecd478b	0.40093645
94	0x3ef64037	0.48095867
95	0x3e879a41	0.26484874
96	0x3d6c4db5	0.057691295
97	0x3dfeb14a	0.12436159
98	0x3cb66873	0.022266602
99	0x3f3daf35	0.7409547
100	0x3e957294	0.2918898
101	0x3d8f21f8	0.06988901
102	0x3ee4cc6e	0.44687217
103	0xbecaba77	-0.39595386
104	0x3eef9c0a	0.46798736
105	0xbeccd972	-0.40009648
106	0xbde15b4e	-0.11003743
107	0x3ebac678	0.36479545
108	0x3f392a0d	0.7232979
109	0xbd55bfb6	-0.052184783
110	0x3eed6f8a	0.4637416
111	0x3ed3953c	0.41324794
112	0xbcea07a8	-0.028568104
113	0xbf4923d7	-0.7857031
114	0x3ed12366	0.4084732
115	0x3d0ed44d	0.034870435
116	0x3e63a449	0.22230639
117	0xbf641e7b	-0.8910901
118	0xbea5276c	-0.3225664
119	0x3ea0a231	0.31373742
120	0x3ecf2383	0.4045678
121	0x3e34235b	0.17591612
122	0x3eaab1aa	0.33338672
123	0x3f39bf25	0.7255729
124	0x3e90daee	0.2829203
125	0x3e8f1a53	0.2794977
126	0x3d95de54	0.07317796
127	0xbdf8174e	-0.1211382
128	0x3ef5206b	0.47876295
129	0x3c6728ee	0.0141088795
130	0xbf4b9107	-0.7951817
131	0x3d94921b	0.0725443
132	0x3e52b09d	0.20575185
133	0x3ce7f8e4	0.028316922
134	0x3e96a156	0.29419965
135	0xbf9f23cb	-1.2432798
136	0xbecd75ed	-0.40129033
137	0xbe687822	-0.22702077
138	0xbf879e94	-1.0595269
139	0x3e51b8f1	0.20480706
140	0xbfa76d23	-1.3080181
141	0xc099a17a	-4.8009615
142	0x3f56180a	0.8363043
143	0xbfe8ba41	-1.818184
144	0x3f2eec46	0.68329275
145	0xbfda78d0	-1.7068119
146	0x3fb45393	1.4088005
147	0xbf9044d9	-1.1271011
148	0x403bff4a	2.9374566
149	0x3f0134e1	0.5047131
150	0xc006bc23	-2.105233
151	0x3f1dcc5b	0.61639947
152	0xbf0714cc	-0.5276611
153	0xbedddbb5	-0.43331686
154	0x3f3917d1	0.72301966
155	0xc003f7f2	-2.0620084
156	0x3fcae41d	1.5850865
157	0xc04688ab	-3.1020916
158	0x400a4636	2.1605353
159	0xbe28f01b	-0.16497843
160	0x3dc90c6c	0.098168224
161	0xc04f57c4	-3.2397318
162	0x3f23fe55	0.64059955
163	0xbd0667b6	-0.03281375
164	0x3f3cdba8	0.7377267
165	0xbf5619ef	-0.8363332
166	0xbf8429b2	-1.0325224
167	0xbf2ba02a	-0.67041266
168	0x3ef6e331	0.48220208
169	0x3eb0378e	0.34417385
170	0xbf5d81c5	-0.8652614
171	0xbe46d473	-0.1941698
172	0x3e8ba6b3	0.2727562
173	0xbe71cf38	-0.23614204
174	0x3ee90ca1	0.45517448
175	0x3c7852c3	0.015156451
176	0x3e4ec184	0.20191008
177	0xbf960807	-1.17212
178	0x3ef265ca	0.47343284
179	0xbeac1f23	-0.33617505
180	0x3ed3176a	0.412288
181	0x3eabac5b	0.33529934
182	0x3ed0fc40	0.4081745
183	0x3ec4acd6	0.38413113
184	0x3ef5f857	0.4804103
185	0x3bb1a2b4	0.005421007
186	0xbe2dff4e	-0.16991922
187	0x3e616df6	0.22014603
188	0x3f841d96	1.0321529
189	0xbe2d37c8	-0.1691581
190	0x3ea2cb1c	0.31795585
191	0x3d1862d0	0.03720361
192	0x3ed15899	0.40887907
193	0x3e65e9eb	0.22452514
194	0x3de5e5b8	0.11225456
195	0x3e2895f8	0.16463459
196	0x3e2fb956	0.17160544
197	0x3f1e57e3	0.61852854
198	0xbf62c786	-0.885857
199	0x3e5bac68	0.21452487
200	0x3e081dd7	0.13292633
201	0x3e1a37c4	0.15060335
202	0x3eaed8d3	0.341498
203	0x3dd2fb79	0.10301871
204	0x3edc946c	0.43081987
205	0xbf0acd67	-0.5421967
206	0xbea04feb	-0.31310973
207	0x3d2bd995	0.04195555
208	0x3fa7b697	1.3102597
209	0xbf587b40	-0.84563065
210	0x3e80e2d2	0.2517305
211	0x3d1ca2fe	0.03824138
212	0x3ef5b1c5	0.4798719
213	0x3e72a98d	0.23697491
214	0xbc2c0585	-0.010499363
215	0x3f631fba	0.88720286
216	0xbd7d60b7	-0.061859813
217	0x3f19bd8c	0.6005485
218	0xbf8dd931	-1.1081907
219	0x3f52f19c	0.82399917
220	0xbf3175ab	-0.6932017
221	0x3f10aa5b	0.5650994
222	0x3e86582f	0.26239154
223	0x3f0da5c4	0.55331063
224	0x3eb73c0a	0.35787994
225	0xc0179484	-2.3684397
226	0xbe3b3b89	-0.1828443
227	0x3e669330	0.22517085
228	0x3f6d0975	0.92592555
229	0xbefc5b89	-0.49288586
230	0x3f150bbc	0.5822103
231	0x3e1ee8e1	0.15518524
232	0x3ecb923f	0.39760014
233	0x3ad182c9	0.0015984412
234	0x3e68395e	0.22678134
235	0xbef877d0	-0.4852891
236	0x3e49b695	0.19698556
237	0x3f5a9e7f	0.85398096
238	0x3dae10bf	0.08499288
239	0xbc5f4ff0	-0.013629898
240	0xbc1b607c	-0.009483453
241	0xbf735a1f	-0.9505939
242	0xbddfff79	-0.109373994
243	0x3f767b4d	0.9628189
244	0x3e20780d	0.15670796
245	0xbf0c8565	-0.54891044
246	0xbf7ea676	-0.9947275
247	0xbfb5dc1b	-1.4207796
248	0x3f80fed9	1.0077773
249	0x3f3b73b9	0.73223454
250	0x3f63f0b6	0.8903917
251	0xbe37c16b	-0.17944877
252	0x3e9eca4d	0.31013718
253	0xbee6a15c	-0.45044982
254	0xbbf5cd06	-0.0075012473
255	0xbf68d81c	-0.90954757

mlr.bias f4 [71]
0	0x3f4f0096	0.8086027
1	0x3ef7b156	0.48377484
2	0xbf981910	-1.1882648
3	0x3f6d0d07	0.92598003
4	0x3fe03300	1.7515564
5	0x3f18148f	0.5940637
6	0x3f8c33b9	1.0953285
7	0xbe497e7e	-0.19677159
8	0x3f21ede2	0.63253605
9	0xbf0c5267	-0.54813236
10	0xbeded9f0	-0.43525648
11	0xbf83dce0	-1.0301781
12	0x3f6c4c87	0.9230427
13	0x3f23bbc1	0.63958365
14	0xbea57552	-0.3231607
15	0x3f2945c4	0.6612208
16	0x3e80e403	0.2517396
17	0x3fa83c99	1.3143493
18	0x3f8df3f3	1.1090072
19	0x3e499462	0.1968551
20	0x40167619	2.350958
21	0xbe35d496	-0.17756876
22	0xbeb78d72	-0.35850102
23	0x3fee0553	1.8595375
24	0x3f14284c	0.5787399
25	0x3f137245	0.57596236
26	0xc08a68fd	-4.325316
27	0xc0043f7b	-2.0663745
28	0xbed148d9	-0.4087589
29	0x3fb81596	1.4381588
30	0xbfe1e991	-1.7649404
31	0x3f1f2893	0.62171286
32	0xbf1e52a6	-0.6184486
33	0xbeaf5658	-0.34245563
34	0xbee85e7c	-0.45384586
35	0x4019b7dc	2.401847
36	0x3f0816d5	0.5315984
37	0xbfe35ba4	-1.7762341
38	0x3e4781b2	0.19483069
39	0xbe827f57	-0.25487778
40	0x3eb83e3e	0.35984987
41	0x401825ab	2.377299
42	0x3fe17d87	1.7616433
43	0x3f4d2ab8	0.8014331
44	0x3c006bd5	0.007838209
45	0x3ec87d0b	0.391579
46	0x3f64a407	0.89312786
47	0x3ff58e22	1.9184
48	0xbfefdcd4	-1.8739266
49	0xbfce99fc	-1.6140742
50	0xbf5dd84f	-0.86658186
51	0xbfe4a571	-1.7862989
52	0xbfd583bb	-1.6680826
53	0xbf13b62c	-0.5769985
54	0xbf35e756	-0.71056116
55	0x3f3e65f5	0.74374324
56	0x3fb9be75	1.4511248
57	0xbf608304	-0.87699914
58	0x3e49936c	0.19685143
59	0xbfb3c286	-1.4043739
60	0xbe007a8d	-0.1254675
61	0xbf0f9068	-0.5607972
62	0xbe95730f	-0.29189345
63	0xbf13d0fe	-0.5774077
64	0xbf0ac77a	-0.5421063
65	0xbecccf0e	-0.4000172
66	0xbedf2b30	-0.43587637
67	0xbf2884a0	-0.6582737
68	0xbe905cd9	-0.28195837
69	0xbec687d7	-0.38775513
70	0xbe87cc94	-0.26523268

layer.0.weight f4 [40, 10]
0	0x3e022db4	0.12712747
1	0x3f4dca43	0.8038675
2	0xbcb914a6	-0.022592854
3	0x3f5d8712	0.86534226
4	0x3f84bb43	1.0369648
5	0xbf5ddbeb	-0.86663693
6	0xbf78a326	-0.97123945
7	0xbee44c08	-0.44589257
8	0xbf8bb572	-1.0914748
9	0xbe7bc2f6	-0.2458609
10	0xbe9a87aa	-0.30181628
11	0xbf37f6ad	-0.7186077
12	0x3db817e0	0.08988929
13	0xbf0ea4f9	-0.5572048
14	0xbf230052	-0.63672364
15	0x3f371b48	0.71526
16	0x3f26f77a	0.6522137
17	0x3f096826	0.5367454
18	0x3f92fb59	1.1482955
19	0x3e88d6c3	0.2672635
20	0x3cbb2d38	0.02284871
21	0xbf41ee96	-0.7575468
22	0x3f9aaede	1.2084615
23	0xbec4cc25	-0.38437
24	0xbebb4c30	-0.36581564
25	0xbf80c8ee	-1.0061319
26	0xbf2979e6	-0.6620163
27	0xbef1b277	-0.4720647
28	0xbfe2dfdb	-1.7724565
29	0xbf6a2680	-0.91464996
30	0x3d13a3b0	0.036044776
31	0x3f2f7222	0.6853353
32	0xbf143754	-0.57896924
33	0x3e1d07d3	0.15335016
34	0x3d8ccc55	0.06874911
35	0x3ef5eb1c	0.48030937
36	0x3f3e3661	0.74301726
37	0xbc219bb0	-0.009863779
38	0x3f2792b0	0.654582
39	0x3f2382c5	0.63871413
40	0xbedeb408	-0.43496728
41	0xbe2deed6	-0.1698564
42	0xbed0cf04	-0.4078294
43	0x3ee12598	0.43973994
44	0xbe1f0512	-0.15529278
45	0xbf3813a7	-0.7190499
46	0xbb95459f	-0.0045554186
47	0x3e914e09	0.2837985
48	0x3f1ba704	0.6080172
49	0x3f233ca9	0.63764435
50	0x3f4f1865	0.808966
51	0x3f2a8d43	0.666218
52	0x3f011fe9	0.50439316
53	0x3daac0c6	0.0833755
54	0x3f0578c9	0.5213743
55	0x3f99a061	1.2002069
56	0x3dd42c07	0.1035996
57	0xbee845b2	-0.45365673
58	0xbecf1422	-0.40445048
59	0xbf867e65	-1.0507323
60	0x3f07fbd6	0.53118646
61	0x3e48611b	0.19568293
62	0xbe4b60f8	-0.1986121
63	0xbd4c1685	-0.049826164
64	0x3f527bda	0.8222023
65	0x3d635162	0.055497535
66	0xbf54eaa2	-0.8317052
67	0xbf846e56	-1.0346172
68	0xbff4fbcd	-1.9139344
69	0xbea5fa49	-0.32417515
70	0xbe5995fa	-0.21248618
71	0xbf04c4ca	-0.51862776
72	0xbdadd235	-0.084873594
73	0xbdf5bb19	-0.11998577
74	0xbf3c6f77	-0.7360758
75	0x3e1ff494	0.15620643
76	0x3ed3acc2	0.4134274
77	0x3f11af88	0.56908464
78	0x3f90363f	1.1266555
79	0x3ee8b592	0.45451027
80	0x3da2329a	0.07919808
81	0x3f4cee8d	0.800515
82	0xbe7f0b42	-0.24906638
83	0xbf946f8e	-1.1596544
84	0xbec29b7a	-0.38009244
85	0xbf5bc7e4	-0.85851884
86	0x3f4134cc	0.75471187
87	0xbf92b0f6	-1.1460254
88	0xbe60133d	-0.21882339
89	0xbed9ffbb	-0.4257792
90	0xbe9beef0	-0.30455732
91	0xbf1d905f	-0.6154842
92	0xbeb425f7	-0.35185215
93	0x3e89cac0	0.26912498
94	0x3ea43785	0.32073608
95	0x3e9b708b	0.303593
96	0xbeaa4ed6	-0.33263272
97	0x3e7a9005	0.24469002
98	0x3dc13040	0.09433031
99	0xbdb1e714	-0.08686653
100	0x3d671a3f	0.056421515
101	0xbf802748	-1.0011988
102	0xbfa6a868	-1.3020144
103	0xbf0d3f80	-0.5517502
104	0xbfb1bb83	-1.3885349
105	0x3dfebbd1	0.12438167
106	0xbf92fc7d	-1.1483303
107	0x3f09ba24	0.53799653
108	0x3f470d3c	0.7775457
109	0xbe26b6bc	-0.16280645
110	0x3e9c1ace	0.304892
111	0x3efd61e2	0.4948874
112	0x3f255f59	0.64598614
113	0xbdeebe64	-0.11657408
114	0x3f473bf7	0.77825874
115	0x3e154b58	0.14579523
116	0x3f45f458	0.77325964
117	0xbf02f142	-0.5114938
118	0xbf175d81	-0.5912705
119	0x3eca4e88	0.3951304
120	0x3eff71bd	0.49891463
121	0xbee3cbbb	-0.44491372
122	0xbf17c3d9	-0.59283215
123	0xbd248c8f	-0.04017311
124	0xbf1547ef	-0.58312887
125	0x3e0301cd	0.12793656
126	0x3f32c183	0.69826525
127	0xbf4fde13	-0.81198233
128	0x3ec7d638	0.39030623
129	0x3e3d4b36	0.18485722
130	0xbf76581d	-0.962282
131	0x3f8e5588	1.1119852
132	0xbdf624df	-0.12018751
133	0xbf6d914e	-0.9279984
134	0x3f28bd46	0.6591381
135	0xbdb76349	-0.08954484
136	0xbfb5c95c	-1.4202075
137	0x3f05fa71	0.5233527
138	0xbea5a248	-0.32350373
139	0xbe9bfe9d	-0.30467692
140	0x3edcf109	0.43152645
141	0xbee2ddd2	-0.4430986
142	0x3e497140	0.19672108
143	0xbf5db0b5	-0.8659776
144	0xbf4d66d0	-0.80235004
145	0x3f7ae0c7	0.97999233
146	0x3f2d1a5c	0.67618346
147	0xbeb36c0f	-0.3504338
148	0x3f6be5c2	0.9214746
149	0x3b98e3c7	0.004665825
150	0xbe8ba64e	-0.27275318
151	0x3f49c9b6	0.7882341
152	0xbe3105a1	-0.17287304
153	0x3f2cd675	0.67514735
154	0x3eab7bbf	0.33492848
155	0xbf5459db	-0.8294961
156	0xbf1532a0	-0.5828037
157	0x3e704732	0.23464659
158	0xbf555866	-0.8333801
159	0x3e80b92e	0.2514128
160	0xbe846d3e	-0.25864595
161	0x3cfa469f	0.030551253
162	0xbf9f6dbf	-1.2455367
163	0x3b538671	0.0032276178
164	0xbf321b4c	-0.695729
165	0x3ef49627	0.47770807
166	0x3f623bc4	0.88372445
167	0xbd2b4894	-0.041817263
168	0x3d803338	0.06259769
169	0x3e8d0db7	0.27549526
170	0x3edf2074	0.43579447
171	0xbe9c741a	-0.30557328
172	0x3f99c05a	1.2011826
173	0xbe991a70	-0.29902983
174	0x3f8284ed	1.0196816
175	0xbeee6007	-0.46557638
176	0xbfba5db2	-1.4559844
177	0xbeb4597f	-0.3522453
178	0x3e8f2644	0.27958882
179	0xbf20b7eb	-0.62780637
180	0xbf8b7cf9	-1.0897514
181	0x3e9de73f	0.3084049
182	0x3e816f04	0.2528001
183	0xbff131bf	-1.8843306
184	0x3efc11e0	0.49232388
185	0xbee98cf2	-0.45615345
186	0xbf740a7b	-0.9532849
187	0x3f8ca078	1.0986471
188	0xbe49fdd6	-0.19725737
189	0x3e96a073	0.29419288
190	0x3ebb6b3e	0.36605257
191	0x3e6f6f50	0.23382306
192	0xbddbef3c	-0.1073899
193	0x3f6a90e3	0.9162733
194	0xbe7cec9a	-0.24699631
195	0x3cdceeda	0.026969362
196	0x3f56d054	0.83911633
197	0xbe357cf6	-0.1772345
198	0x3db9f88e	0.09080611
199	0xbf0ad930	-0.5423765
200	0x3f62d857	0.8861136
201	0x3ec3d875	0.3825108
202	0xbc6f6d14	-0.014613409
203	0x3f38e55e	0.72224987
204	0xbdb83dc8	-0.08996159
205	0x3edc3a99	0.43013456
206	0x3f6c41e9	0.9228807
207	0xbf0e6283	-0.55619067
208	0x3f026f9a	0.5095154
209	0x3d821bf7	0.0635299
210	0xbf274d67	-0.6535248
211	0xbeb36bf8	-0.3504331
212	0x3ec2448e	0.37942928
213	0xbefe9fd0	-0.49731302
214	0x3e906577	0.28202412
215	0xbe40c495	-0.1882499
216	0xbfb18c33	-1.387091
217	0x3f9f0c24	1.242558
218	0xbf7dfd4d	-0.9921463
219	0x3f43c93f	0.7647895
220	0xbeec77b3	-0.46185073
221	0x3d8cdd93	0.068781994
222	0xbf119887	-0.56873363
223	0x3e17aade	0.14811274
224	0x3e81e9c3	0.2537366
225	0xbf69267a	-0.91074336
226	0xbf109624	-0.56479096
227	0xbe5d80c1	-0.21631147
228	0xbeb1c1af	-0.3471808
229	0x3e68185c	0.22665542
230	0x3f3258bf	0.69666666
231	0xbe4dee42	-0.2011042
232	0x3e5ff58f	0.21871017
233	0xbf70138d	-0.9377983
234	0xbf6dc955	-0.92885333
235	0x3f98472c	1.189672
236	0x3e46e23a	0.19422236
237	0x3dbf4725	0.093397416
238	0x3df314e4	0.11869219
239	0xbf28a1d6	-0.6587194
240	0x3f5f579f	0.87243074
241	0x3f1096e9	0.5648027
242	0x3f1d8473	0.61530226
243	0xbeadf32f	-0.33974597
244	0xbf31fb8d	-0.6952446
245	0x3e8349c8	0.25642228
246	0xbf206af5	-0.62663203
247	0xbee779fc	-0.45210254
248	0x3e882910	0.26593828
249	0xbe8b13e5	-0.27163616
250	0xbf4f5492	-0.8098842
251	0xbf28aa8f	-0.6588525
252	0xbf0f588e	-0.559945
253	0x3f0973a0	0.53692055
254	0x3f1fe9b1	0.6246596
255	0xbe032e72	-0.12810686

layer.0.bias f4 [40]
0	0xc0145319	-2.3175719
1	0xbfa9214a	-1.3213284
2	0xc08049dd	-4.0090165
3	0xbedd4310	-0.43215227
4	0xbf7724b6	-0.9654039
5	0xc03ad499	-2.919226
6	0xbfcfd8d7	-1.6238049
7	0xbf5c24b0	-0.8599348
8	0xc0262ee6	-2.5966125
9	0xbeaa5a3c	-0.33271968
10	0xc00aca58	-2.1686
11	0xbf6f763b	-0.9353978
12	0xbf3c0773	-0.73448867
13	0xc04c0342	-3.1876988
14	0xc004d899	-2.07572
15	0xbfd625cf	-1.6730288
16	0xbfa8496f	-1.314741
17	0xc0047f32	-2.0702634
18	0xc061da31	-3.5289423
19	0xbe83fa3b	-0.25776848
20	0xbf9e459c	-1.2364993
21	0xc02223a9	-2.5334265
22	0xbfc88ec5	-1.566857
23	0xc0104fd2	-2.2548718
24	0xbfb57dbc	-1.4178996
25	0xbfff45ac	-1.9943137
26	0xbf1b3f79	-0.60643727
27	0xbfecd3e2	-1.8502162
28	0xc0002ed9	-2.0028594
29	0xbf5d223d	-0.8638037
30	0xbfdfe6c1	-1.7492296
31	0xbfae93ea	-1.363889
32	0xbfe45980	-1.7839813
33	0xbf805de9	-1.0028659
34	0xc00ea5e9	-2.2288764
35	0xbffe121f	-1.984928
36	0xc00acec0	-2.168869
37	0xbfecf386	-1.8511817
38	0xbf8a1664	-1.0788083
39	0xc0458517	-3.0862482

layer.1.weight f4 [5, 20]
0	0x3f0dcb02	0.5538789
1	0x3e36ca0e	0.17850515
2	0x3f37b0be	0.7175406
3	0xbedaec5f	-0.42758462
4	0xbe9d42b8	-0.30714965
5	0xbd88eab1	-0.06685389
6	0xbf0c60ae	-0.5483502
7	0x3dd000e3	0.10156419
8	0x3d00fc43	0.031490576
9	0x3f08009b	0.53125924
10	0x3e32e82f	0.17471384
11	0xbf66fd64	-0.90230393
12	0xbdb87663	-0.090069555
13	0x3d64d43d	0.05586647
14	0xbe13dbe1	-0.14439346
15	0x3da3c76f	0.07997023
16	0x3dc15dc6	0.09441714
17	0x3ec7752c	0.38956583
18	0xbe8710aa	-0.263799
19	0xbe94aa73	-0.29036292
20	0xbf1ecb94	-0.62029386
21	0x3e8c4297	0.27394554
22	0xbf198a50	-0.59976673
23	0x3f066c26	0.5250877
24	0xbe1ce2ee	-0.15320942
25	0x3ef5603f	0.47924992
26	0x3e3fd369	0.1873299
27	0x3eb32de9	0.34995964
28	0xbe45a5bc	-0.19301504
29	0xbeb1f6af	-0.34758517
30	0x3e2d66dc	0.16933769
31	0x3d81d84f	0.06340086
32	0x3f256cb6	0.64619005
33	0x3d8e53e7	0.06949597
34	0xbe3e790a	-0.1860086
35	0xbe047e51	-0.12938811
36	0xbf23dc15	-0.64007694
37	0x3c8d5eba	0.017257083
38	0xbe56c181	-0.20972253
39	0xbeba4982	-0.36384207
40	0x3f225080	0.63404083
41	0xbf705051	-0.93872553
42	0xbebf31b6	-0.37342614
43	0x3ebb9015	0.36633363
44	0xbf323d83	-0.6962511
45	0xbec28f16	-0.3799979
46	0xbde0bdc5	-0.10973696
47	0xbf272c24	-0.6530173
48	0xbf1b8ba8	-0.60759974
49	0xbefbc880	-0.49176407
50	0x3f8d2ce9	1.102933
51	0x3f3062ab	0.68900555
52	0xbe509990	-0.2037108
53	0x3ea28349	0.31740788
54	0x3f28f793	0.6600277
55	0x3eb723e7	0.3576958
56	0xbefbe48e	-0.4919781
57	0xbf80f950	-1.0076084
58	0x3f4e79cd	0.80654603
59	0x3f55b326	0.83476484
60	0x3ed61133	0.41809997
61	0xbed53e6a	-0.4164918
62	0x3ecf855e	0.4053144
63	0xbef91838	-0.4865129
64	0xbf05be21	-0.5224324
65	0xbe8d5629	-0.27604797
66	0x3f334c21	0.7003804
67	0xbf1329a5	-0.5748542
68	0xbe365f95	-0.17809899
69	0xbf357bad	-0.7089184
70	0x3ebebc53	0.37253055
71	0xbea8df3d	-0.32982817
72	0xbe87e4ff	-0.26541898
73	0xbf1e48bc	-0.61829734
74	0xbda6bb1f	-0.08141159
75	0x3f3aa1d8	0.72903204
76	0xbf31b559	-0.6941734
77	0xbe9751f0	-0.295547
78	0x3f13f0d5	0.57789356
79	0x3efac821	0.4898081
80	0x3e1a0eca	0.15044704
81	0xbeae9b72	-0.3410297
82	0x3e8a4fe6	0.27014083
83	0xbceff524	-0.029291697
84	0xbe1917c4	-0.14950472
85	0x3ea01a48	0.3127005
86	0xbd523538	-0.051320285
87	0xbe8eb242	-0.27870375
88	0x3f346155	0.70461017
89	0xbee557ad	-0.44793454
90	0x3e00e85e	0.12588641
91	0xbe1bdd74	-0.15221196
92	0xbefa14c7	-0.48843977
93	0x3d8530dc	0.0650346
94	0xbf084efc	-0.5324552
95	0xbe5c4a9d	-0.21512838
96	0x3e4ac321	0.19800998
97	0x3f091e41	0.5356179
98	0xbec9b250	-0.39393854
99	0x3df1d7d7	0.11808746

layer.1.bias f4 [5]
0	0x3e239ddd	0.15978189
1	0xbec8a224	-0.39186203
2	0x3d97d562	0.074137464
3	0xbf089c14	-0.53363156
4	0xbf29a3ba	-0.6626545

layerz.0.weight f4 [40, 5]
0	0x3fd1aa65	1.6380125
1	0x3f9080f9	1.1289359
2	0x3e629dc0	0.2213049
3	0x3fa3cb89	1.2796489
4	0xbd0be327	-0.034152176
5	0xbfbdb35f	-1.4820365
6	0xbf185ec5	-0.59519607
7	0x3ed62b37	0.41829845
8	0xc0028727	-2.039499
9	0x3ee4230b	0.44557986
10	0x3f6b19fa	0.9183651
11	0x3f3ff728	0.74986506
12	0x3e805865	0.2506744
13	0x3fae126c	1.3599372
14	0x3f2d4ebf	0.6769828
15	0xbf5dbd45	-0.8661693
16	0xbf4219ef	-0.7582082
17	0xbe682928	-0.2267195
18	0xbfe93b7e	-1.822128
19	0xbddc32ee	-0.107519016
20	0x3f8d1a16	1.1023586
21	0x3faa18ca	1.3288815
22	0xbeea0ad0	-0.45711374
23	0x3f076ba9	0.5289865
24	0xbed98cf7	-0.4249036
25	0xbf5d8dd2	-0.86544526
26	0xbf8bd53d	-1.092445
27	0x3efe0728	0.49614835
28	0xbf25e671	-0.6480475
29	0x3f13c34d	0.5771988
30	0x3f82772c	1.0192618
31	0x3d9253f6	0.071449205
32	0x3e87769d	0.26457682
33	0x40156bc0	2.3347015
34	0x3f0f4d26	0.55977094
35	0xbf186796	-0.5953306
36	0x3db19d2b	0.086725555
37	0xbf1b9857	-0.6077933
38	0xbfe65b2e	-1.7996576
39	0xbec0388d	-0.37543145
40	0x3ed15788	0.40887094
41	0xbeee6b97	-0.4656646
42	0xbefc6bbf	-0.49300954
43	0x3eb73d16	0.35788792
44	0xbf598109	-0.8496252
45	0xbf7fab1a	-0.99870455
46	0x3f8ee068	1.1162233
47	0x3f980132	1.1875365
48	0xbf71bed9	-0.94431835
49	0x3f912cf4	1.1341844
50	0xbf97a577	-1.1847371
51	0xbe4859e4	-0.1956554
52	0xbe7ed1bd	-0.24884696
53	0x3db87313	0.09006324
54	0x3eab72e5	0.33486095
55	0x3fcb333b	1.5875009
56	0x3e724c01	0.23661806
57	0xbd1019f3	-0.035180997
58	0x3e80fc0d	0.251923
59	0xbf417056	-0.75562036
60	0x3c801ac2	0.01563776
61	0x3ee16c45	0.44027916
62	0x3fa4eba9	1.2884418
63	0x3eff23b1	0.49831918
64	0x3eb5a37c	0.3547629
65	0x3cd82ffb	0.026390066
66	0xbed1b1ce	-0.40955967
67	0xbfc66db3	-1.5502228
68	0xbf6f6cf4	-0.93525624
69	0xbf06a18e	-0.5259026
70	0xbefdff0b	-0.49608645
71	0x3fff1d70	1.9930859
72	0x3dc71a04	0.09721759
73	0x3fd1e07a	1.639663
74	0xbf108e59	-0.56467205
75	0x3e6e43a2	0.23267987
76	0xbf84d5fc	-1.0377803
77	0xbeba69a5	-0.36408725
78	0xbf88ea30	-1.0696468
79	0x3e82d34a	0.25551826
80	0xbf6c0fd7	-0.9221167
81	0x3e44bed0	0.19213414
82	0xbe4398b0	-0.19101214
83	0x3f80e768	1.007062
84	0x3f3bc2db	0.733442
85	0x3fb6bb27	1.4275864
86	0x3ea9e4de	0.33182424
87	0x3ef7b72b	0.48381934
88	0xbf827052	-1.0190527
89	0xbf246fe4	-0.6423323
90	0x3e15b635	0.14620288
91	0xbf467d08	-0.7753453
92	0xbed88430	-0.4228835
93	0xbf60b6b9	-0.8777881
94	0xbf55cc85	-0.835152
95	0xbe464440	-0.19361973
96	0x3faa0f1b	1.328586
97	0x3f4a046d	0.78913003
98	0x3f5ece2e	0.87033355
99	0x3fa87558	1.316081
100	0x3f899b4c	1.0750518
101	0x3eba1079	0.36340693
102	0xbf980c93	-1.1878837
103	0xbfea3db3	-1.8300079
104	0xbf423e7c	-0.75876594
105	0xbf2251d1	-0.6340609
106	0xbec25d10	-0.37961626
107	0x3f52f21a	0.8240067
108	0x3f993b25	1.1971174
109	0x3f095a8a	0.53653777
110	0xbf28606a	-0.65772116
111	0x3f842fae	1.0327051
112	0xbe5c639b	-0.21522371
113	0xbf71f27e	-0.9451064
114	0xbe94b9df	-0.29048058
115	0x3f57d579	0.8431011
116	0xbfa136b0	-1.2594814
117	0x3ee6e60f	0.45097396
118	0x3f69a47c	0.9126661
119	0xbe18ed1c	-0.149342
120	0x3e84cb85	0.25936523
121	0xbfd40216	-1.6563137
122	0x3e312234	0.17298204
123	0x3f34345f	0.7039241
124	0xc00846b3	-2.1293151
125	0xbd01b3f4	-0.031665757
126	0x3f59ff86	0.8515552
127	0xbc969759	-0.018382715
128	0xbed4a41e	-0.4153146
129	0x3f9202dc	1.1407123
130	0xbf52ef93	-0.8239681
131	0xbf54cf7b	-0.8312909
132	0x3fc23709	1.5173045
133	0xbfac3636	-1.3454044
134	0x3f4d89ec	0.8028858
135	0x3e7bb503	0.24580769
136	0x3e808fad	0.25109616
137	0xbf4485e1	-0.76766783
138	0x3f456892	0.77112687
139	0xbf132a24	-0.57486176
140	0xbeaa6852	-0.33282715
141	0x3f39a9c2	0.72524655
142	0x3fc2b2e2	1.5210841
143	0x3eaa3266	0.33241576
144	0xbea562bd	-0.32301894
145	0x3dfa3df4	0.12218848
146	0xbefcdbde	-0.49386495
147	0xbfa9b803	-1.3259281
148	0xbe9488d0	-0.2901063
149	0x3e464e08	0.19365704
150	0x3f33c614	0.7022412
151	0x3fd2524e	1.6431367
152	0xbedf4c0f	-0.43612716
153	0x3efd0d0f	0.49424025
154	0x3f1ca487	0.6118855
155	0xbe575c6a	-0.21031347
156	0xbee49bf0	-0.4465022
157	0xbcb6e88d	-0.022327686
158	0xbec1da8d	-0.37862054
159	0xbdd748f9	-0.10511965
160	0xbfb0ad28	-1.3802843
161	0xbc8a7785	-0.016902694
162	0xbf53823f	-0.82620615
163	0x3f45debc	0.7729299
164	0x3ed057fc	0.40692127
165	0x3e82e7a5	0.25567356
166	0x3e490f99	0.19634856
167	0xbdbcf415	-0.092262425
168	0xbe6a38f3	-0.22873287
169	0xbe84875a	-0.25884515
170	0x3c2ca3e5	0.010537122
171	0xbfee679f	-1.8625373
172	0xbf2168bb	-0.6305043
173	0xbf3b0156	-0.73048913
174	0xbf80141b	-1.0006136
175	0x3e818ca9	0.25302628
176	0x40110d7e	2.2664485
177	0x3e370698	0.17873609
178	0x3f76b0d1	0.9636355
179	0x3f6e2b9a	0.9303528
180	0xbe53a17a	-0.20667067
181	0x3fad434a	1.353616
182	0x3e811361	0.25210097
183	0xbebec250	-0.37257624
184	0x3f3c5ff0	0.7358389
185	0x3f2f8e1e	0.6857623
186	0xc0142f56	-2.3153892
187	0xbf10bf46	-0.5654186
188	0x3ec64884	0.387272
189	0xbf653845	-0.89538985
190	0xbc7b4393	-0.015335935
191	0x3fc93fe2	1.572262
192	0x3f41e23b	0.75735825
193	0x3f937abe	1.1521833
194	0x3f6b19e8	0.91836405
195	0x3afd9eb3	0.0019349664
196	0xbfdb8952	-1.7151282
197	0xbf78ad41	-0.97139364
198	0xbfbad16c	-1.459516
199	0xbf85b78c	-1.0446639

layerz.0.bias f4 [40]
0	0xbff92cee	-1.9466836
1	0xc0178c19	-2.367926
2	0xbf860b85	-1.0472265
3	0xbffd287c	-1.977798
4	0xbfb75bb7	-1.4324864
5	0xbfd301d3	-1.6484932
6	0xc01094d8	-2.2590847
7	0xbf56b5b7	-0.83871025
8	0xbd81ca9d	-0.063374735
9	0xc04f2899	-3.236853
10	0xbffe2a62	-1.9856684
11	0xc009058e	-2.140964
12	0xbeaf3330	-0.3421874
13	0xbf9e3372	-1.235945
14	0xc02be990	-2.6861305
15	0xbf06bb36	-0.5262941
16	0xbf9dbe9f	-1.2323798
17	0xc0125314	-2.2863207
18	0xbe280fcd	-0.16412278
19	0xbffc057d	-1.9689175
20	0xc006eb37	-2.1081064
21	0xbf7972b7	-0.97440666
22	0xbf8141dc	-1.0098224
23	0xbffd1edf	-1.9775046
24	0xc0308df7	-2.7586648
25	0xbe727437	-0.23677145
26	0xc0678f6b	-3.6181285
27	0x3d4de082	0.050262935
28	0xbfa02686	-1.2511756
29	0xbf1a4d74	-0.60274434
30	0xc04d867d	-3.2113335
31	0x3e2b548d	0.16731472
32	0xc094c781	-4.6493535
33	0x3e64c39a	0.22340241
34	0xbfcf2b42	-1.6185076
35	0xbfcc7b68	-1.5975161
36	0xbed28e52	-0.41124207
37	0xc03b89c5	-2.9302838
38	0xbf9dff9d	-1.2343632
39	0xbfc7ee90	-1.5619678

layerz.1.weight f4 [5, 20]
0	0xbf480028	-0.7812524
1	0x3f656f48	0.89622927
2	0x3f66ba46	0.9012798
3	0xbcd49d1f	-0.025953827
4	0x3f837452	1.0269873
5	0xbe72329a	-0.23652115
6	0xbc5ceb74	-0.013483871
7	0xbf30e68f	-0.69101804
8	0x3f9a72a5	1.2066237
9	0x3ebf3ba8	0.37350202
10	0xbf47a95e	-0.7799281
11	0xbdfa3570	-0.12217224
12	0xbf2eea24	-0.6832602
13	0xbf8f964a	-1.121774
14	0x3e488033	0.19580154
15	0x3ea246b2	0.3169456
16	0xbead8e22	-0.338975
17	0xbf289355	-0.6584981
18	0x3f61918f	0.8811273
19	0x3e9326f1	0.28740647
20	0xbdfa8c95	-0.12233845
21	0xbf6114c0	-0.87922287
22	0x3e28e2cd	0.16492768
23	0x3f6d7ef4	0.9277184
24	0xbe000945	-0.12503536
25	0xbc8f2a10	-0.017476112
26	0xbdb8435e	-0.08997224
27	0x3e24ee75	0.16106589
28	0x3efb2b45	0.4905645
29	0xbf5ba650	-0.8580065
30	0xbf530216	-0.8242506
31	0xbf2562cc	-0.6460388
32	0x3f46d0b6	0.7766222
33	0xbdb54912	-0.08851828
34	0x3f3c316f	0.7351293
35	0xbd06e1d1	-0.0329302
36	0x3f8c9759	1.0983688
37	0x3f60527d	0.8762587
38	0xbf6ede0b	-0.9330756
39	0x3f01be06	0.5068058
40	0xbf8c563e	-1.0963819
41	0x3f40e9ec	0.75356936
42	0x3df2db59	0.118582435
43	0x3f06a989	0.5260244
44	0xbf29c486	-0.66315496
45	0x3fb69d04	1.4266667
46	0xbebb4ada	-0.36580545
47	0x3e8d2b1b	0.2757195
48	0xbeaac50b	-0.33353457
49	0xbeba9b73	-0.36446723
50	0xbe0dbc67	-0.13841401
51	0xbf336708	-0.7007909
52	0xbf0f7d5e	-0.5605067
53	0xbeab3c2a	-0.3344434
54	0x3e15d909	0.14633574
55	0x3e0eccee	0.13945362
56	0x3ed8ceab	0.42345175
57	0x3ec0239b	0.37527165
58	0x3f46b7ae	0.7762402
59	0xbea1375a	-0.31487542
60	0x3f60d94c	0.8783157
61	0xbe62be39	-0.22142877
62	0xbe8211bf	-0.25404164
63	0xbf265aed	-0.6498249
64	0xbe905f75	-0.28197828
65	0xbf817437	-1.0113591
66	0xbd598511	-0.053105418
67	0xbf500f1b	-0.8127305
68	0xbe821291	-0.2540479
69	0x3cb346d5	0.021884361
70	0x3ecfe7d4	0.40606558
71	0x3f7f78cd	0.997937
72	0xbe5a3ab2	-0.21311453
73	0x3ec00c40	0.37509346
74	0x3d37b1f3	0.04484744
75	0x3f7862a8	0.9702554
76	0x3f1f984e	0.62341774
77	0xbf3af71c	-0.7303331
78	0xbf5b4860	-0.8565731
79	0x3f92d236	1.1470401
80	0xbfc0813c	-1.5039439
81	0x3e2a0279	0.16602506
82	0x3f8d9496	1.106097
83	0x3f16d1cf	0.5891389
84	0x3f20510b	0.6262366
85	0x3ebd5e40	0.3698597
86	0xbf482c52	-0.7819263
87	0xbf3659f1	-0.7123099
88	0x3eabf874	0.33587992
89	0xbeac545b	-0.33658108
90	0xbeef557b	-0.46744904
91	0xbea8ec34	-0.3299271
92	0xbd9b9d45	-0.07598356
93	0xbe77e5d7	-0.2420877
94	0x3bf0ece7	0.0073524597
95	0x3d130d29	0.035901222
96	0x3f23f49d	0.64045125
97	0xbeecb75c	-0.46233642
98	0xbe0fd8cd	-0.14047547
99	0x3f519b47	0.8187756

layerz.1.bias f4 [5]
0	0x3ec1c3dd	0.37844744
1	0xbeb2e586	-0.34940737
2	0xbf2fe84e	-0.68713844
3	0xbe897017	-0.2684333
4	0xbd9e7df6	-0.07738869
